// -----// IR Dump Before Inliner (inline) ('builtin.module' operation) //----- //
#loc = loc("/home/yongqi/external/triton_shared/python/examples/test_matmul.py":37:0)
#loc72 = loc("/home/yongqi/.local/lib/python3.12/site-packages/triton/language/standard.py":35:0)
module {
  tt.func public @matmul_kernel(%arg0: !tt.ptr<f32> {tt.divisibility = 16 : i32} loc("/home/yongqi/external/triton_shared/python/examples/test_matmul.py":37:0), %arg1: !tt.ptr<f32> {tt.divisibility = 16 : i32} loc("/home/yongqi/external/triton_shared/python/examples/test_matmul.py":37:0), %arg2: !tt.ptr<f32> {tt.divisibility = 16 : i32} loc("/home/yongqi/external/triton_shared/python/examples/test_matmul.py":37:0), %arg3: i32 loc("/home/yongqi/external/triton_shared/python/examples/test_matmul.py":37:0), %arg4: i32 loc("/home/yongqi/external/triton_shared/python/examples/test_matmul.py":37:0), %arg5: i32 loc("/home/yongqi/external/triton_shared/python/examples/test_matmul.py":37:0), %arg6: i32 loc("/home/yongqi/external/triton_shared/python/examples/test_matmul.py":37:0), %arg7: i32 loc("/home/yongqi/external/triton_shared/python/examples/test_matmul.py":37:0), %arg8: i32 loc("/home/yongqi/external/triton_shared/python/examples/test_matmul.py":37:0)) attributes {noinline = false} {
    %0 = tt.get_program_id x : i32 loc(#loc1)
    %1 = tt.call @cdiv__i32__1cconstexpr_32_(%arg3) : (i32) -> i32 loc(#loc2)
    %2 = tt.call @cdiv__i32__1cconstexpr_64_(%arg4) : (i32) -> i32 loc(#loc3)
    %c8_i32 = arith.constant 8 : i32 loc(#loc4)
    %3 = arith.muli %2, %c8_i32 : i32 loc(#loc4)
    %4 = arith.divsi %0, %3 : i32 loc(#loc5)
    %c8_i32_0 = arith.constant 8 : i32 loc(#loc6)
    %5 = arith.muli %4, %c8_i32_0 : i32 loc(#loc6)
    %6 = arith.subi %1, %5 : i32 loc(#loc7)
    %c8_i32_1 = arith.constant 8 : i32 loc(#loc8)
    %7 = arith.minsi %6, %c8_i32_1 : i32 loc(#loc8)
    %8 = arith.remsi %0, %7 : i32 loc(#loc9)
    %9 = arith.addi %5, %8 : i32 loc(#loc10)
    %10 = arith.remsi %0, %3 : i32 loc(#loc11)
    %11 = arith.divsi %10, %7 : i32 loc(#loc12)
    %c32_i32 = arith.constant 32 : i32 loc(#loc13)
    %12 = arith.muli %9, %c32_i32 : i32 loc(#loc13)
    %13 = tt.make_range {end = 32 : i32, start = 0 : i32} : tensor<32xi32> loc(#loc14)
    %14 = tt.splat %12 : i32 -> tensor<32xi32> loc(#loc15)
    %15 = arith.addi %14, %13 : tensor<32xi32> loc(#loc15)
    %16 = tt.splat %arg3 : i32 -> tensor<32xi32> loc(#loc16)
    %17 = arith.remsi %15, %16 : tensor<32xi32> loc(#loc16)
    %c64_i32 = arith.constant 64 : i32 loc(#loc17)
    %18 = arith.muli %11, %c64_i32 : i32 loc(#loc17)
    %19 = tt.make_range {end = 64 : i32, start = 0 : i32} : tensor<64xi32> loc(#loc18)
    %20 = tt.splat %18 : i32 -> tensor<64xi32> loc(#loc19)
    %21 = arith.addi %20, %19 : tensor<64xi32> loc(#loc19)
    %22 = tt.splat %arg4 : i32 -> tensor<64xi32> loc(#loc20)
    %23 = arith.remsi %21, %22 : tensor<64xi32> loc(#loc20)
    %24 = tt.make_range {end = 16 : i32, start = 0 : i32} : tensor<16xi32> loc(#loc21)
    %25 = tt.expand_dims %17 {axis = 1 : i32} : tensor<32xi32> -> tensor<32x1xi32> loc(#loc22)
    %26 = tt.splat %arg6 : i32 -> tensor<32x1xi32> loc(#loc23)
    %27 = arith.muli %25, %26 : tensor<32x1xi32> loc(#loc23)
    %28 = tt.expand_dims %24 {axis = 0 : i32} : tensor<16xi32> -> tensor<1x16xi32> loc(#loc24)
    %c1_i32 = arith.constant 1 : i32 loc(#loc25)
    %cst = arith.constant dense<1> : tensor<1x16xi32> loc(#loc25)
    %29 = arith.muli %28, %cst : tensor<1x16xi32> loc(#loc25)
    %30 = tt.broadcast %27 : tensor<32x1xi32> -> tensor<32x16xi32> loc(#loc26)
    %31 = tt.broadcast %29 : tensor<1x16xi32> -> tensor<32x16xi32> loc(#loc26)
    %32 = arith.addi %30, %31 : tensor<32x16xi32> loc(#loc26)
    %33 = tt.splat %arg0 : !tt.ptr<f32> -> tensor<32x16x!tt.ptr<f32>> loc(#loc27)
    %34 = tt.addptr %33, %32 : tensor<32x16x!tt.ptr<f32>>, tensor<32x16xi32> loc(#loc27)
    %35 = tt.expand_dims %24 {axis = 1 : i32} : tensor<16xi32> -> tensor<16x1xi32> loc(#loc28)
    %36 = tt.splat %arg7 : i32 -> tensor<16x1xi32> loc(#loc29)
    %37 = arith.muli %35, %36 : tensor<16x1xi32> loc(#loc29)
    %38 = tt.expand_dims %23 {axis = 0 : i32} : tensor<64xi32> -> tensor<1x64xi32> loc(#loc30)
    %c1_i32_2 = arith.constant 1 : i32 loc(#loc31)
    %cst_3 = arith.constant dense<1> : tensor<1x64xi32> loc(#loc31)
    %39 = arith.muli %38, %cst_3 : tensor<1x64xi32> loc(#loc31)
    %40 = tt.broadcast %37 : tensor<16x1xi32> -> tensor<16x64xi32> loc(#loc32)
    %41 = tt.broadcast %39 : tensor<1x64xi32> -> tensor<16x64xi32> loc(#loc32)
    %42 = arith.addi %40, %41 : tensor<16x64xi32> loc(#loc32)
    %43 = tt.splat %arg1 : !tt.ptr<f32> -> tensor<16x64x!tt.ptr<f32>> loc(#loc33)
    %44 = tt.addptr %43, %42 : tensor<16x64x!tt.ptr<f32>>, tensor<16x64xi32> loc(#loc33)
    %45 = tt.call @"zeros____0cconstexpr_(constexpr_32_, constexpr_64_)__1cconstexpr_fp32_"() : () -> tensor<32x64xf32> loc(#loc34)
    %46 = tt.call @cdiv__i32__1cconstexpr_16_(%arg5) : (i32) -> i32 loc(#loc35)
    %c0_i32 = arith.constant 0 : i32 loc(#loc36)
    %c1_i32_4 = arith.constant 1 : i32 loc(#loc36)
    %47 = arith.bitcast %c0_i32 : i32 to i32 loc(#loc36)
    %48 = arith.bitcast %46 : i32 to i32 loc(#loc36)
    %49 = arith.bitcast %c1_i32_4 : i32 to i32 loc(#loc36)
    %50 = llvm.mlir.undef : i32 loc(#loc36)
    %51:3 = scf.for %arg9 = %47 to %48 step %49 iter_args(%arg10 = %45, %arg11 = %34, %arg12 = %44) -> (tensor<32x64xf32>, tensor<32x16x!tt.ptr<f32>>, tensor<16x64x!tt.ptr<f32>>)  : i32 {
      %79 = tt.expand_dims %24 {axis = 0 : i32} : tensor<16xi32> -> tensor<1x16xi32> loc(#loc37)
      %c16_i32 = arith.constant 16 : i32 loc(#loc38)
      %80 = arith.muli %arg9, %c16_i32 : i32 loc(#loc38)
      %81 = arith.subi %arg5, %80 : i32 loc(#loc39)
      %82 = tt.splat %81 : i32 -> tensor<1x16xi32> loc(#loc40)
      %83 = arith.cmpi slt, %79, %82 : tensor<1x16xi32> loc(#loc40)
      %cst_9 = arith.constant 0.000000e+00 : f32 loc(#loc41)
      %84 = tt.broadcast %83 : tensor<1x16xi1> -> tensor<32x16xi1> loc(#loc41)
      %cst_10 = arith.constant dense<0.000000e+00> : tensor<32x16xf32> loc(#loc41)
      %85 = tt.load %arg11, %84, %cst_10 : tensor<32x16x!tt.ptr<f32>> loc(#loc41)
      %86 = tt.expand_dims %24 {axis = 1 : i32} : tensor<16xi32> -> tensor<16x1xi32> loc(#loc42)
      %c16_i32_11 = arith.constant 16 : i32 loc(#loc43)
      %87 = arith.muli %arg9, %c16_i32_11 : i32 loc(#loc43)
      %88 = arith.subi %arg5, %87 : i32 loc(#loc44)
      %89 = tt.splat %88 : i32 -> tensor<16x1xi32> loc(#loc45)
      %90 = arith.cmpi slt, %86, %89 : tensor<16x1xi32> loc(#loc45)
      %cst_12 = arith.constant 0.000000e+00 : f32 loc(#loc46)
      %91 = tt.broadcast %90 : tensor<16x1xi1> -> tensor<16x64xi1> loc(#loc46)
      %cst_13 = arith.constant dense<0.000000e+00> : tensor<16x64xf32> loc(#loc46)
      %92 = tt.load %arg12, %91, %cst_13 : tensor<16x64x!tt.ptr<f32>> loc(#loc46)
      %cst_14 = arith.constant 0.000000e+00 : f32 loc(#loc47)
      %cst_15 = arith.constant dense<0.000000e+00> : tensor<32x64xf32> loc(#loc47)
      %93 = tt.dot %85, %92, %cst_15, inputPrecision = tf32 : tensor<32x16xf32> * tensor<16x64xf32> -> tensor<32x64xf32> loc(#loc47)
      %94 = arith.addf %arg10, %93 : tensor<32x64xf32> loc(#loc48)
      %c16_i32_16 = arith.constant 16 : i32 loc(#loc49)
      %cst_17 = arith.constant dense<16> : tensor<32x16xi32> loc(#loc49)
      %95 = tt.addptr %arg11, %cst_17 : tensor<32x16x!tt.ptr<f32>>, tensor<32x16xi32> loc(#loc49)
      %c16_i32_18 = arith.constant 16 : i32 loc(#loc50)
      %96 = arith.muli %arg7, %c16_i32_18 : i32 loc(#loc50)
      %97 = tt.splat %96 : i32 -> tensor<16x64xi32> loc(#loc51)
      %98 = tt.addptr %arg12, %97 : tensor<16x64x!tt.ptr<f32>>, tensor<16x64xi32> loc(#loc51)
      scf.yield %94, %95, %98 : tensor<32x64xf32>, tensor<32x16x!tt.ptr<f32>>, tensor<16x64x!tt.ptr<f32>> loc(#loc52)
    } loc(#loc36)
    %c32_i32_5 = arith.constant 32 : i32 loc(#loc53)
    %52 = arith.muli %9, %c32_i32_5 : i32 loc(#loc53)
    %53 = tt.make_range {end = 32 : i32, start = 0 : i32} : tensor<32xi32> loc(#loc54)
    %54 = tt.splat %52 : i32 -> tensor<32xi32> loc(#loc55)
    %55 = arith.addi %54, %53 : tensor<32xi32> loc(#loc55)
    %c64_i32_6 = arith.constant 64 : i32 loc(#loc56)
    %56 = arith.muli %11, %c64_i32_6 : i32 loc(#loc56)
    %57 = tt.make_range {end = 64 : i32, start = 0 : i32} : tensor<64xi32> loc(#loc57)
    %58 = tt.splat %56 : i32 -> tensor<64xi32> loc(#loc58)
    %59 = arith.addi %58, %57 : tensor<64xi32> loc(#loc58)
    %60 = tt.expand_dims %55 {axis = 1 : i32} : tensor<32xi32> -> tensor<32x1xi32> loc(#loc59)
    %61 = tt.splat %arg8 : i32 -> tensor<32x1xi32> loc(#loc60)
    %62 = arith.muli %61, %60 : tensor<32x1xi32> loc(#loc60)
    %63 = tt.splat %arg2 : !tt.ptr<f32> -> tensor<32x1x!tt.ptr<f32>> loc(#loc61)
    %64 = tt.addptr %63, %62 : tensor<32x1x!tt.ptr<f32>>, tensor<32x1xi32> loc(#loc61)
    %65 = tt.expand_dims %59 {axis = 0 : i32} : tensor<64xi32> -> tensor<1x64xi32> loc(#loc62)
    %c1_i32_7 = arith.constant 1 : i32 loc(#loc63)
    %cst_8 = arith.constant dense<1> : tensor<1x64xi32> loc(#loc63)
    %66 = arith.muli %65, %cst_8 : tensor<1x64xi32> loc(#loc63)
    %67 = tt.broadcast %64 : tensor<32x1x!tt.ptr<f32>> -> tensor<32x64x!tt.ptr<f32>> loc(#loc64)
    %68 = tt.broadcast %66 : tensor<1x64xi32> -> tensor<32x64xi32> loc(#loc64)
    %69 = tt.addptr %67, %68 : tensor<32x64x!tt.ptr<f32>>, tensor<32x64xi32> loc(#loc64)
    %70 = tt.expand_dims %55 {axis = 1 : i32} : tensor<32xi32> -> tensor<32x1xi32> loc(#loc65)
    %71 = tt.splat %arg3 : i32 -> tensor<32x1xi32> loc(#loc66)
    %72 = arith.cmpi slt, %70, %71 : tensor<32x1xi32> loc(#loc66)
    %73 = tt.expand_dims %59 {axis = 0 : i32} : tensor<64xi32> -> tensor<1x64xi32> loc(#loc67)
    %74 = tt.splat %arg4 : i32 -> tensor<1x64xi32> loc(#loc68)
    %75 = arith.cmpi slt, %73, %74 : tensor<1x64xi32> loc(#loc68)
    %76 = tt.broadcast %72 : tensor<32x1xi1> -> tensor<32x64xi1> loc(#loc69)
    %77 = tt.broadcast %75 : tensor<1x64xi1> -> tensor<32x64xi1> loc(#loc69)
    %78 = arith.andi %76, %77 : tensor<32x64xi1> loc(#loc69)
    tt.store %69, %51#0, %78 : tensor<32x64x!tt.ptr<f32>> loc(#loc70)
    tt.return loc(#loc71)
  } loc(#loc)
  tt.func private @cdiv__i32__1cconstexpr_32_(%arg0: i32 loc("/home/yongqi/.local/lib/python3.12/site-packages/triton/language/standard.py":35:0)) -> i32 attributes {noinline = false} {
    %c32_i32 = arith.constant 32 : i32 loc(#loc73)
    %0 = arith.addi %arg0, %c32_i32 : i32 loc(#loc73)
    %c1_i32 = arith.constant 1 : i32 loc(#loc74)
    %1 = arith.subi %0, %c1_i32 : i32 loc(#loc74)
    %c32_i32_0 = arith.constant 32 : i32 loc(#loc75)
    %2 = arith.divsi %1, %c32_i32_0 : i32 loc(#loc75)
    tt.return %2 : i32 loc(#loc76)
  } loc(#loc72)
  tt.func private @cdiv__i32__1cconstexpr_64_(%arg0: i32 loc("/home/yongqi/.local/lib/python3.12/site-packages/triton/language/standard.py":35:0)) -> i32 attributes {noinline = false} {
    %c64_i32 = arith.constant 64 : i32 loc(#loc73)
    %0 = arith.addi %arg0, %c64_i32 : i32 loc(#loc73)
    %c1_i32 = arith.constant 1 : i32 loc(#loc74)
    %1 = arith.subi %0, %c1_i32 : i32 loc(#loc74)
    %c64_i32_0 = arith.constant 64 : i32 loc(#loc75)
    %2 = arith.divsi %1, %c64_i32_0 : i32 loc(#loc75)
    tt.return %2 : i32 loc(#loc76)
  } loc(#loc72)
  tt.func private @"zeros____0cconstexpr_(constexpr_32_, constexpr_64_)__1cconstexpr_fp32_"() -> tensor<32x64xf32> attributes {noinline = false} {
    %cst = arith.constant 0.000000e+00 : f32 loc(#loc78)
    %cst_0 = arith.constant dense<0.000000e+00> : tensor<32x64xf32> loc(#loc78)
    tt.return %cst_0 : tensor<32x64xf32> loc(#loc79)
  } loc(#loc77)
  tt.func private @cdiv__i32__1cconstexpr_16_(%arg0: i32 loc("/home/yongqi/.local/lib/python3.12/site-packages/triton/language/standard.py":35:0)) -> i32 attributes {noinline = false} {
    %c16_i32 = arith.constant 16 : i32 loc(#loc73)
    %0 = arith.addi %arg0, %c16_i32 : i32 loc(#loc73)
    %c1_i32 = arith.constant 1 : i32 loc(#loc74)
    %1 = arith.subi %0, %c1_i32 : i32 loc(#loc74)
    %c16_i32_0 = arith.constant 16 : i32 loc(#loc75)
    %2 = arith.divsi %1, %c16_i32_0 : i32 loc(#loc75)
    tt.return %2 : i32 loc(#loc76)
  } loc(#loc72)
} loc(#loc)
#loc1 = loc("/home/yongqi/external/triton_shared/python/examples/test_matmul.py":60:24)
#loc2 = loc("/home/yongqi/external/triton_shared/python/examples/test_matmul.py":61:27)
#loc3 = loc("/home/yongqi/external/triton_shared/python/examples/test_matmul.py":62:27)
#loc4 = loc("/home/yongqi/external/triton_shared/python/examples/test_matmul.py":63:38)
#loc5 = loc("/home/yongqi/external/triton_shared/python/examples/test_matmul.py":64:22)
#loc6 = loc("/home/yongqi/external/triton_shared/python/examples/test_matmul.py":65:29)
#loc7 = loc("/home/yongqi/external/triton_shared/python/examples/test_matmul.py":66:35)
#loc8 = loc("/home/yongqi/external/triton_shared/python/examples/test_matmul.py":66:48)
#loc9 = loc("/home/yongqi/external/triton_shared/python/examples/test_matmul.py":67:33)
#loc10 = loc("/home/yongqi/external/triton_shared/python/examples/test_matmul.py":67:27)
#loc11 = loc("/home/yongqi/external/triton_shared/python/examples/test_matmul.py":68:19)
#loc12 = loc("/home/yongqi/external/triton_shared/python/examples/test_matmul.py":68:40)
#loc13 = loc("/home/yongqi/external/triton_shared/python/examples/test_matmul.py":77:23)
#loc14 = loc("/home/yongqi/external/triton_shared/python/examples/test_matmul.py":77:51)
#loc15 = loc("/home/yongqi/external/triton_shared/python/examples/test_matmul.py":77:38)
#loc16 = loc("/home/yongqi/external/triton_shared/python/examples/test_matmul.py":77:68)
#loc17 = loc("/home/yongqi/external/triton_shared/python/examples/test_matmul.py":78:23)
#loc18 = loc("/home/yongqi/external/triton_shared/python/examples/test_matmul.py":78:51)
#loc19 = loc("/home/yongqi/external/triton_shared/python/examples/test_matmul.py":78:38)
#loc20 = loc("/home/yongqi/external/triton_shared/python/examples/test_matmul.py":78:68)
#loc21 = loc("/home/yongqi/external/triton_shared/python/examples/test_matmul.py":79:26)
#loc22 = loc("/home/yongqi/external/triton_shared/python/examples/test_matmul.py":80:30)
#loc23 = loc("/home/yongqi/external/triton_shared/python/examples/test_matmul.py":80:41)
#loc24 = loc("/home/yongqi/external/triton_shared/python/examples/test_matmul.py":80:60)
#loc25 = loc("/home/yongqi/external/triton_shared/python/examples/test_matmul.py":80:71)
#loc26 = loc("/home/yongqi/external/triton_shared/python/examples/test_matmul.py":80:53)
#loc27 = loc("/home/yongqi/external/triton_shared/python/examples/test_matmul.py":80:22)
#loc28 = loc("/home/yongqi/external/triton_shared/python/examples/test_matmul.py":81:29)
#loc29 = loc("/home/yongqi/external/triton_shared/python/examples/test_matmul.py":81:40)
#loc30 = loc("/home/yongqi/external/triton_shared/python/examples/test_matmul.py":81:60)
#loc31 = loc("/home/yongqi/external/triton_shared/python/examples/test_matmul.py":81:71)
#loc32 = loc("/home/yongqi/external/triton_shared/python/examples/test_matmul.py":81:52)
#loc33 = loc("/home/yongqi/external/triton_shared/python/examples/test_matmul.py":81:22)
#loc34 = loc("/home/yongqi/external/triton_shared/python/examples/test_matmul.py":88:27)
#loc35 = loc("/home/yongqi/external/triton_shared/python/examples/test_matmul.py":89:33)
#loc36 = loc("/home/yongqi/external/triton_shared/python/examples/test_matmul.py":89:22)
#loc37 = loc("/home/yongqi/external/triton_shared/python/examples/test_matmul.py":92:40)
#loc38 = loc("/home/yongqi/external/triton_shared/python/examples/test_matmul.py":92:59)
#loc39 = loc("/home/yongqi/external/triton_shared/python/examples/test_matmul.py":92:55)
#loc40 = loc("/home/yongqi/external/triton_shared/python/examples/test_matmul.py":92:51)
#loc41 = loc("/home/yongqi/external/triton_shared/python/examples/test_matmul.py":92:20)
#loc42 = loc("/home/yongqi/external/triton_shared/python/examples/test_matmul.py":93:40)
#loc43 = loc("/home/yongqi/external/triton_shared/python/examples/test_matmul.py":93:59)
#loc44 = loc("/home/yongqi/external/triton_shared/python/examples/test_matmul.py":93:55)
#loc45 = loc("/home/yongqi/external/triton_shared/python/examples/test_matmul.py":93:51)
#loc46 = loc("/home/yongqi/external/triton_shared/python/examples/test_matmul.py":93:20)
#loc47 = loc("/home/yongqi/external/triton_shared/python/examples/test_matmul.py":95:33)
#loc48 = loc("/home/yongqi/external/triton_shared/python/examples/test_matmul.py":95:23)
#loc49 = loc("/home/yongqi/external/triton_shared/python/examples/test_matmul.py":97:18)
#loc50 = loc("/home/yongqi/external/triton_shared/python/examples/test_matmul.py":98:33)
#loc51 = loc("/home/yongqi/external/triton_shared/python/examples/test_matmul.py":98:18)
#loc52 = loc("/home/yongqi/external/triton_shared/python/examples/test_matmul.py":98:8)
#loc53 = loc("/home/yongqi/external/triton_shared/python/examples/test_matmul.py":107:22)
#loc54 = loc("/home/yongqi/external/triton_shared/python/examples/test_matmul.py":107:50)
#loc55 = loc("/home/yongqi/external/triton_shared/python/examples/test_matmul.py":107:37)
#loc56 = loc("/home/yongqi/external/triton_shared/python/examples/test_matmul.py":108:22)
#loc57 = loc("/home/yongqi/external/triton_shared/python/examples/test_matmul.py":108:50)
#loc58 = loc("/home/yongqi/external/triton_shared/python/examples/test_matmul.py":108:37)
#loc59 = loc("/home/yongqi/external/triton_shared/python/examples/test_matmul.py":109:41)
#loc60 = loc("/home/yongqi/external/triton_shared/python/examples/test_matmul.py":109:33)
#loc61 = loc("/home/yongqi/external/triton_shared/python/examples/test_matmul.py":109:21)
#loc62 = loc("/home/yongqi/external/triton_shared/python/examples/test_matmul.py":109:72)
#loc63 = loc("/home/yongqi/external/triton_shared/python/examples/test_matmul.py":109:64)
#loc64 = loc("/home/yongqi/external/triton_shared/python/examples/test_matmul.py":109:52)
#loc65 = loc("/home/yongqi/external/triton_shared/python/examples/test_matmul.py":110:22)
#loc66 = loc("/home/yongqi/external/triton_shared/python/examples/test_matmul.py":110:33)
#loc67 = loc("/home/yongqi/external/triton_shared/python/examples/test_matmul.py":110:47)
#loc68 = loc("/home/yongqi/external/triton_shared/python/examples/test_matmul.py":110:58)
#loc69 = loc("/home/yongqi/external/triton_shared/python/examples/test_matmul.py":110:39)
#loc70 = loc("/home/yongqi/external/triton_shared/python/examples/test_matmul.py":111:21)
#loc71 = loc("/home/yongqi/external/triton_shared/python/examples/test_matmul.py":111:4)
#loc73 = loc("/home/yongqi/.local/lib/python3.12/site-packages/triton/language/standard.py":44:16)
#loc74 = loc("/home/yongqi/.local/lib/python3.12/site-packages/triton/language/standard.py":44:22)
#loc75 = loc("/home/yongqi/.local/lib/python3.12/site-packages/triton/language/standard.py":44:28)
#loc76 = loc("/home/yongqi/.local/lib/python3.12/site-packages/triton/language/standard.py":44:11)
#loc77 = loc("/home/yongqi/.local/lib/python3.12/site-packages/triton/language/standard.py":117:0)
#loc78 = loc("/home/yongqi/.local/lib/python3.12/site-packages/triton/language/standard.py":126:31)
#loc79 = loc("/home/yongqi/.local/lib/python3.12/site-packages/triton/language/standard.py":126:11)


// -----// IR Dump Before Canonicalizer (canonicalize) ('tt.func' operation: @cdiv__i32__1cconstexpr_32_) //----- //
#loc = loc("/home/yongqi/external/triton_shared/python/examples/test_matmul.py":37:0)
#loc72 = loc("/home/yongqi/.local/lib/python3.12/site-packages/triton/language/standard.py":35:0)
module {
  tt.func public @matmul_kernel(%arg0: !tt.ptr<f32> {tt.divisibility = 16 : i32} loc("/home/yongqi/external/triton_shared/python/examples/test_matmul.py":37:0), %arg1: !tt.ptr<f32> {tt.divisibility = 16 : i32} loc("/home/yongqi/external/triton_shared/python/examples/test_matmul.py":37:0), %arg2: !tt.ptr<f32> {tt.divisibility = 16 : i32} loc("/home/yongqi/external/triton_shared/python/examples/test_matmul.py":37:0), %arg3: i32 loc("/home/yongqi/external/triton_shared/python/examples/test_matmul.py":37:0), %arg4: i32 loc("/home/yongqi/external/triton_shared/python/examples/test_matmul.py":37:0), %arg5: i32 loc("/home/yongqi/external/triton_shared/python/examples/test_matmul.py":37:0), %arg6: i32 loc("/home/yongqi/external/triton_shared/python/examples/test_matmul.py":37:0), %arg7: i32 loc("/home/yongqi/external/triton_shared/python/examples/test_matmul.py":37:0), %arg8: i32 loc("/home/yongqi/external/triton_shared/python/examples/test_matmul.py":37:0)) attributes {noinline = false} {
    %0 = tt.get_program_id x : i32 loc(#loc1)
    %1 = tt.call @cdiv__i32__1cconstexpr_32_(%arg3) : (i32) -> i32 loc(#loc2)
    %2 = tt.call @cdiv__i32__1cconstexpr_64_(%arg4) : (i32) -> i32 loc(#loc3)
    %c8_i32 = arith.constant 8 : i32 loc(#loc4)
    %3 = arith.muli %2, %c8_i32 : i32 loc(#loc4)
    %4 = arith.divsi %0, %3 : i32 loc(#loc5)
    %c8_i32_0 = arith.constant 8 : i32 loc(#loc6)
    %5 = arith.muli %4, %c8_i32_0 : i32 loc(#loc6)
    %6 = arith.subi %1, %5 : i32 loc(#loc7)
    %c8_i32_1 = arith.constant 8 : i32 loc(#loc8)
    %7 = arith.minsi %6, %c8_i32_1 : i32 loc(#loc8)
    %8 = arith.remsi %0, %7 : i32 loc(#loc9)
    %9 = arith.addi %5, %8 : i32 loc(#loc10)
    %10 = arith.remsi %0, %3 : i32 loc(#loc11)
    %11 = arith.divsi %10, %7 : i32 loc(#loc12)
    %c32_i32 = arith.constant 32 : i32 loc(#loc13)
    %12 = arith.muli %9, %c32_i32 : i32 loc(#loc13)
    %13 = tt.make_range {end = 32 : i32, start = 0 : i32} : tensor<32xi32> loc(#loc14)
    %14 = tt.splat %12 : i32 -> tensor<32xi32> loc(#loc15)
    %15 = arith.addi %14, %13 : tensor<32xi32> loc(#loc15)
    %16 = tt.splat %arg3 : i32 -> tensor<32xi32> loc(#loc16)
    %17 = arith.remsi %15, %16 : tensor<32xi32> loc(#loc16)
    %c64_i32 = arith.constant 64 : i32 loc(#loc17)
    %18 = arith.muli %11, %c64_i32 : i32 loc(#loc17)
    %19 = tt.make_range {end = 64 : i32, start = 0 : i32} : tensor<64xi32> loc(#loc18)
    %20 = tt.splat %18 : i32 -> tensor<64xi32> loc(#loc19)
    %21 = arith.addi %20, %19 : tensor<64xi32> loc(#loc19)
    %22 = tt.splat %arg4 : i32 -> tensor<64xi32> loc(#loc20)
    %23 = arith.remsi %21, %22 : tensor<64xi32> loc(#loc20)
    %24 = tt.make_range {end = 16 : i32, start = 0 : i32} : tensor<16xi32> loc(#loc21)
    %25 = tt.expand_dims %17 {axis = 1 : i32} : tensor<32xi32> -> tensor<32x1xi32> loc(#loc22)
    %26 = tt.splat %arg6 : i32 -> tensor<32x1xi32> loc(#loc23)
    %27 = arith.muli %25, %26 : tensor<32x1xi32> loc(#loc23)
    %28 = tt.expand_dims %24 {axis = 0 : i32} : tensor<16xi32> -> tensor<1x16xi32> loc(#loc24)
    %c1_i32 = arith.constant 1 : i32 loc(#loc25)
    %cst = arith.constant dense<1> : tensor<1x16xi32> loc(#loc25)
    %29 = arith.muli %28, %cst : tensor<1x16xi32> loc(#loc25)
    %30 = tt.broadcast %27 : tensor<32x1xi32> -> tensor<32x16xi32> loc(#loc26)
    %31 = tt.broadcast %29 : tensor<1x16xi32> -> tensor<32x16xi32> loc(#loc26)
    %32 = arith.addi %30, %31 : tensor<32x16xi32> loc(#loc26)
    %33 = tt.splat %arg0 : !tt.ptr<f32> -> tensor<32x16x!tt.ptr<f32>> loc(#loc27)
    %34 = tt.addptr %33, %32 : tensor<32x16x!tt.ptr<f32>>, tensor<32x16xi32> loc(#loc27)
    %35 = tt.expand_dims %24 {axis = 1 : i32} : tensor<16xi32> -> tensor<16x1xi32> loc(#loc28)
    %36 = tt.splat %arg7 : i32 -> tensor<16x1xi32> loc(#loc29)
    %37 = arith.muli %35, %36 : tensor<16x1xi32> loc(#loc29)
    %38 = tt.expand_dims %23 {axis = 0 : i32} : tensor<64xi32> -> tensor<1x64xi32> loc(#loc30)
    %c1_i32_2 = arith.constant 1 : i32 loc(#loc31)
    %cst_3 = arith.constant dense<1> : tensor<1x64xi32> loc(#loc31)
    %39 = arith.muli %38, %cst_3 : tensor<1x64xi32> loc(#loc31)
    %40 = tt.broadcast %37 : tensor<16x1xi32> -> tensor<16x64xi32> loc(#loc32)
    %41 = tt.broadcast %39 : tensor<1x64xi32> -> tensor<16x64xi32> loc(#loc32)
    %42 = arith.addi %40, %41 : tensor<16x64xi32> loc(#loc32)
    %43 = tt.splat %arg1 : !tt.ptr<f32> -> tensor<16x64x!tt.ptr<f32>> loc(#loc33)
    %44 = tt.addptr %43, %42 : tensor<16x64x!tt.ptr<f32>>, tensor<16x64xi32> loc(#loc33)
    %45 = tt.call @"zeros____0cconstexpr_(constexpr_32_, constexpr_64_)__1cconstexpr_fp32_"() : () -> tensor<32x64xf32> loc(#loc34)
    %46 = tt.call @cdiv__i32__1cconstexpr_16_(%arg5) : (i32) -> i32 loc(#loc35)
    %c0_i32 = arith.constant 0 : i32 loc(#loc36)
    %c1_i32_4 = arith.constant 1 : i32 loc(#loc36)
    %47 = arith.bitcast %c0_i32 : i32 to i32 loc(#loc36)
    %48 = arith.bitcast %46 : i32 to i32 loc(#loc36)
    %49 = arith.bitcast %c1_i32_4 : i32 to i32 loc(#loc36)
    %50 = llvm.mlir.undef : i32 loc(#loc36)
    %51:3 = scf.for %arg9 = %47 to %48 step %49 iter_args(%arg10 = %45, %arg11 = %34, %arg12 = %44) -> (tensor<32x64xf32>, tensor<32x16x!tt.ptr<f32>>, tensor<16x64x!tt.ptr<f32>>)  : i32 {
      %79 = tt.expand_dims %24 {axis = 0 : i32} : tensor<16xi32> -> tensor<1x16xi32> loc(#loc37)
      %c16_i32 = arith.constant 16 : i32 loc(#loc38)
      %80 = arith.muli %arg9, %c16_i32 : i32 loc(#loc38)
      %81 = arith.subi %arg5, %80 : i32 loc(#loc39)
      %82 = tt.splat %81 : i32 -> tensor<1x16xi32> loc(#loc40)
      %83 = arith.cmpi slt, %79, %82 : tensor<1x16xi32> loc(#loc40)
      %cst_9 = arith.constant 0.000000e+00 : f32 loc(#loc41)
      %84 = tt.broadcast %83 : tensor<1x16xi1> -> tensor<32x16xi1> loc(#loc41)
      %cst_10 = arith.constant dense<0.000000e+00> : tensor<32x16xf32> loc(#loc41)
      %85 = tt.load %arg11, %84, %cst_10 : tensor<32x16x!tt.ptr<f32>> loc(#loc41)
      %86 = tt.expand_dims %24 {axis = 1 : i32} : tensor<16xi32> -> tensor<16x1xi32> loc(#loc42)
      %c16_i32_11 = arith.constant 16 : i32 loc(#loc43)
      %87 = arith.muli %arg9, %c16_i32_11 : i32 loc(#loc43)
      %88 = arith.subi %arg5, %87 : i32 loc(#loc44)
      %89 = tt.splat %88 : i32 -> tensor<16x1xi32> loc(#loc45)
      %90 = arith.cmpi slt, %86, %89 : tensor<16x1xi32> loc(#loc45)
      %cst_12 = arith.constant 0.000000e+00 : f32 loc(#loc46)
      %91 = tt.broadcast %90 : tensor<16x1xi1> -> tensor<16x64xi1> loc(#loc46)
      %cst_13 = arith.constant dense<0.000000e+00> : tensor<16x64xf32> loc(#loc46)
      %92 = tt.load %arg12, %91, %cst_13 : tensor<16x64x!tt.ptr<f32>> loc(#loc46)
      %cst_14 = arith.constant 0.000000e+00 : f32 loc(#loc47)
      %cst_15 = arith.constant dense<0.000000e+00> : tensor<32x64xf32> loc(#loc47)
      %93 = tt.dot %85, %92, %cst_15, inputPrecision = tf32 : tensor<32x16xf32> * tensor<16x64xf32> -> tensor<32x64xf32> loc(#loc47)
      %94 = arith.addf %arg10, %93 : tensor<32x64xf32> loc(#loc48)
      %c16_i32_16 = arith.constant 16 : i32 loc(#loc49)
      %cst_17 = arith.constant dense<16> : tensor<32x16xi32> loc(#loc49)
      %95 = tt.addptr %arg11, %cst_17 : tensor<32x16x!tt.ptr<f32>>, tensor<32x16xi32> loc(#loc49)
      %c16_i32_18 = arith.constant 16 : i32 loc(#loc50)
      %96 = arith.muli %arg7, %c16_i32_18 : i32 loc(#loc50)
      %97 = tt.splat %96 : i32 -> tensor<16x64xi32> loc(#loc51)
      %98 = tt.addptr %arg12, %97 : tensor<16x64x!tt.ptr<f32>>, tensor<16x64xi32> loc(#loc51)
      scf.yield %94, %95, %98 : tensor<32x64xf32>, tensor<32x16x!tt.ptr<f32>>, tensor<16x64x!tt.ptr<f32>> loc(#loc52)
    } loc(#loc36)
    %c32_i32_5 = arith.constant 32 : i32 loc(#loc53)
    %52 = arith.muli %9, %c32_i32_5 : i32 loc(#loc53)
    %53 = tt.make_range {end = 32 : i32, start = 0 : i32} : tensor<32xi32> loc(#loc54)
    %54 = tt.splat %52 : i32 -> tensor<32xi32> loc(#loc55)
    %55 = arith.addi %54, %53 : tensor<32xi32> loc(#loc55)
    %c64_i32_6 = arith.constant 64 : i32 loc(#loc56)
    %56 = arith.muli %11, %c64_i32_6 : i32 loc(#loc56)
    %57 = tt.make_range {end = 64 : i32, start = 0 : i32} : tensor<64xi32> loc(#loc57)
    %58 = tt.splat %56 : i32 -> tensor<64xi32> loc(#loc58)
    %59 = arith.addi %58, %57 : tensor<64xi32> loc(#loc58)
    %60 = tt.expand_dims %55 {axis = 1 : i32} : tensor<32xi32> -> tensor<32x1xi32> loc(#loc59)
    %61 = tt.splat %arg8 : i32 -> tensor<32x1xi32> loc(#loc60)
    %62 = arith.muli %61, %60 : tensor<32x1xi32> loc(#loc60)
    %63 = tt.splat %arg2 : !tt.ptr<f32> -> tensor<32x1x!tt.ptr<f32>> loc(#loc61)
    %64 = tt.addptr %63, %62 : tensor<32x1x!tt.ptr<f32>>, tensor<32x1xi32> loc(#loc61)
    %65 = tt.expand_dims %59 {axis = 0 : i32} : tensor<64xi32> -> tensor<1x64xi32> loc(#loc62)
    %c1_i32_7 = arith.constant 1 : i32 loc(#loc63)
    %cst_8 = arith.constant dense<1> : tensor<1x64xi32> loc(#loc63)
    %66 = arith.muli %65, %cst_8 : tensor<1x64xi32> loc(#loc63)
    %67 = tt.broadcast %64 : tensor<32x1x!tt.ptr<f32>> -> tensor<32x64x!tt.ptr<f32>> loc(#loc64)
    %68 = tt.broadcast %66 : tensor<1x64xi32> -> tensor<32x64xi32> loc(#loc64)
    %69 = tt.addptr %67, %68 : tensor<32x64x!tt.ptr<f32>>, tensor<32x64xi32> loc(#loc64)
    %70 = tt.expand_dims %55 {axis = 1 : i32} : tensor<32xi32> -> tensor<32x1xi32> loc(#loc65)
    %71 = tt.splat %arg3 : i32 -> tensor<32x1xi32> loc(#loc66)
    %72 = arith.cmpi slt, %70, %71 : tensor<32x1xi32> loc(#loc66)
    %73 = tt.expand_dims %59 {axis = 0 : i32} : tensor<64xi32> -> tensor<1x64xi32> loc(#loc67)
    %74 = tt.splat %arg4 : i32 -> tensor<1x64xi32> loc(#loc68)
    %75 = arith.cmpi slt, %73, %74 : tensor<1x64xi32> loc(#loc68)
    %76 = tt.broadcast %72 : tensor<32x1xi1> -> tensor<32x64xi1> loc(#loc69)
    %77 = tt.broadcast %75 : tensor<1x64xi1> -> tensor<32x64xi1> loc(#loc69)
    %78 = arith.andi %76, %77 : tensor<32x64xi1> loc(#loc69)
    tt.store %69, %51#0, %78 : tensor<32x64x!tt.ptr<f32>> loc(#loc70)
    tt.return loc(#loc71)
  } loc(#loc)
  tt.func private @cdiv__i32__1cconstexpr_32_(%arg0: i32 loc("/home/yongqi/.local/lib/python3.12/site-packages/triton/language/standard.py":35:0)) -> i32 attributes {noinline = false} {
    %c32_i32 = arith.constant 32 : i32 loc(#loc73)
    %0 = arith.addi %arg0, %c32_i32 : i32 loc(#loc73)
    %c1_i32 = arith.constant 1 : i32 loc(#loc74)
    %1 = arith.subi %0, %c1_i32 : i32 loc(#loc74)
    %c32_i32_0 = arith.constant 32 : i32 loc(#loc75)
    %2 = arith.divsi %1, %c32_i32_0 : i32 loc(#loc75)
    tt.return %2 : i32 loc(#loc76)
  } loc(#loc72)
  tt.func private @cdiv__i32__1cconstexpr_64_(%arg0: i32 loc("/home/yongqi/.local/lib/python3.12/site-packages/triton/language/standard.py":35:0)) -> i32 attributes {noinline = false} {
    %c64_i32 = arith.constant 64 : i32 loc(#loc73)
    %0 = arith.addi %arg0, %c64_i32 : i32 loc(#loc73)
    %c1_i32 = arith.constant 1 : i32 loc(#loc74)
    %1 = arith.subi %0, %c1_i32 : i32 loc(#loc74)
    %c64_i32_0 = arith.constant 64 : i32 loc(#loc75)
    %2 = arith.divsi %1, %c64_i32_0 : i32 loc(#loc75)
    tt.return %2 : i32 loc(#loc76)
  } loc(#loc72)
  tt.func private @"zeros____0cconstexpr_(constexpr_32_, constexpr_64_)__1cconstexpr_fp32_"() -> tensor<32x64xf32> attributes {noinline = false} {
    %cst = arith.constant 0.000000e+00 : f32 loc(#loc78)
    %cst_0 = arith.constant dense<0.000000e+00> : tensor<32x64xf32> loc(#loc78)
    tt.return %cst_0 : tensor<32x64xf32> loc(#loc79)
  } loc(#loc77)
  tt.func private @cdiv__i32__1cconstexpr_16_(%arg0: i32 loc("/home/yongqi/.local/lib/python3.12/site-packages/triton/language/standard.py":35:0)) -> i32 attributes {noinline = false} {
    %c16_i32 = arith.constant 16 : i32 loc(#loc73)
    %0 = arith.addi %arg0, %c16_i32 : i32 loc(#loc73)
    %c1_i32 = arith.constant 1 : i32 loc(#loc74)
    %1 = arith.subi %0, %c1_i32 : i32 loc(#loc74)
    %c16_i32_0 = arith.constant 16 : i32 loc(#loc75)
    %2 = arith.divsi %1, %c16_i32_0 : i32 loc(#loc75)
    tt.return %2 : i32 loc(#loc76)
  } loc(#loc72)
} loc(#loc)
#loc1 = loc("/home/yongqi/external/triton_shared/python/examples/test_matmul.py":60:24)
#loc2 = loc("/home/yongqi/external/triton_shared/python/examples/test_matmul.py":61:27)
#loc3 = loc("/home/yongqi/external/triton_shared/python/examples/test_matmul.py":62:27)
#loc4 = loc("/home/yongqi/external/triton_shared/python/examples/test_matmul.py":63:38)
#loc5 = loc("/home/yongqi/external/triton_shared/python/examples/test_matmul.py":64:22)
#loc6 = loc("/home/yongqi/external/triton_shared/python/examples/test_matmul.py":65:29)
#loc7 = loc("/home/yongqi/external/triton_shared/python/examples/test_matmul.py":66:35)
#loc8 = loc("/home/yongqi/external/triton_shared/python/examples/test_matmul.py":66:48)
#loc9 = loc("/home/yongqi/external/triton_shared/python/examples/test_matmul.py":67:33)
#loc10 = loc("/home/yongqi/external/triton_shared/python/examples/test_matmul.py":67:27)
#loc11 = loc("/home/yongqi/external/triton_shared/python/examples/test_matmul.py":68:19)
#loc12 = loc("/home/yongqi/external/triton_shared/python/examples/test_matmul.py":68:40)
#loc13 = loc("/home/yongqi/external/triton_shared/python/examples/test_matmul.py":77:23)
#loc14 = loc("/home/yongqi/external/triton_shared/python/examples/test_matmul.py":77:51)
#loc15 = loc("/home/yongqi/external/triton_shared/python/examples/test_matmul.py":77:38)
#loc16 = loc("/home/yongqi/external/triton_shared/python/examples/test_matmul.py":77:68)
#loc17 = loc("/home/yongqi/external/triton_shared/python/examples/test_matmul.py":78:23)
#loc18 = loc("/home/yongqi/external/triton_shared/python/examples/test_matmul.py":78:51)
#loc19 = loc("/home/yongqi/external/triton_shared/python/examples/test_matmul.py":78:38)
#loc20 = loc("/home/yongqi/external/triton_shared/python/examples/test_matmul.py":78:68)
#loc21 = loc("/home/yongqi/external/triton_shared/python/examples/test_matmul.py":79:26)
#loc22 = loc("/home/yongqi/external/triton_shared/python/examples/test_matmul.py":80:30)
#loc23 = loc("/home/yongqi/external/triton_shared/python/examples/test_matmul.py":80:41)
#loc24 = loc("/home/yongqi/external/triton_shared/python/examples/test_matmul.py":80:60)
#loc25 = loc("/home/yongqi/external/triton_shared/python/examples/test_matmul.py":80:71)
#loc26 = loc("/home/yongqi/external/triton_shared/python/examples/test_matmul.py":80:53)
#loc27 = loc("/home/yongqi/external/triton_shared/python/examples/test_matmul.py":80:22)
#loc28 = loc("/home/yongqi/external/triton_shared/python/examples/test_matmul.py":81:29)
#loc29 = loc("/home/yongqi/external/triton_shared/python/examples/test_matmul.py":81:40)
#loc30 = loc("/home/yongqi/external/triton_shared/python/examples/test_matmul.py":81:60)
#loc31 = loc("/home/yongqi/external/triton_shared/python/examples/test_matmul.py":81:71)
#loc32 = loc("/home/yongqi/external/triton_shared/python/examples/test_matmul.py":81:52)
#loc33 = loc("/home/yongqi/external/triton_shared/python/examples/test_matmul.py":81:22)
#loc34 = loc("/home/yongqi/external/triton_shared/python/examples/test_matmul.py":88:27)
#loc35 = loc("/home/yongqi/external/triton_shared/python/examples/test_matmul.py":89:33)
#loc36 = loc("/home/yongqi/external/triton_shared/python/examples/test_matmul.py":89:22)
#loc37 = loc("/home/yongqi/external/triton_shared/python/examples/test_matmul.py":92:40)
#loc38 = loc("/home/yongqi/external/triton_shared/python/examples/test_matmul.py":92:59)
#loc39 = loc("/home/yongqi/external/triton_shared/python/examples/test_matmul.py":92:55)
#loc40 = loc("/home/yongqi/external/triton_shared/python/examples/test_matmul.py":92:51)
#loc41 = loc("/home/yongqi/external/triton_shared/python/examples/test_matmul.py":92:20)
#loc42 = loc("/home/yongqi/external/triton_shared/python/examples/test_matmul.py":93:40)
#loc43 = loc("/home/yongqi/external/triton_shared/python/examples/test_matmul.py":93:59)
#loc44 = loc("/home/yongqi/external/triton_shared/python/examples/test_matmul.py":93:55)
#loc45 = loc("/home/yongqi/external/triton_shared/python/examples/test_matmul.py":93:51)
#loc46 = loc("/home/yongqi/external/triton_shared/python/examples/test_matmul.py":93:20)
#loc47 = loc("/home/yongqi/external/triton_shared/python/examples/test_matmul.py":95:33)
#loc48 = loc("/home/yongqi/external/triton_shared/python/examples/test_matmul.py":95:23)
#loc49 = loc("/home/yongqi/external/triton_shared/python/examples/test_matmul.py":97:18)
#loc50 = loc("/home/yongqi/external/triton_shared/python/examples/test_matmul.py":98:33)
#loc51 = loc("/home/yongqi/external/triton_shared/python/examples/test_matmul.py":98:18)
#loc52 = loc("/home/yongqi/external/triton_shared/python/examples/test_matmul.py":98:8)
#loc53 = loc("/home/yongqi/external/triton_shared/python/examples/test_matmul.py":107:22)
#loc54 = loc("/home/yongqi/external/triton_shared/python/examples/test_matmul.py":107:50)
#loc55 = loc("/home/yongqi/external/triton_shared/python/examples/test_matmul.py":107:37)
#loc56 = loc("/home/yongqi/external/triton_shared/python/examples/test_matmul.py":108:22)
#loc57 = loc("/home/yongqi/external/triton_shared/python/examples/test_matmul.py":108:50)
#loc58 = loc("/home/yongqi/external/triton_shared/python/examples/test_matmul.py":108:37)
#loc59 = loc("/home/yongqi/external/triton_shared/python/examples/test_matmul.py":109:41)
#loc60 = loc("/home/yongqi/external/triton_shared/python/examples/test_matmul.py":109:33)
#loc61 = loc("/home/yongqi/external/triton_shared/python/examples/test_matmul.py":109:21)
#loc62 = loc("/home/yongqi/external/triton_shared/python/examples/test_matmul.py":109:72)
#loc63 = loc("/home/yongqi/external/triton_shared/python/examples/test_matmul.py":109:64)
#loc64 = loc("/home/yongqi/external/triton_shared/python/examples/test_matmul.py":109:52)
#loc65 = loc("/home/yongqi/external/triton_shared/python/examples/test_matmul.py":110:22)
#loc66 = loc("/home/yongqi/external/triton_shared/python/examples/test_matmul.py":110:33)
#loc67 = loc("/home/yongqi/external/triton_shared/python/examples/test_matmul.py":110:47)
#loc68 = loc("/home/yongqi/external/triton_shared/python/examples/test_matmul.py":110:58)
#loc69 = loc("/home/yongqi/external/triton_shared/python/examples/test_matmul.py":110:39)
#loc70 = loc("/home/yongqi/external/triton_shared/python/examples/test_matmul.py":111:21)
#loc71 = loc("/home/yongqi/external/triton_shared/python/examples/test_matmul.py":111:4)
#loc73 = loc("/home/yongqi/.local/lib/python3.12/site-packages/triton/language/standard.py":44:16)
#loc74 = loc("/home/yongqi/.local/lib/python3.12/site-packages/triton/language/standard.py":44:22)
#loc75 = loc("/home/yongqi/.local/lib/python3.12/site-packages/triton/language/standard.py":44:28)
#loc76 = loc("/home/yongqi/.local/lib/python3.12/site-packages/triton/language/standard.py":44:11)
#loc77 = loc("/home/yongqi/.local/lib/python3.12/site-packages/triton/language/standard.py":117:0)
#loc78 = loc("/home/yongqi/.local/lib/python3.12/site-packages/triton/language/standard.py":126:31)
#loc79 = loc("/home/yongqi/.local/lib/python3.12/site-packages/triton/language/standard.py":126:11)


// -----// IR Dump Before Canonicalizer (canonicalize) ('tt.func' operation: @cdiv__i32__1cconstexpr_64_) //----- //
#loc = loc("/home/yongqi/external/triton_shared/python/examples/test_matmul.py":37:0)
#loc72 = loc("/home/yongqi/.local/lib/python3.12/site-packages/triton/language/standard.py":35:0)
module {
  tt.func public @matmul_kernel(%arg0: !tt.ptr<f32> {tt.divisibility = 16 : i32} loc("/home/yongqi/external/triton_shared/python/examples/test_matmul.py":37:0), %arg1: !tt.ptr<f32> {tt.divisibility = 16 : i32} loc("/home/yongqi/external/triton_shared/python/examples/test_matmul.py":37:0), %arg2: !tt.ptr<f32> {tt.divisibility = 16 : i32} loc("/home/yongqi/external/triton_shared/python/examples/test_matmul.py":37:0), %arg3: i32 loc("/home/yongqi/external/triton_shared/python/examples/test_matmul.py":37:0), %arg4: i32 loc("/home/yongqi/external/triton_shared/python/examples/test_matmul.py":37:0), %arg5: i32 loc("/home/yongqi/external/triton_shared/python/examples/test_matmul.py":37:0), %arg6: i32 loc("/home/yongqi/external/triton_shared/python/examples/test_matmul.py":37:0), %arg7: i32 loc("/home/yongqi/external/triton_shared/python/examples/test_matmul.py":37:0), %arg8: i32 loc("/home/yongqi/external/triton_shared/python/examples/test_matmul.py":37:0)) attributes {noinline = false} {
    %0 = tt.get_program_id x : i32 loc(#loc1)
    %1 = tt.call @cdiv__i32__1cconstexpr_32_(%arg3) : (i32) -> i32 loc(#loc2)
    %2 = tt.call @cdiv__i32__1cconstexpr_64_(%arg4) : (i32) -> i32 loc(#loc3)
    %c8_i32 = arith.constant 8 : i32 loc(#loc4)
    %3 = arith.muli %2, %c8_i32 : i32 loc(#loc4)
    %4 = arith.divsi %0, %3 : i32 loc(#loc5)
    %c8_i32_0 = arith.constant 8 : i32 loc(#loc6)
    %5 = arith.muli %4, %c8_i32_0 : i32 loc(#loc6)
    %6 = arith.subi %1, %5 : i32 loc(#loc7)
    %c8_i32_1 = arith.constant 8 : i32 loc(#loc8)
    %7 = arith.minsi %6, %c8_i32_1 : i32 loc(#loc8)
    %8 = arith.remsi %0, %7 : i32 loc(#loc9)
    %9 = arith.addi %5, %8 : i32 loc(#loc10)
    %10 = arith.remsi %0, %3 : i32 loc(#loc11)
    %11 = arith.divsi %10, %7 : i32 loc(#loc12)
    %c32_i32 = arith.constant 32 : i32 loc(#loc13)
    %12 = arith.muli %9, %c32_i32 : i32 loc(#loc13)
    %13 = tt.make_range {end = 32 : i32, start = 0 : i32} : tensor<32xi32> loc(#loc14)
    %14 = tt.splat %12 : i32 -> tensor<32xi32> loc(#loc15)
    %15 = arith.addi %14, %13 : tensor<32xi32> loc(#loc15)
    %16 = tt.splat %arg3 : i32 -> tensor<32xi32> loc(#loc16)
    %17 = arith.remsi %15, %16 : tensor<32xi32> loc(#loc16)
    %c64_i32 = arith.constant 64 : i32 loc(#loc17)
    %18 = arith.muli %11, %c64_i32 : i32 loc(#loc17)
    %19 = tt.make_range {end = 64 : i32, start = 0 : i32} : tensor<64xi32> loc(#loc18)
    %20 = tt.splat %18 : i32 -> tensor<64xi32> loc(#loc19)
    %21 = arith.addi %20, %19 : tensor<64xi32> loc(#loc19)
    %22 = tt.splat %arg4 : i32 -> tensor<64xi32> loc(#loc20)
    %23 = arith.remsi %21, %22 : tensor<64xi32> loc(#loc20)
    %24 = tt.make_range {end = 16 : i32, start = 0 : i32} : tensor<16xi32> loc(#loc21)
    %25 = tt.expand_dims %17 {axis = 1 : i32} : tensor<32xi32> -> tensor<32x1xi32> loc(#loc22)
    %26 = tt.splat %arg6 : i32 -> tensor<32x1xi32> loc(#loc23)
    %27 = arith.muli %25, %26 : tensor<32x1xi32> loc(#loc23)
    %28 = tt.expand_dims %24 {axis = 0 : i32} : tensor<16xi32> -> tensor<1x16xi32> loc(#loc24)
    %c1_i32 = arith.constant 1 : i32 loc(#loc25)
    %cst = arith.constant dense<1> : tensor<1x16xi32> loc(#loc25)
    %29 = arith.muli %28, %cst : tensor<1x16xi32> loc(#loc25)
    %30 = tt.broadcast %27 : tensor<32x1xi32> -> tensor<32x16xi32> loc(#loc26)
    %31 = tt.broadcast %29 : tensor<1x16xi32> -> tensor<32x16xi32> loc(#loc26)
    %32 = arith.addi %30, %31 : tensor<32x16xi32> loc(#loc26)
    %33 = tt.splat %arg0 : !tt.ptr<f32> -> tensor<32x16x!tt.ptr<f32>> loc(#loc27)
    %34 = tt.addptr %33, %32 : tensor<32x16x!tt.ptr<f32>>, tensor<32x16xi32> loc(#loc27)
    %35 = tt.expand_dims %24 {axis = 1 : i32} : tensor<16xi32> -> tensor<16x1xi32> loc(#loc28)
    %36 = tt.splat %arg7 : i32 -> tensor<16x1xi32> loc(#loc29)
    %37 = arith.muli %35, %36 : tensor<16x1xi32> loc(#loc29)
    %38 = tt.expand_dims %23 {axis = 0 : i32} : tensor<64xi32> -> tensor<1x64xi32> loc(#loc30)
    %c1_i32_2 = arith.constant 1 : i32 loc(#loc31)
    %cst_3 = arith.constant dense<1> : tensor<1x64xi32> loc(#loc31)
    %39 = arith.muli %38, %cst_3 : tensor<1x64xi32> loc(#loc31)
    %40 = tt.broadcast %37 : tensor<16x1xi32> -> tensor<16x64xi32> loc(#loc32)
    %41 = tt.broadcast %39 : tensor<1x64xi32> -> tensor<16x64xi32> loc(#loc32)
    %42 = arith.addi %40, %41 : tensor<16x64xi32> loc(#loc32)
    %43 = tt.splat %arg1 : !tt.ptr<f32> -> tensor<16x64x!tt.ptr<f32>> loc(#loc33)
    %44 = tt.addptr %43, %42 : tensor<16x64x!tt.ptr<f32>>, tensor<16x64xi32> loc(#loc33)
    %45 = tt.call @"zeros____0cconstexpr_(constexpr_32_, constexpr_64_)__1cconstexpr_fp32_"() : () -> tensor<32x64xf32> loc(#loc34)
    %46 = tt.call @cdiv__i32__1cconstexpr_16_(%arg5) : (i32) -> i32 loc(#loc35)
    %c0_i32 = arith.constant 0 : i32 loc(#loc36)
    %c1_i32_4 = arith.constant 1 : i32 loc(#loc36)
    %47 = arith.bitcast %c0_i32 : i32 to i32 loc(#loc36)
    %48 = arith.bitcast %46 : i32 to i32 loc(#loc36)
    %49 = arith.bitcast %c1_i32_4 : i32 to i32 loc(#loc36)
    %50 = llvm.mlir.undef : i32 loc(#loc36)
    %51:3 = scf.for %arg9 = %47 to %48 step %49 iter_args(%arg10 = %45, %arg11 = %34, %arg12 = %44) -> (tensor<32x64xf32>, tensor<32x16x!tt.ptr<f32>>, tensor<16x64x!tt.ptr<f32>>)  : i32 {
      %79 = tt.expand_dims %24 {axis = 0 : i32} : tensor<16xi32> -> tensor<1x16xi32> loc(#loc37)
      %c16_i32 = arith.constant 16 : i32 loc(#loc38)
      %80 = arith.muli %arg9, %c16_i32 : i32 loc(#loc38)
      %81 = arith.subi %arg5, %80 : i32 loc(#loc39)
      %82 = tt.splat %81 : i32 -> tensor<1x16xi32> loc(#loc40)
      %83 = arith.cmpi slt, %79, %82 : tensor<1x16xi32> loc(#loc40)
      %cst_9 = arith.constant 0.000000e+00 : f32 loc(#loc41)
      %84 = tt.broadcast %83 : tensor<1x16xi1> -> tensor<32x16xi1> loc(#loc41)
      %cst_10 = arith.constant dense<0.000000e+00> : tensor<32x16xf32> loc(#loc41)
      %85 = tt.load %arg11, %84, %cst_10 : tensor<32x16x!tt.ptr<f32>> loc(#loc41)
      %86 = tt.expand_dims %24 {axis = 1 : i32} : tensor<16xi32> -> tensor<16x1xi32> loc(#loc42)
      %c16_i32_11 = arith.constant 16 : i32 loc(#loc43)
      %87 = arith.muli %arg9, %c16_i32_11 : i32 loc(#loc43)
      %88 = arith.subi %arg5, %87 : i32 loc(#loc44)
      %89 = tt.splat %88 : i32 -> tensor<16x1xi32> loc(#loc45)
      %90 = arith.cmpi slt, %86, %89 : tensor<16x1xi32> loc(#loc45)
      %cst_12 = arith.constant 0.000000e+00 : f32 loc(#loc46)
      %91 = tt.broadcast %90 : tensor<16x1xi1> -> tensor<16x64xi1> loc(#loc46)
      %cst_13 = arith.constant dense<0.000000e+00> : tensor<16x64xf32> loc(#loc46)
      %92 = tt.load %arg12, %91, %cst_13 : tensor<16x64x!tt.ptr<f32>> loc(#loc46)
      %cst_14 = arith.constant 0.000000e+00 : f32 loc(#loc47)
      %cst_15 = arith.constant dense<0.000000e+00> : tensor<32x64xf32> loc(#loc47)
      %93 = tt.dot %85, %92, %cst_15, inputPrecision = tf32 : tensor<32x16xf32> * tensor<16x64xf32> -> tensor<32x64xf32> loc(#loc47)
      %94 = arith.addf %arg10, %93 : tensor<32x64xf32> loc(#loc48)
      %c16_i32_16 = arith.constant 16 : i32 loc(#loc49)
      %cst_17 = arith.constant dense<16> : tensor<32x16xi32> loc(#loc49)
      %95 = tt.addptr %arg11, %cst_17 : tensor<32x16x!tt.ptr<f32>>, tensor<32x16xi32> loc(#loc49)
      %c16_i32_18 = arith.constant 16 : i32 loc(#loc50)
      %96 = arith.muli %arg7, %c16_i32_18 : i32 loc(#loc50)
      %97 = tt.splat %96 : i32 -> tensor<16x64xi32> loc(#loc51)
      %98 = tt.addptr %arg12, %97 : tensor<16x64x!tt.ptr<f32>>, tensor<16x64xi32> loc(#loc51)
      scf.yield %94, %95, %98 : tensor<32x64xf32>, tensor<32x16x!tt.ptr<f32>>, tensor<16x64x!tt.ptr<f32>> loc(#loc52)
    } loc(#loc36)
    %c32_i32_5 = arith.constant 32 : i32 loc(#loc53)
    %52 = arith.muli %9, %c32_i32_5 : i32 loc(#loc53)
    %53 = tt.make_range {end = 32 : i32, start = 0 : i32} : tensor<32xi32> loc(#loc54)
    %54 = tt.splat %52 : i32 -> tensor<32xi32> loc(#loc55)
    %55 = arith.addi %54, %53 : tensor<32xi32> loc(#loc55)
    %c64_i32_6 = arith.constant 64 : i32 loc(#loc56)
    %56 = arith.muli %11, %c64_i32_6 : i32 loc(#loc56)
    %57 = tt.make_range {end = 64 : i32, start = 0 : i32} : tensor<64xi32> loc(#loc57)
    %58 = tt.splat %56 : i32 -> tensor<64xi32> loc(#loc58)
    %59 = arith.addi %58, %57 : tensor<64xi32> loc(#loc58)
    %60 = tt.expand_dims %55 {axis = 1 : i32} : tensor<32xi32> -> tensor<32x1xi32> loc(#loc59)
    %61 = tt.splat %arg8 : i32 -> tensor<32x1xi32> loc(#loc60)
    %62 = arith.muli %61, %60 : tensor<32x1xi32> loc(#loc60)
    %63 = tt.splat %arg2 : !tt.ptr<f32> -> tensor<32x1x!tt.ptr<f32>> loc(#loc61)
    %64 = tt.addptr %63, %62 : tensor<32x1x!tt.ptr<f32>>, tensor<32x1xi32> loc(#loc61)
    %65 = tt.expand_dims %59 {axis = 0 : i32} : tensor<64xi32> -> tensor<1x64xi32> loc(#loc62)
    %c1_i32_7 = arith.constant 1 : i32 loc(#loc63)
    %cst_8 = arith.constant dense<1> : tensor<1x64xi32> loc(#loc63)
    %66 = arith.muli %65, %cst_8 : tensor<1x64xi32> loc(#loc63)
    %67 = tt.broadcast %64 : tensor<32x1x!tt.ptr<f32>> -> tensor<32x64x!tt.ptr<f32>> loc(#loc64)
    %68 = tt.broadcast %66 : tensor<1x64xi32> -> tensor<32x64xi32> loc(#loc64)
    %69 = tt.addptr %67, %68 : tensor<32x64x!tt.ptr<f32>>, tensor<32x64xi32> loc(#loc64)
    %70 = tt.expand_dims %55 {axis = 1 : i32} : tensor<32xi32> -> tensor<32x1xi32> loc(#loc65)
    %71 = tt.splat %arg3 : i32 -> tensor<32x1xi32> loc(#loc66)
    %72 = arith.cmpi slt, %70, %71 : tensor<32x1xi32> loc(#loc66)
    %73 = tt.expand_dims %59 {axis = 0 : i32} : tensor<64xi32> -> tensor<1x64xi32> loc(#loc67)
    %74 = tt.splat %arg4 : i32 -> tensor<1x64xi32> loc(#loc68)
    %75 = arith.cmpi slt, %73, %74 : tensor<1x64xi32> loc(#loc68)
    %76 = tt.broadcast %72 : tensor<32x1xi1> -> tensor<32x64xi1> loc(#loc69)
    %77 = tt.broadcast %75 : tensor<1x64xi1> -> tensor<32x64xi1> loc(#loc69)
    %78 = arith.andi %76, %77 : tensor<32x64xi1> loc(#loc69)
    tt.store %69, %51#0, %78 : tensor<32x64x!tt.ptr<f32>> loc(#loc70)
    tt.return loc(#loc71)
  } loc(#loc)
  tt.func private @cdiv__i32__1cconstexpr_32_(%arg0: i32 loc("/home/yongqi/.local/lib/python3.12/site-packages/triton/language/standard.py":35:0)) -> i32 attributes {noinline = false} {
    %c32_i32 = arith.constant 32 : i32 loc(#loc73)
    %c31_i32 = arith.constant 31 : i32 loc(#loc74)
    %0 = arith.addi %arg0, %c31_i32 : i32 loc(#loc74)
    %1 = arith.divsi %0, %c32_i32 : i32 loc(#loc75)
    tt.return %1 : i32 loc(#loc76)
  } loc(#loc72)
  tt.func private @cdiv__i32__1cconstexpr_64_(%arg0: i32 loc("/home/yongqi/.local/lib/python3.12/site-packages/triton/language/standard.py":35:0)) -> i32 attributes {noinline = false} {
    %c64_i32 = arith.constant 64 : i32 loc(#loc77)
    %0 = arith.addi %arg0, %c64_i32 : i32 loc(#loc77)
    %c1_i32 = arith.constant 1 : i32 loc(#loc74)
    %1 = arith.subi %0, %c1_i32 : i32 loc(#loc74)
    %c64_i32_0 = arith.constant 64 : i32 loc(#loc75)
    %2 = arith.divsi %1, %c64_i32_0 : i32 loc(#loc75)
    tt.return %2 : i32 loc(#loc76)
  } loc(#loc72)
  tt.func private @"zeros____0cconstexpr_(constexpr_32_, constexpr_64_)__1cconstexpr_fp32_"() -> tensor<32x64xf32> attributes {noinline = false} {
    %cst = arith.constant 0.000000e+00 : f32 loc(#loc79)
    %cst_0 = arith.constant dense<0.000000e+00> : tensor<32x64xf32> loc(#loc79)
    tt.return %cst_0 : tensor<32x64xf32> loc(#loc80)
  } loc(#loc78)
  tt.func private @cdiv__i32__1cconstexpr_16_(%arg0: i32 loc("/home/yongqi/.local/lib/python3.12/site-packages/triton/language/standard.py":35:0)) -> i32 attributes {noinline = false} {
    %c16_i32 = arith.constant 16 : i32 loc(#loc77)
    %0 = arith.addi %arg0, %c16_i32 : i32 loc(#loc77)
    %c1_i32 = arith.constant 1 : i32 loc(#loc74)
    %1 = arith.subi %0, %c1_i32 : i32 loc(#loc74)
    %c16_i32_0 = arith.constant 16 : i32 loc(#loc75)
    %2 = arith.divsi %1, %c16_i32_0 : i32 loc(#loc75)
    tt.return %2 : i32 loc(#loc76)
  } loc(#loc72)
} loc(#loc)
#loc1 = loc("/home/yongqi/external/triton_shared/python/examples/test_matmul.py":60:24)
#loc2 = loc("/home/yongqi/external/triton_shared/python/examples/test_matmul.py":61:27)
#loc3 = loc("/home/yongqi/external/triton_shared/python/examples/test_matmul.py":62:27)
#loc4 = loc("/home/yongqi/external/triton_shared/python/examples/test_matmul.py":63:38)
#loc5 = loc("/home/yongqi/external/triton_shared/python/examples/test_matmul.py":64:22)
#loc6 = loc("/home/yongqi/external/triton_shared/python/examples/test_matmul.py":65:29)
#loc7 = loc("/home/yongqi/external/triton_shared/python/examples/test_matmul.py":66:35)
#loc8 = loc("/home/yongqi/external/triton_shared/python/examples/test_matmul.py":66:48)
#loc9 = loc("/home/yongqi/external/triton_shared/python/examples/test_matmul.py":67:33)
#loc10 = loc("/home/yongqi/external/triton_shared/python/examples/test_matmul.py":67:27)
#loc11 = loc("/home/yongqi/external/triton_shared/python/examples/test_matmul.py":68:19)
#loc12 = loc("/home/yongqi/external/triton_shared/python/examples/test_matmul.py":68:40)
#loc13 = loc("/home/yongqi/external/triton_shared/python/examples/test_matmul.py":77:23)
#loc14 = loc("/home/yongqi/external/triton_shared/python/examples/test_matmul.py":77:51)
#loc15 = loc("/home/yongqi/external/triton_shared/python/examples/test_matmul.py":77:38)
#loc16 = loc("/home/yongqi/external/triton_shared/python/examples/test_matmul.py":77:68)
#loc17 = loc("/home/yongqi/external/triton_shared/python/examples/test_matmul.py":78:23)
#loc18 = loc("/home/yongqi/external/triton_shared/python/examples/test_matmul.py":78:51)
#loc19 = loc("/home/yongqi/external/triton_shared/python/examples/test_matmul.py":78:38)
#loc20 = loc("/home/yongqi/external/triton_shared/python/examples/test_matmul.py":78:68)
#loc21 = loc("/home/yongqi/external/triton_shared/python/examples/test_matmul.py":79:26)
#loc22 = loc("/home/yongqi/external/triton_shared/python/examples/test_matmul.py":80:30)
#loc23 = loc("/home/yongqi/external/triton_shared/python/examples/test_matmul.py":80:41)
#loc24 = loc("/home/yongqi/external/triton_shared/python/examples/test_matmul.py":80:60)
#loc25 = loc("/home/yongqi/external/triton_shared/python/examples/test_matmul.py":80:71)
#loc26 = loc("/home/yongqi/external/triton_shared/python/examples/test_matmul.py":80:53)
#loc27 = loc("/home/yongqi/external/triton_shared/python/examples/test_matmul.py":80:22)
#loc28 = loc("/home/yongqi/external/triton_shared/python/examples/test_matmul.py":81:29)
#loc29 = loc("/home/yongqi/external/triton_shared/python/examples/test_matmul.py":81:40)
#loc30 = loc("/home/yongqi/external/triton_shared/python/examples/test_matmul.py":81:60)
#loc31 = loc("/home/yongqi/external/triton_shared/python/examples/test_matmul.py":81:71)
#loc32 = loc("/home/yongqi/external/triton_shared/python/examples/test_matmul.py":81:52)
#loc33 = loc("/home/yongqi/external/triton_shared/python/examples/test_matmul.py":81:22)
#loc34 = loc("/home/yongqi/external/triton_shared/python/examples/test_matmul.py":88:27)
#loc35 = loc("/home/yongqi/external/triton_shared/python/examples/test_matmul.py":89:33)
#loc36 = loc("/home/yongqi/external/triton_shared/python/examples/test_matmul.py":89:22)
#loc37 = loc("/home/yongqi/external/triton_shared/python/examples/test_matmul.py":92:40)
#loc38 = loc("/home/yongqi/external/triton_shared/python/examples/test_matmul.py":92:59)
#loc39 = loc("/home/yongqi/external/triton_shared/python/examples/test_matmul.py":92:55)
#loc40 = loc("/home/yongqi/external/triton_shared/python/examples/test_matmul.py":92:51)
#loc41 = loc("/home/yongqi/external/triton_shared/python/examples/test_matmul.py":92:20)
#loc42 = loc("/home/yongqi/external/triton_shared/python/examples/test_matmul.py":93:40)
#loc43 = loc("/home/yongqi/external/triton_shared/python/examples/test_matmul.py":93:59)
#loc44 = loc("/home/yongqi/external/triton_shared/python/examples/test_matmul.py":93:55)
#loc45 = loc("/home/yongqi/external/triton_shared/python/examples/test_matmul.py":93:51)
#loc46 = loc("/home/yongqi/external/triton_shared/python/examples/test_matmul.py":93:20)
#loc47 = loc("/home/yongqi/external/triton_shared/python/examples/test_matmul.py":95:33)
#loc48 = loc("/home/yongqi/external/triton_shared/python/examples/test_matmul.py":95:23)
#loc49 = loc("/home/yongqi/external/triton_shared/python/examples/test_matmul.py":97:18)
#loc50 = loc("/home/yongqi/external/triton_shared/python/examples/test_matmul.py":98:33)
#loc51 = loc("/home/yongqi/external/triton_shared/python/examples/test_matmul.py":98:18)
#loc52 = loc("/home/yongqi/external/triton_shared/python/examples/test_matmul.py":98:8)
#loc53 = loc("/home/yongqi/external/triton_shared/python/examples/test_matmul.py":107:22)
#loc54 = loc("/home/yongqi/external/triton_shared/python/examples/test_matmul.py":107:50)
#loc55 = loc("/home/yongqi/external/triton_shared/python/examples/test_matmul.py":107:37)
#loc56 = loc("/home/yongqi/external/triton_shared/python/examples/test_matmul.py":108:22)
#loc57 = loc("/home/yongqi/external/triton_shared/python/examples/test_matmul.py":108:50)
#loc58 = loc("/home/yongqi/external/triton_shared/python/examples/test_matmul.py":108:37)
#loc59 = loc("/home/yongqi/external/triton_shared/python/examples/test_matmul.py":109:41)
#loc60 = loc("/home/yongqi/external/triton_shared/python/examples/test_matmul.py":109:33)
#loc61 = loc("/home/yongqi/external/triton_shared/python/examples/test_matmul.py":109:21)
#loc62 = loc("/home/yongqi/external/triton_shared/python/examples/test_matmul.py":109:72)
#loc63 = loc("/home/yongqi/external/triton_shared/python/examples/test_matmul.py":109:64)
#loc64 = loc("/home/yongqi/external/triton_shared/python/examples/test_matmul.py":109:52)
#loc65 = loc("/home/yongqi/external/triton_shared/python/examples/test_matmul.py":110:22)
#loc66 = loc("/home/yongqi/external/triton_shared/python/examples/test_matmul.py":110:33)
#loc67 = loc("/home/yongqi/external/triton_shared/python/examples/test_matmul.py":110:47)
#loc68 = loc("/home/yongqi/external/triton_shared/python/examples/test_matmul.py":110:58)
#loc69 = loc("/home/yongqi/external/triton_shared/python/examples/test_matmul.py":110:39)
#loc70 = loc("/home/yongqi/external/triton_shared/python/examples/test_matmul.py":111:21)
#loc71 = loc("/home/yongqi/external/triton_shared/python/examples/test_matmul.py":111:4)
#loc73 = loc(unknown)
#loc74 = loc("/home/yongqi/.local/lib/python3.12/site-packages/triton/language/standard.py":44:22)
#loc75 = loc("/home/yongqi/.local/lib/python3.12/site-packages/triton/language/standard.py":44:28)
#loc76 = loc("/home/yongqi/.local/lib/python3.12/site-packages/triton/language/standard.py":44:11)
#loc77 = loc("/home/yongqi/.local/lib/python3.12/site-packages/triton/language/standard.py":44:16)
#loc78 = loc("/home/yongqi/.local/lib/python3.12/site-packages/triton/language/standard.py":117:0)
#loc79 = loc("/home/yongqi/.local/lib/python3.12/site-packages/triton/language/standard.py":126:31)
#loc80 = loc("/home/yongqi/.local/lib/python3.12/site-packages/triton/language/standard.py":126:11)


// -----// IR Dump Before Canonicalizer (canonicalize) ('tt.func' operation: @zeros____0cconstexpr_(constexpr_32_, constexpr_64_)__1cconstexpr_fp32_) //----- //
#loc = loc("/home/yongqi/external/triton_shared/python/examples/test_matmul.py":37:0)
#loc72 = loc("/home/yongqi/.local/lib/python3.12/site-packages/triton/language/standard.py":35:0)
module {
  tt.func public @matmul_kernel(%arg0: !tt.ptr<f32> {tt.divisibility = 16 : i32} loc("/home/yongqi/external/triton_shared/python/examples/test_matmul.py":37:0), %arg1: !tt.ptr<f32> {tt.divisibility = 16 : i32} loc("/home/yongqi/external/triton_shared/python/examples/test_matmul.py":37:0), %arg2: !tt.ptr<f32> {tt.divisibility = 16 : i32} loc("/home/yongqi/external/triton_shared/python/examples/test_matmul.py":37:0), %arg3: i32 loc("/home/yongqi/external/triton_shared/python/examples/test_matmul.py":37:0), %arg4: i32 loc("/home/yongqi/external/triton_shared/python/examples/test_matmul.py":37:0), %arg5: i32 loc("/home/yongqi/external/triton_shared/python/examples/test_matmul.py":37:0), %arg6: i32 loc("/home/yongqi/external/triton_shared/python/examples/test_matmul.py":37:0), %arg7: i32 loc("/home/yongqi/external/triton_shared/python/examples/test_matmul.py":37:0), %arg8: i32 loc("/home/yongqi/external/triton_shared/python/examples/test_matmul.py":37:0)) attributes {noinline = false} {
    %0 = tt.get_program_id x : i32 loc(#loc1)
    %1 = tt.call @cdiv__i32__1cconstexpr_32_(%arg3) : (i32) -> i32 loc(#loc2)
    %2 = tt.call @cdiv__i32__1cconstexpr_64_(%arg4) : (i32) -> i32 loc(#loc3)
    %c8_i32 = arith.constant 8 : i32 loc(#loc4)
    %3 = arith.muli %2, %c8_i32 : i32 loc(#loc4)
    %4 = arith.divsi %0, %3 : i32 loc(#loc5)
    %c8_i32_0 = arith.constant 8 : i32 loc(#loc6)
    %5 = arith.muli %4, %c8_i32_0 : i32 loc(#loc6)
    %6 = arith.subi %1, %5 : i32 loc(#loc7)
    %c8_i32_1 = arith.constant 8 : i32 loc(#loc8)
    %7 = arith.minsi %6, %c8_i32_1 : i32 loc(#loc8)
    %8 = arith.remsi %0, %7 : i32 loc(#loc9)
    %9 = arith.addi %5, %8 : i32 loc(#loc10)
    %10 = arith.remsi %0, %3 : i32 loc(#loc11)
    %11 = arith.divsi %10, %7 : i32 loc(#loc12)
    %c32_i32 = arith.constant 32 : i32 loc(#loc13)
    %12 = arith.muli %9, %c32_i32 : i32 loc(#loc13)
    %13 = tt.make_range {end = 32 : i32, start = 0 : i32} : tensor<32xi32> loc(#loc14)
    %14 = tt.splat %12 : i32 -> tensor<32xi32> loc(#loc15)
    %15 = arith.addi %14, %13 : tensor<32xi32> loc(#loc15)
    %16 = tt.splat %arg3 : i32 -> tensor<32xi32> loc(#loc16)
    %17 = arith.remsi %15, %16 : tensor<32xi32> loc(#loc16)
    %c64_i32 = arith.constant 64 : i32 loc(#loc17)
    %18 = arith.muli %11, %c64_i32 : i32 loc(#loc17)
    %19 = tt.make_range {end = 64 : i32, start = 0 : i32} : tensor<64xi32> loc(#loc18)
    %20 = tt.splat %18 : i32 -> tensor<64xi32> loc(#loc19)
    %21 = arith.addi %20, %19 : tensor<64xi32> loc(#loc19)
    %22 = tt.splat %arg4 : i32 -> tensor<64xi32> loc(#loc20)
    %23 = arith.remsi %21, %22 : tensor<64xi32> loc(#loc20)
    %24 = tt.make_range {end = 16 : i32, start = 0 : i32} : tensor<16xi32> loc(#loc21)
    %25 = tt.expand_dims %17 {axis = 1 : i32} : tensor<32xi32> -> tensor<32x1xi32> loc(#loc22)
    %26 = tt.splat %arg6 : i32 -> tensor<32x1xi32> loc(#loc23)
    %27 = arith.muli %25, %26 : tensor<32x1xi32> loc(#loc23)
    %28 = tt.expand_dims %24 {axis = 0 : i32} : tensor<16xi32> -> tensor<1x16xi32> loc(#loc24)
    %c1_i32 = arith.constant 1 : i32 loc(#loc25)
    %cst = arith.constant dense<1> : tensor<1x16xi32> loc(#loc25)
    %29 = arith.muli %28, %cst : tensor<1x16xi32> loc(#loc25)
    %30 = tt.broadcast %27 : tensor<32x1xi32> -> tensor<32x16xi32> loc(#loc26)
    %31 = tt.broadcast %29 : tensor<1x16xi32> -> tensor<32x16xi32> loc(#loc26)
    %32 = arith.addi %30, %31 : tensor<32x16xi32> loc(#loc26)
    %33 = tt.splat %arg0 : !tt.ptr<f32> -> tensor<32x16x!tt.ptr<f32>> loc(#loc27)
    %34 = tt.addptr %33, %32 : tensor<32x16x!tt.ptr<f32>>, tensor<32x16xi32> loc(#loc27)
    %35 = tt.expand_dims %24 {axis = 1 : i32} : tensor<16xi32> -> tensor<16x1xi32> loc(#loc28)
    %36 = tt.splat %arg7 : i32 -> tensor<16x1xi32> loc(#loc29)
    %37 = arith.muli %35, %36 : tensor<16x1xi32> loc(#loc29)
    %38 = tt.expand_dims %23 {axis = 0 : i32} : tensor<64xi32> -> tensor<1x64xi32> loc(#loc30)
    %c1_i32_2 = arith.constant 1 : i32 loc(#loc31)
    %cst_3 = arith.constant dense<1> : tensor<1x64xi32> loc(#loc31)
    %39 = arith.muli %38, %cst_3 : tensor<1x64xi32> loc(#loc31)
    %40 = tt.broadcast %37 : tensor<16x1xi32> -> tensor<16x64xi32> loc(#loc32)
    %41 = tt.broadcast %39 : tensor<1x64xi32> -> tensor<16x64xi32> loc(#loc32)
    %42 = arith.addi %40, %41 : tensor<16x64xi32> loc(#loc32)
    %43 = tt.splat %arg1 : !tt.ptr<f32> -> tensor<16x64x!tt.ptr<f32>> loc(#loc33)
    %44 = tt.addptr %43, %42 : tensor<16x64x!tt.ptr<f32>>, tensor<16x64xi32> loc(#loc33)
    %45 = tt.call @"zeros____0cconstexpr_(constexpr_32_, constexpr_64_)__1cconstexpr_fp32_"() : () -> tensor<32x64xf32> loc(#loc34)
    %46 = tt.call @cdiv__i32__1cconstexpr_16_(%arg5) : (i32) -> i32 loc(#loc35)
    %c0_i32 = arith.constant 0 : i32 loc(#loc36)
    %c1_i32_4 = arith.constant 1 : i32 loc(#loc36)
    %47 = arith.bitcast %c0_i32 : i32 to i32 loc(#loc36)
    %48 = arith.bitcast %46 : i32 to i32 loc(#loc36)
    %49 = arith.bitcast %c1_i32_4 : i32 to i32 loc(#loc36)
    %50 = llvm.mlir.undef : i32 loc(#loc36)
    %51:3 = scf.for %arg9 = %47 to %48 step %49 iter_args(%arg10 = %45, %arg11 = %34, %arg12 = %44) -> (tensor<32x64xf32>, tensor<32x16x!tt.ptr<f32>>, tensor<16x64x!tt.ptr<f32>>)  : i32 {
      %79 = tt.expand_dims %24 {axis = 0 : i32} : tensor<16xi32> -> tensor<1x16xi32> loc(#loc37)
      %c16_i32 = arith.constant 16 : i32 loc(#loc38)
      %80 = arith.muli %arg9, %c16_i32 : i32 loc(#loc38)
      %81 = arith.subi %arg5, %80 : i32 loc(#loc39)
      %82 = tt.splat %81 : i32 -> tensor<1x16xi32> loc(#loc40)
      %83 = arith.cmpi slt, %79, %82 : tensor<1x16xi32> loc(#loc40)
      %cst_9 = arith.constant 0.000000e+00 : f32 loc(#loc41)
      %84 = tt.broadcast %83 : tensor<1x16xi1> -> tensor<32x16xi1> loc(#loc41)
      %cst_10 = arith.constant dense<0.000000e+00> : tensor<32x16xf32> loc(#loc41)
      %85 = tt.load %arg11, %84, %cst_10 : tensor<32x16x!tt.ptr<f32>> loc(#loc41)
      %86 = tt.expand_dims %24 {axis = 1 : i32} : tensor<16xi32> -> tensor<16x1xi32> loc(#loc42)
      %c16_i32_11 = arith.constant 16 : i32 loc(#loc43)
      %87 = arith.muli %arg9, %c16_i32_11 : i32 loc(#loc43)
      %88 = arith.subi %arg5, %87 : i32 loc(#loc44)
      %89 = tt.splat %88 : i32 -> tensor<16x1xi32> loc(#loc45)
      %90 = arith.cmpi slt, %86, %89 : tensor<16x1xi32> loc(#loc45)
      %cst_12 = arith.constant 0.000000e+00 : f32 loc(#loc46)
      %91 = tt.broadcast %90 : tensor<16x1xi1> -> tensor<16x64xi1> loc(#loc46)
      %cst_13 = arith.constant dense<0.000000e+00> : tensor<16x64xf32> loc(#loc46)
      %92 = tt.load %arg12, %91, %cst_13 : tensor<16x64x!tt.ptr<f32>> loc(#loc46)
      %cst_14 = arith.constant 0.000000e+00 : f32 loc(#loc47)
      %cst_15 = arith.constant dense<0.000000e+00> : tensor<32x64xf32> loc(#loc47)
      %93 = tt.dot %85, %92, %cst_15, inputPrecision = tf32 : tensor<32x16xf32> * tensor<16x64xf32> -> tensor<32x64xf32> loc(#loc47)
      %94 = arith.addf %arg10, %93 : tensor<32x64xf32> loc(#loc48)
      %c16_i32_16 = arith.constant 16 : i32 loc(#loc49)
      %cst_17 = arith.constant dense<16> : tensor<32x16xi32> loc(#loc49)
      %95 = tt.addptr %arg11, %cst_17 : tensor<32x16x!tt.ptr<f32>>, tensor<32x16xi32> loc(#loc49)
      %c16_i32_18 = arith.constant 16 : i32 loc(#loc50)
      %96 = arith.muli %arg7, %c16_i32_18 : i32 loc(#loc50)
      %97 = tt.splat %96 : i32 -> tensor<16x64xi32> loc(#loc51)
      %98 = tt.addptr %arg12, %97 : tensor<16x64x!tt.ptr<f32>>, tensor<16x64xi32> loc(#loc51)
      scf.yield %94, %95, %98 : tensor<32x64xf32>, tensor<32x16x!tt.ptr<f32>>, tensor<16x64x!tt.ptr<f32>> loc(#loc52)
    } loc(#loc36)
    %c32_i32_5 = arith.constant 32 : i32 loc(#loc53)
    %52 = arith.muli %9, %c32_i32_5 : i32 loc(#loc53)
    %53 = tt.make_range {end = 32 : i32, start = 0 : i32} : tensor<32xi32> loc(#loc54)
    %54 = tt.splat %52 : i32 -> tensor<32xi32> loc(#loc55)
    %55 = arith.addi %54, %53 : tensor<32xi32> loc(#loc55)
    %c64_i32_6 = arith.constant 64 : i32 loc(#loc56)
    %56 = arith.muli %11, %c64_i32_6 : i32 loc(#loc56)
    %57 = tt.make_range {end = 64 : i32, start = 0 : i32} : tensor<64xi32> loc(#loc57)
    %58 = tt.splat %56 : i32 -> tensor<64xi32> loc(#loc58)
    %59 = arith.addi %58, %57 : tensor<64xi32> loc(#loc58)
    %60 = tt.expand_dims %55 {axis = 1 : i32} : tensor<32xi32> -> tensor<32x1xi32> loc(#loc59)
    %61 = tt.splat %arg8 : i32 -> tensor<32x1xi32> loc(#loc60)
    %62 = arith.muli %61, %60 : tensor<32x1xi32> loc(#loc60)
    %63 = tt.splat %arg2 : !tt.ptr<f32> -> tensor<32x1x!tt.ptr<f32>> loc(#loc61)
    %64 = tt.addptr %63, %62 : tensor<32x1x!tt.ptr<f32>>, tensor<32x1xi32> loc(#loc61)
    %65 = tt.expand_dims %59 {axis = 0 : i32} : tensor<64xi32> -> tensor<1x64xi32> loc(#loc62)
    %c1_i32_7 = arith.constant 1 : i32 loc(#loc63)
    %cst_8 = arith.constant dense<1> : tensor<1x64xi32> loc(#loc63)
    %66 = arith.muli %65, %cst_8 : tensor<1x64xi32> loc(#loc63)
    %67 = tt.broadcast %64 : tensor<32x1x!tt.ptr<f32>> -> tensor<32x64x!tt.ptr<f32>> loc(#loc64)
    %68 = tt.broadcast %66 : tensor<1x64xi32> -> tensor<32x64xi32> loc(#loc64)
    %69 = tt.addptr %67, %68 : tensor<32x64x!tt.ptr<f32>>, tensor<32x64xi32> loc(#loc64)
    %70 = tt.expand_dims %55 {axis = 1 : i32} : tensor<32xi32> -> tensor<32x1xi32> loc(#loc65)
    %71 = tt.splat %arg3 : i32 -> tensor<32x1xi32> loc(#loc66)
    %72 = arith.cmpi slt, %70, %71 : tensor<32x1xi32> loc(#loc66)
    %73 = tt.expand_dims %59 {axis = 0 : i32} : tensor<64xi32> -> tensor<1x64xi32> loc(#loc67)
    %74 = tt.splat %arg4 : i32 -> tensor<1x64xi32> loc(#loc68)
    %75 = arith.cmpi slt, %73, %74 : tensor<1x64xi32> loc(#loc68)
    %76 = tt.broadcast %72 : tensor<32x1xi1> -> tensor<32x64xi1> loc(#loc69)
    %77 = tt.broadcast %75 : tensor<1x64xi1> -> tensor<32x64xi1> loc(#loc69)
    %78 = arith.andi %76, %77 : tensor<32x64xi1> loc(#loc69)
    tt.store %69, %51#0, %78 : tensor<32x64x!tt.ptr<f32>> loc(#loc70)
    tt.return loc(#loc71)
  } loc(#loc)
  tt.func private @cdiv__i32__1cconstexpr_32_(%arg0: i32 loc("/home/yongqi/.local/lib/python3.12/site-packages/triton/language/standard.py":35:0)) -> i32 attributes {noinline = false} {
    %c32_i32 = arith.constant 32 : i32 loc(#loc73)
    %c31_i32 = arith.constant 31 : i32 loc(#loc74)
    %0 = arith.addi %arg0, %c31_i32 : i32 loc(#loc74)
    %1 = arith.divsi %0, %c32_i32 : i32 loc(#loc75)
    tt.return %1 : i32 loc(#loc76)
  } loc(#loc72)
  tt.func private @cdiv__i32__1cconstexpr_64_(%arg0: i32 loc("/home/yongqi/.local/lib/python3.12/site-packages/triton/language/standard.py":35:0)) -> i32 attributes {noinline = false} {
    %c64_i32 = arith.constant 64 : i32 loc(#loc73)
    %c63_i32 = arith.constant 63 : i32 loc(#loc74)
    %0 = arith.addi %arg0, %c63_i32 : i32 loc(#loc74)
    %1 = arith.divsi %0, %c64_i32 : i32 loc(#loc75)
    tt.return %1 : i32 loc(#loc76)
  } loc(#loc72)
  tt.func private @"zeros____0cconstexpr_(constexpr_32_, constexpr_64_)__1cconstexpr_fp32_"() -> tensor<32x64xf32> attributes {noinline = false} {
    %cst = arith.constant 0.000000e+00 : f32 loc(#loc78)
    %cst_0 = arith.constant dense<0.000000e+00> : tensor<32x64xf32> loc(#loc78)
    tt.return %cst_0 : tensor<32x64xf32> loc(#loc79)
  } loc(#loc77)
  tt.func private @cdiv__i32__1cconstexpr_16_(%arg0: i32 loc("/home/yongqi/.local/lib/python3.12/site-packages/triton/language/standard.py":35:0)) -> i32 attributes {noinline = false} {
    %c16_i32 = arith.constant 16 : i32 loc(#loc80)
    %0 = arith.addi %arg0, %c16_i32 : i32 loc(#loc80)
    %c1_i32 = arith.constant 1 : i32 loc(#loc74)
    %1 = arith.subi %0, %c1_i32 : i32 loc(#loc74)
    %c16_i32_0 = arith.constant 16 : i32 loc(#loc75)
    %2 = arith.divsi %1, %c16_i32_0 : i32 loc(#loc75)
    tt.return %2 : i32 loc(#loc76)
  } loc(#loc72)
} loc(#loc)
#loc1 = loc("/home/yongqi/external/triton_shared/python/examples/test_matmul.py":60:24)
#loc2 = loc("/home/yongqi/external/triton_shared/python/examples/test_matmul.py":61:27)
#loc3 = loc("/home/yongqi/external/triton_shared/python/examples/test_matmul.py":62:27)
#loc4 = loc("/home/yongqi/external/triton_shared/python/examples/test_matmul.py":63:38)
#loc5 = loc("/home/yongqi/external/triton_shared/python/examples/test_matmul.py":64:22)
#loc6 = loc("/home/yongqi/external/triton_shared/python/examples/test_matmul.py":65:29)
#loc7 = loc("/home/yongqi/external/triton_shared/python/examples/test_matmul.py":66:35)
#loc8 = loc("/home/yongqi/external/triton_shared/python/examples/test_matmul.py":66:48)
#loc9 = loc("/home/yongqi/external/triton_shared/python/examples/test_matmul.py":67:33)
#loc10 = loc("/home/yongqi/external/triton_shared/python/examples/test_matmul.py":67:27)
#loc11 = loc("/home/yongqi/external/triton_shared/python/examples/test_matmul.py":68:19)
#loc12 = loc("/home/yongqi/external/triton_shared/python/examples/test_matmul.py":68:40)
#loc13 = loc("/home/yongqi/external/triton_shared/python/examples/test_matmul.py":77:23)
#loc14 = loc("/home/yongqi/external/triton_shared/python/examples/test_matmul.py":77:51)
#loc15 = loc("/home/yongqi/external/triton_shared/python/examples/test_matmul.py":77:38)
#loc16 = loc("/home/yongqi/external/triton_shared/python/examples/test_matmul.py":77:68)
#loc17 = loc("/home/yongqi/external/triton_shared/python/examples/test_matmul.py":78:23)
#loc18 = loc("/home/yongqi/external/triton_shared/python/examples/test_matmul.py":78:51)
#loc19 = loc("/home/yongqi/external/triton_shared/python/examples/test_matmul.py":78:38)
#loc20 = loc("/home/yongqi/external/triton_shared/python/examples/test_matmul.py":78:68)
#loc21 = loc("/home/yongqi/external/triton_shared/python/examples/test_matmul.py":79:26)
#loc22 = loc("/home/yongqi/external/triton_shared/python/examples/test_matmul.py":80:30)
#loc23 = loc("/home/yongqi/external/triton_shared/python/examples/test_matmul.py":80:41)
#loc24 = loc("/home/yongqi/external/triton_shared/python/examples/test_matmul.py":80:60)
#loc25 = loc("/home/yongqi/external/triton_shared/python/examples/test_matmul.py":80:71)
#loc26 = loc("/home/yongqi/external/triton_shared/python/examples/test_matmul.py":80:53)
#loc27 = loc("/home/yongqi/external/triton_shared/python/examples/test_matmul.py":80:22)
#loc28 = loc("/home/yongqi/external/triton_shared/python/examples/test_matmul.py":81:29)
#loc29 = loc("/home/yongqi/external/triton_shared/python/examples/test_matmul.py":81:40)
#loc30 = loc("/home/yongqi/external/triton_shared/python/examples/test_matmul.py":81:60)
#loc31 = loc("/home/yongqi/external/triton_shared/python/examples/test_matmul.py":81:71)
#loc32 = loc("/home/yongqi/external/triton_shared/python/examples/test_matmul.py":81:52)
#loc33 = loc("/home/yongqi/external/triton_shared/python/examples/test_matmul.py":81:22)
#loc34 = loc("/home/yongqi/external/triton_shared/python/examples/test_matmul.py":88:27)
#loc35 = loc("/home/yongqi/external/triton_shared/python/examples/test_matmul.py":89:33)
#loc36 = loc("/home/yongqi/external/triton_shared/python/examples/test_matmul.py":89:22)
#loc37 = loc("/home/yongqi/external/triton_shared/python/examples/test_matmul.py":92:40)
#loc38 = loc("/home/yongqi/external/triton_shared/python/examples/test_matmul.py":92:59)
#loc39 = loc("/home/yongqi/external/triton_shared/python/examples/test_matmul.py":92:55)
#loc40 = loc("/home/yongqi/external/triton_shared/python/examples/test_matmul.py":92:51)
#loc41 = loc("/home/yongqi/external/triton_shared/python/examples/test_matmul.py":92:20)
#loc42 = loc("/home/yongqi/external/triton_shared/python/examples/test_matmul.py":93:40)
#loc43 = loc("/home/yongqi/external/triton_shared/python/examples/test_matmul.py":93:59)
#loc44 = loc("/home/yongqi/external/triton_shared/python/examples/test_matmul.py":93:55)
#loc45 = loc("/home/yongqi/external/triton_shared/python/examples/test_matmul.py":93:51)
#loc46 = loc("/home/yongqi/external/triton_shared/python/examples/test_matmul.py":93:20)
#loc47 = loc("/home/yongqi/external/triton_shared/python/examples/test_matmul.py":95:33)
#loc48 = loc("/home/yongqi/external/triton_shared/python/examples/test_matmul.py":95:23)
#loc49 = loc("/home/yongqi/external/triton_shared/python/examples/test_matmul.py":97:18)
#loc50 = loc("/home/yongqi/external/triton_shared/python/examples/test_matmul.py":98:33)
#loc51 = loc("/home/yongqi/external/triton_shared/python/examples/test_matmul.py":98:18)
#loc52 = loc("/home/yongqi/external/triton_shared/python/examples/test_matmul.py":98:8)
#loc53 = loc("/home/yongqi/external/triton_shared/python/examples/test_matmul.py":107:22)
#loc54 = loc("/home/yongqi/external/triton_shared/python/examples/test_matmul.py":107:50)
#loc55 = loc("/home/yongqi/external/triton_shared/python/examples/test_matmul.py":107:37)
#loc56 = loc("/home/yongqi/external/triton_shared/python/examples/test_matmul.py":108:22)
#loc57 = loc("/home/yongqi/external/triton_shared/python/examples/test_matmul.py":108:50)
#loc58 = loc("/home/yongqi/external/triton_shared/python/examples/test_matmul.py":108:37)
#loc59 = loc("/home/yongqi/external/triton_shared/python/examples/test_matmul.py":109:41)
#loc60 = loc("/home/yongqi/external/triton_shared/python/examples/test_matmul.py":109:33)
#loc61 = loc("/home/yongqi/external/triton_shared/python/examples/test_matmul.py":109:21)
#loc62 = loc("/home/yongqi/external/triton_shared/python/examples/test_matmul.py":109:72)
#loc63 = loc("/home/yongqi/external/triton_shared/python/examples/test_matmul.py":109:64)
#loc64 = loc("/home/yongqi/external/triton_shared/python/examples/test_matmul.py":109:52)
#loc65 = loc("/home/yongqi/external/triton_shared/python/examples/test_matmul.py":110:22)
#loc66 = loc("/home/yongqi/external/triton_shared/python/examples/test_matmul.py":110:33)
#loc67 = loc("/home/yongqi/external/triton_shared/python/examples/test_matmul.py":110:47)
#loc68 = loc("/home/yongqi/external/triton_shared/python/examples/test_matmul.py":110:58)
#loc69 = loc("/home/yongqi/external/triton_shared/python/examples/test_matmul.py":110:39)
#loc70 = loc("/home/yongqi/external/triton_shared/python/examples/test_matmul.py":111:21)
#loc71 = loc("/home/yongqi/external/triton_shared/python/examples/test_matmul.py":111:4)
#loc73 = loc(unknown)
#loc74 = loc("/home/yongqi/.local/lib/python3.12/site-packages/triton/language/standard.py":44:22)
#loc75 = loc("/home/yongqi/.local/lib/python3.12/site-packages/triton/language/standard.py":44:28)
#loc76 = loc("/home/yongqi/.local/lib/python3.12/site-packages/triton/language/standard.py":44:11)
#loc77 = loc("/home/yongqi/.local/lib/python3.12/site-packages/triton/language/standard.py":117:0)
#loc78 = loc("/home/yongqi/.local/lib/python3.12/site-packages/triton/language/standard.py":126:31)
#loc79 = loc("/home/yongqi/.local/lib/python3.12/site-packages/triton/language/standard.py":126:11)
#loc80 = loc("/home/yongqi/.local/lib/python3.12/site-packages/triton/language/standard.py":44:16)


// -----// IR Dump Before Canonicalizer (canonicalize) ('tt.func' operation: @cdiv__i32__1cconstexpr_16_) //----- //
#loc = loc("/home/yongqi/external/triton_shared/python/examples/test_matmul.py":37:0)
#loc72 = loc("/home/yongqi/.local/lib/python3.12/site-packages/triton/language/standard.py":35:0)
module {
  tt.func public @matmul_kernel(%arg0: !tt.ptr<f32> {tt.divisibility = 16 : i32} loc("/home/yongqi/external/triton_shared/python/examples/test_matmul.py":37:0), %arg1: !tt.ptr<f32> {tt.divisibility = 16 : i32} loc("/home/yongqi/external/triton_shared/python/examples/test_matmul.py":37:0), %arg2: !tt.ptr<f32> {tt.divisibility = 16 : i32} loc("/home/yongqi/external/triton_shared/python/examples/test_matmul.py":37:0), %arg3: i32 loc("/home/yongqi/external/triton_shared/python/examples/test_matmul.py":37:0), %arg4: i32 loc("/home/yongqi/external/triton_shared/python/examples/test_matmul.py":37:0), %arg5: i32 loc("/home/yongqi/external/triton_shared/python/examples/test_matmul.py":37:0), %arg6: i32 loc("/home/yongqi/external/triton_shared/python/examples/test_matmul.py":37:0), %arg7: i32 loc("/home/yongqi/external/triton_shared/python/examples/test_matmul.py":37:0), %arg8: i32 loc("/home/yongqi/external/triton_shared/python/examples/test_matmul.py":37:0)) attributes {noinline = false} {
    %0 = tt.get_program_id x : i32 loc(#loc1)
    %1 = tt.call @cdiv__i32__1cconstexpr_32_(%arg3) : (i32) -> i32 loc(#loc2)
    %2 = tt.call @cdiv__i32__1cconstexpr_64_(%arg4) : (i32) -> i32 loc(#loc3)
    %c8_i32 = arith.constant 8 : i32 loc(#loc4)
    %3 = arith.muli %2, %c8_i32 : i32 loc(#loc4)
    %4 = arith.divsi %0, %3 : i32 loc(#loc5)
    %c8_i32_0 = arith.constant 8 : i32 loc(#loc6)
    %5 = arith.muli %4, %c8_i32_0 : i32 loc(#loc6)
    %6 = arith.subi %1, %5 : i32 loc(#loc7)
    %c8_i32_1 = arith.constant 8 : i32 loc(#loc8)
    %7 = arith.minsi %6, %c8_i32_1 : i32 loc(#loc8)
    %8 = arith.remsi %0, %7 : i32 loc(#loc9)
    %9 = arith.addi %5, %8 : i32 loc(#loc10)
    %10 = arith.remsi %0, %3 : i32 loc(#loc11)
    %11 = arith.divsi %10, %7 : i32 loc(#loc12)
    %c32_i32 = arith.constant 32 : i32 loc(#loc13)
    %12 = arith.muli %9, %c32_i32 : i32 loc(#loc13)
    %13 = tt.make_range {end = 32 : i32, start = 0 : i32} : tensor<32xi32> loc(#loc14)
    %14 = tt.splat %12 : i32 -> tensor<32xi32> loc(#loc15)
    %15 = arith.addi %14, %13 : tensor<32xi32> loc(#loc15)
    %16 = tt.splat %arg3 : i32 -> tensor<32xi32> loc(#loc16)
    %17 = arith.remsi %15, %16 : tensor<32xi32> loc(#loc16)
    %c64_i32 = arith.constant 64 : i32 loc(#loc17)
    %18 = arith.muli %11, %c64_i32 : i32 loc(#loc17)
    %19 = tt.make_range {end = 64 : i32, start = 0 : i32} : tensor<64xi32> loc(#loc18)
    %20 = tt.splat %18 : i32 -> tensor<64xi32> loc(#loc19)
    %21 = arith.addi %20, %19 : tensor<64xi32> loc(#loc19)
    %22 = tt.splat %arg4 : i32 -> tensor<64xi32> loc(#loc20)
    %23 = arith.remsi %21, %22 : tensor<64xi32> loc(#loc20)
    %24 = tt.make_range {end = 16 : i32, start = 0 : i32} : tensor<16xi32> loc(#loc21)
    %25 = tt.expand_dims %17 {axis = 1 : i32} : tensor<32xi32> -> tensor<32x1xi32> loc(#loc22)
    %26 = tt.splat %arg6 : i32 -> tensor<32x1xi32> loc(#loc23)
    %27 = arith.muli %25, %26 : tensor<32x1xi32> loc(#loc23)
    %28 = tt.expand_dims %24 {axis = 0 : i32} : tensor<16xi32> -> tensor<1x16xi32> loc(#loc24)
    %c1_i32 = arith.constant 1 : i32 loc(#loc25)
    %cst = arith.constant dense<1> : tensor<1x16xi32> loc(#loc25)
    %29 = arith.muli %28, %cst : tensor<1x16xi32> loc(#loc25)
    %30 = tt.broadcast %27 : tensor<32x1xi32> -> tensor<32x16xi32> loc(#loc26)
    %31 = tt.broadcast %29 : tensor<1x16xi32> -> tensor<32x16xi32> loc(#loc26)
    %32 = arith.addi %30, %31 : tensor<32x16xi32> loc(#loc26)
    %33 = tt.splat %arg0 : !tt.ptr<f32> -> tensor<32x16x!tt.ptr<f32>> loc(#loc27)
    %34 = tt.addptr %33, %32 : tensor<32x16x!tt.ptr<f32>>, tensor<32x16xi32> loc(#loc27)
    %35 = tt.expand_dims %24 {axis = 1 : i32} : tensor<16xi32> -> tensor<16x1xi32> loc(#loc28)
    %36 = tt.splat %arg7 : i32 -> tensor<16x1xi32> loc(#loc29)
    %37 = arith.muli %35, %36 : tensor<16x1xi32> loc(#loc29)
    %38 = tt.expand_dims %23 {axis = 0 : i32} : tensor<64xi32> -> tensor<1x64xi32> loc(#loc30)
    %c1_i32_2 = arith.constant 1 : i32 loc(#loc31)
    %cst_3 = arith.constant dense<1> : tensor<1x64xi32> loc(#loc31)
    %39 = arith.muli %38, %cst_3 : tensor<1x64xi32> loc(#loc31)
    %40 = tt.broadcast %37 : tensor<16x1xi32> -> tensor<16x64xi32> loc(#loc32)
    %41 = tt.broadcast %39 : tensor<1x64xi32> -> tensor<16x64xi32> loc(#loc32)
    %42 = arith.addi %40, %41 : tensor<16x64xi32> loc(#loc32)
    %43 = tt.splat %arg1 : !tt.ptr<f32> -> tensor<16x64x!tt.ptr<f32>> loc(#loc33)
    %44 = tt.addptr %43, %42 : tensor<16x64x!tt.ptr<f32>>, tensor<16x64xi32> loc(#loc33)
    %45 = tt.call @"zeros____0cconstexpr_(constexpr_32_, constexpr_64_)__1cconstexpr_fp32_"() : () -> tensor<32x64xf32> loc(#loc34)
    %46 = tt.call @cdiv__i32__1cconstexpr_16_(%arg5) : (i32) -> i32 loc(#loc35)
    %c0_i32 = arith.constant 0 : i32 loc(#loc36)
    %c1_i32_4 = arith.constant 1 : i32 loc(#loc36)
    %47 = arith.bitcast %c0_i32 : i32 to i32 loc(#loc36)
    %48 = arith.bitcast %46 : i32 to i32 loc(#loc36)
    %49 = arith.bitcast %c1_i32_4 : i32 to i32 loc(#loc36)
    %50 = llvm.mlir.undef : i32 loc(#loc36)
    %51:3 = scf.for %arg9 = %47 to %48 step %49 iter_args(%arg10 = %45, %arg11 = %34, %arg12 = %44) -> (tensor<32x64xf32>, tensor<32x16x!tt.ptr<f32>>, tensor<16x64x!tt.ptr<f32>>)  : i32 {
      %79 = tt.expand_dims %24 {axis = 0 : i32} : tensor<16xi32> -> tensor<1x16xi32> loc(#loc37)
      %c16_i32 = arith.constant 16 : i32 loc(#loc38)
      %80 = arith.muli %arg9, %c16_i32 : i32 loc(#loc38)
      %81 = arith.subi %arg5, %80 : i32 loc(#loc39)
      %82 = tt.splat %81 : i32 -> tensor<1x16xi32> loc(#loc40)
      %83 = arith.cmpi slt, %79, %82 : tensor<1x16xi32> loc(#loc40)
      %cst_9 = arith.constant 0.000000e+00 : f32 loc(#loc41)
      %84 = tt.broadcast %83 : tensor<1x16xi1> -> tensor<32x16xi1> loc(#loc41)
      %cst_10 = arith.constant dense<0.000000e+00> : tensor<32x16xf32> loc(#loc41)
      %85 = tt.load %arg11, %84, %cst_10 : tensor<32x16x!tt.ptr<f32>> loc(#loc41)
      %86 = tt.expand_dims %24 {axis = 1 : i32} : tensor<16xi32> -> tensor<16x1xi32> loc(#loc42)
      %c16_i32_11 = arith.constant 16 : i32 loc(#loc43)
      %87 = arith.muli %arg9, %c16_i32_11 : i32 loc(#loc43)
      %88 = arith.subi %arg5, %87 : i32 loc(#loc44)
      %89 = tt.splat %88 : i32 -> tensor<16x1xi32> loc(#loc45)
      %90 = arith.cmpi slt, %86, %89 : tensor<16x1xi32> loc(#loc45)
      %cst_12 = arith.constant 0.000000e+00 : f32 loc(#loc46)
      %91 = tt.broadcast %90 : tensor<16x1xi1> -> tensor<16x64xi1> loc(#loc46)
      %cst_13 = arith.constant dense<0.000000e+00> : tensor<16x64xf32> loc(#loc46)
      %92 = tt.load %arg12, %91, %cst_13 : tensor<16x64x!tt.ptr<f32>> loc(#loc46)
      %cst_14 = arith.constant 0.000000e+00 : f32 loc(#loc47)
      %cst_15 = arith.constant dense<0.000000e+00> : tensor<32x64xf32> loc(#loc47)
      %93 = tt.dot %85, %92, %cst_15, inputPrecision = tf32 : tensor<32x16xf32> * tensor<16x64xf32> -> tensor<32x64xf32> loc(#loc47)
      %94 = arith.addf %arg10, %93 : tensor<32x64xf32> loc(#loc48)
      %c16_i32_16 = arith.constant 16 : i32 loc(#loc49)
      %cst_17 = arith.constant dense<16> : tensor<32x16xi32> loc(#loc49)
      %95 = tt.addptr %arg11, %cst_17 : tensor<32x16x!tt.ptr<f32>>, tensor<32x16xi32> loc(#loc49)
      %c16_i32_18 = arith.constant 16 : i32 loc(#loc50)
      %96 = arith.muli %arg7, %c16_i32_18 : i32 loc(#loc50)
      %97 = tt.splat %96 : i32 -> tensor<16x64xi32> loc(#loc51)
      %98 = tt.addptr %arg12, %97 : tensor<16x64x!tt.ptr<f32>>, tensor<16x64xi32> loc(#loc51)
      scf.yield %94, %95, %98 : tensor<32x64xf32>, tensor<32x16x!tt.ptr<f32>>, tensor<16x64x!tt.ptr<f32>> loc(#loc52)
    } loc(#loc36)
    %c32_i32_5 = arith.constant 32 : i32 loc(#loc53)
    %52 = arith.muli %9, %c32_i32_5 : i32 loc(#loc53)
    %53 = tt.make_range {end = 32 : i32, start = 0 : i32} : tensor<32xi32> loc(#loc54)
    %54 = tt.splat %52 : i32 -> tensor<32xi32> loc(#loc55)
    %55 = arith.addi %54, %53 : tensor<32xi32> loc(#loc55)
    %c64_i32_6 = arith.constant 64 : i32 loc(#loc56)
    %56 = arith.muli %11, %c64_i32_6 : i32 loc(#loc56)
    %57 = tt.make_range {end = 64 : i32, start = 0 : i32} : tensor<64xi32> loc(#loc57)
    %58 = tt.splat %56 : i32 -> tensor<64xi32> loc(#loc58)
    %59 = arith.addi %58, %57 : tensor<64xi32> loc(#loc58)
    %60 = tt.expand_dims %55 {axis = 1 : i32} : tensor<32xi32> -> tensor<32x1xi32> loc(#loc59)
    %61 = tt.splat %arg8 : i32 -> tensor<32x1xi32> loc(#loc60)
    %62 = arith.muli %61, %60 : tensor<32x1xi32> loc(#loc60)
    %63 = tt.splat %arg2 : !tt.ptr<f32> -> tensor<32x1x!tt.ptr<f32>> loc(#loc61)
    %64 = tt.addptr %63, %62 : tensor<32x1x!tt.ptr<f32>>, tensor<32x1xi32> loc(#loc61)
    %65 = tt.expand_dims %59 {axis = 0 : i32} : tensor<64xi32> -> tensor<1x64xi32> loc(#loc62)
    %c1_i32_7 = arith.constant 1 : i32 loc(#loc63)
    %cst_8 = arith.constant dense<1> : tensor<1x64xi32> loc(#loc63)
    %66 = arith.muli %65, %cst_8 : tensor<1x64xi32> loc(#loc63)
    %67 = tt.broadcast %64 : tensor<32x1x!tt.ptr<f32>> -> tensor<32x64x!tt.ptr<f32>> loc(#loc64)
    %68 = tt.broadcast %66 : tensor<1x64xi32> -> tensor<32x64xi32> loc(#loc64)
    %69 = tt.addptr %67, %68 : tensor<32x64x!tt.ptr<f32>>, tensor<32x64xi32> loc(#loc64)
    %70 = tt.expand_dims %55 {axis = 1 : i32} : tensor<32xi32> -> tensor<32x1xi32> loc(#loc65)
    %71 = tt.splat %arg3 : i32 -> tensor<32x1xi32> loc(#loc66)
    %72 = arith.cmpi slt, %70, %71 : tensor<32x1xi32> loc(#loc66)
    %73 = tt.expand_dims %59 {axis = 0 : i32} : tensor<64xi32> -> tensor<1x64xi32> loc(#loc67)
    %74 = tt.splat %arg4 : i32 -> tensor<1x64xi32> loc(#loc68)
    %75 = arith.cmpi slt, %73, %74 : tensor<1x64xi32> loc(#loc68)
    %76 = tt.broadcast %72 : tensor<32x1xi1> -> tensor<32x64xi1> loc(#loc69)
    %77 = tt.broadcast %75 : tensor<1x64xi1> -> tensor<32x64xi1> loc(#loc69)
    %78 = arith.andi %76, %77 : tensor<32x64xi1> loc(#loc69)
    tt.store %69, %51#0, %78 : tensor<32x64x!tt.ptr<f32>> loc(#loc70)
    tt.return loc(#loc71)
  } loc(#loc)
  tt.func private @cdiv__i32__1cconstexpr_32_(%arg0: i32 loc("/home/yongqi/.local/lib/python3.12/site-packages/triton/language/standard.py":35:0)) -> i32 attributes {noinline = false} {
    %c32_i32 = arith.constant 32 : i32 loc(#loc73)
    %c31_i32 = arith.constant 31 : i32 loc(#loc74)
    %0 = arith.addi %arg0, %c31_i32 : i32 loc(#loc74)
    %1 = arith.divsi %0, %c32_i32 : i32 loc(#loc75)
    tt.return %1 : i32 loc(#loc76)
  } loc(#loc72)
  tt.func private @cdiv__i32__1cconstexpr_64_(%arg0: i32 loc("/home/yongqi/.local/lib/python3.12/site-packages/triton/language/standard.py":35:0)) -> i32 attributes {noinline = false} {
    %c64_i32 = arith.constant 64 : i32 loc(#loc73)
    %c63_i32 = arith.constant 63 : i32 loc(#loc74)
    %0 = arith.addi %arg0, %c63_i32 : i32 loc(#loc74)
    %1 = arith.divsi %0, %c64_i32 : i32 loc(#loc75)
    tt.return %1 : i32 loc(#loc76)
  } loc(#loc72)
  tt.func private @"zeros____0cconstexpr_(constexpr_32_, constexpr_64_)__1cconstexpr_fp32_"() -> tensor<32x64xf32> attributes {noinline = false} {
    %cst = arith.constant dense<0.000000e+00> : tensor<32x64xf32> loc(#loc78)
    tt.return %cst : tensor<32x64xf32> loc(#loc79)
  } loc(#loc77)
  tt.func private @cdiv__i32__1cconstexpr_16_(%arg0: i32 loc("/home/yongqi/.local/lib/python3.12/site-packages/triton/language/standard.py":35:0)) -> i32 attributes {noinline = false} {
    %c16_i32 = arith.constant 16 : i32 loc(#loc80)
    %0 = arith.addi %arg0, %c16_i32 : i32 loc(#loc80)
    %c1_i32 = arith.constant 1 : i32 loc(#loc74)
    %1 = arith.subi %0, %c1_i32 : i32 loc(#loc74)
    %c16_i32_0 = arith.constant 16 : i32 loc(#loc75)
    %2 = arith.divsi %1, %c16_i32_0 : i32 loc(#loc75)
    tt.return %2 : i32 loc(#loc76)
  } loc(#loc72)
} loc(#loc)
#loc1 = loc("/home/yongqi/external/triton_shared/python/examples/test_matmul.py":60:24)
#loc2 = loc("/home/yongqi/external/triton_shared/python/examples/test_matmul.py":61:27)
#loc3 = loc("/home/yongqi/external/triton_shared/python/examples/test_matmul.py":62:27)
#loc4 = loc("/home/yongqi/external/triton_shared/python/examples/test_matmul.py":63:38)
#loc5 = loc("/home/yongqi/external/triton_shared/python/examples/test_matmul.py":64:22)
#loc6 = loc("/home/yongqi/external/triton_shared/python/examples/test_matmul.py":65:29)
#loc7 = loc("/home/yongqi/external/triton_shared/python/examples/test_matmul.py":66:35)
#loc8 = loc("/home/yongqi/external/triton_shared/python/examples/test_matmul.py":66:48)
#loc9 = loc("/home/yongqi/external/triton_shared/python/examples/test_matmul.py":67:33)
#loc10 = loc("/home/yongqi/external/triton_shared/python/examples/test_matmul.py":67:27)
#loc11 = loc("/home/yongqi/external/triton_shared/python/examples/test_matmul.py":68:19)
#loc12 = loc("/home/yongqi/external/triton_shared/python/examples/test_matmul.py":68:40)
#loc13 = loc("/home/yongqi/external/triton_shared/python/examples/test_matmul.py":77:23)
#loc14 = loc("/home/yongqi/external/triton_shared/python/examples/test_matmul.py":77:51)
#loc15 = loc("/home/yongqi/external/triton_shared/python/examples/test_matmul.py":77:38)
#loc16 = loc("/home/yongqi/external/triton_shared/python/examples/test_matmul.py":77:68)
#loc17 = loc("/home/yongqi/external/triton_shared/python/examples/test_matmul.py":78:23)
#loc18 = loc("/home/yongqi/external/triton_shared/python/examples/test_matmul.py":78:51)
#loc19 = loc("/home/yongqi/external/triton_shared/python/examples/test_matmul.py":78:38)
#loc20 = loc("/home/yongqi/external/triton_shared/python/examples/test_matmul.py":78:68)
#loc21 = loc("/home/yongqi/external/triton_shared/python/examples/test_matmul.py":79:26)
#loc22 = loc("/home/yongqi/external/triton_shared/python/examples/test_matmul.py":80:30)
#loc23 = loc("/home/yongqi/external/triton_shared/python/examples/test_matmul.py":80:41)
#loc24 = loc("/home/yongqi/external/triton_shared/python/examples/test_matmul.py":80:60)
#loc25 = loc("/home/yongqi/external/triton_shared/python/examples/test_matmul.py":80:71)
#loc26 = loc("/home/yongqi/external/triton_shared/python/examples/test_matmul.py":80:53)
#loc27 = loc("/home/yongqi/external/triton_shared/python/examples/test_matmul.py":80:22)
#loc28 = loc("/home/yongqi/external/triton_shared/python/examples/test_matmul.py":81:29)
#loc29 = loc("/home/yongqi/external/triton_shared/python/examples/test_matmul.py":81:40)
#loc30 = loc("/home/yongqi/external/triton_shared/python/examples/test_matmul.py":81:60)
#loc31 = loc("/home/yongqi/external/triton_shared/python/examples/test_matmul.py":81:71)
#loc32 = loc("/home/yongqi/external/triton_shared/python/examples/test_matmul.py":81:52)
#loc33 = loc("/home/yongqi/external/triton_shared/python/examples/test_matmul.py":81:22)
#loc34 = loc("/home/yongqi/external/triton_shared/python/examples/test_matmul.py":88:27)
#loc35 = loc("/home/yongqi/external/triton_shared/python/examples/test_matmul.py":89:33)
#loc36 = loc("/home/yongqi/external/triton_shared/python/examples/test_matmul.py":89:22)
#loc37 = loc("/home/yongqi/external/triton_shared/python/examples/test_matmul.py":92:40)
#loc38 = loc("/home/yongqi/external/triton_shared/python/examples/test_matmul.py":92:59)
#loc39 = loc("/home/yongqi/external/triton_shared/python/examples/test_matmul.py":92:55)
#loc40 = loc("/home/yongqi/external/triton_shared/python/examples/test_matmul.py":92:51)
#loc41 = loc("/home/yongqi/external/triton_shared/python/examples/test_matmul.py":92:20)
#loc42 = loc("/home/yongqi/external/triton_shared/python/examples/test_matmul.py":93:40)
#loc43 = loc("/home/yongqi/external/triton_shared/python/examples/test_matmul.py":93:59)
#loc44 = loc("/home/yongqi/external/triton_shared/python/examples/test_matmul.py":93:55)
#loc45 = loc("/home/yongqi/external/triton_shared/python/examples/test_matmul.py":93:51)
#loc46 = loc("/home/yongqi/external/triton_shared/python/examples/test_matmul.py":93:20)
#loc47 = loc("/home/yongqi/external/triton_shared/python/examples/test_matmul.py":95:33)
#loc48 = loc("/home/yongqi/external/triton_shared/python/examples/test_matmul.py":95:23)
#loc49 = loc("/home/yongqi/external/triton_shared/python/examples/test_matmul.py":97:18)
#loc50 = loc("/home/yongqi/external/triton_shared/python/examples/test_matmul.py":98:33)
#loc51 = loc("/home/yongqi/external/triton_shared/python/examples/test_matmul.py":98:18)
#loc52 = loc("/home/yongqi/external/triton_shared/python/examples/test_matmul.py":98:8)
#loc53 = loc("/home/yongqi/external/triton_shared/python/examples/test_matmul.py":107:22)
#loc54 = loc("/home/yongqi/external/triton_shared/python/examples/test_matmul.py":107:50)
#loc55 = loc("/home/yongqi/external/triton_shared/python/examples/test_matmul.py":107:37)
#loc56 = loc("/home/yongqi/external/triton_shared/python/examples/test_matmul.py":108:22)
#loc57 = loc("/home/yongqi/external/triton_shared/python/examples/test_matmul.py":108:50)
#loc58 = loc("/home/yongqi/external/triton_shared/python/examples/test_matmul.py":108:37)
#loc59 = loc("/home/yongqi/external/triton_shared/python/examples/test_matmul.py":109:41)
#loc60 = loc("/home/yongqi/external/triton_shared/python/examples/test_matmul.py":109:33)
#loc61 = loc("/home/yongqi/external/triton_shared/python/examples/test_matmul.py":109:21)
#loc62 = loc("/home/yongqi/external/triton_shared/python/examples/test_matmul.py":109:72)
#loc63 = loc("/home/yongqi/external/triton_shared/python/examples/test_matmul.py":109:64)
#loc64 = loc("/home/yongqi/external/triton_shared/python/examples/test_matmul.py":109:52)
#loc65 = loc("/home/yongqi/external/triton_shared/python/examples/test_matmul.py":110:22)
#loc66 = loc("/home/yongqi/external/triton_shared/python/examples/test_matmul.py":110:33)
#loc67 = loc("/home/yongqi/external/triton_shared/python/examples/test_matmul.py":110:47)
#loc68 = loc("/home/yongqi/external/triton_shared/python/examples/test_matmul.py":110:58)
#loc69 = loc("/home/yongqi/external/triton_shared/python/examples/test_matmul.py":110:39)
#loc70 = loc("/home/yongqi/external/triton_shared/python/examples/test_matmul.py":111:21)
#loc71 = loc("/home/yongqi/external/triton_shared/python/examples/test_matmul.py":111:4)
#loc73 = loc(unknown)
#loc74 = loc("/home/yongqi/.local/lib/python3.12/site-packages/triton/language/standard.py":44:22)
#loc75 = loc("/home/yongqi/.local/lib/python3.12/site-packages/triton/language/standard.py":44:28)
#loc76 = loc("/home/yongqi/.local/lib/python3.12/site-packages/triton/language/standard.py":44:11)
#loc77 = loc("/home/yongqi/.local/lib/python3.12/site-packages/triton/language/standard.py":117:0)
#loc78 = loc("/home/yongqi/.local/lib/python3.12/site-packages/triton/language/standard.py":126:31)
#loc79 = loc("/home/yongqi/.local/lib/python3.12/site-packages/triton/language/standard.py":126:11)
#loc80 = loc("/home/yongqi/.local/lib/python3.12/site-packages/triton/language/standard.py":44:16)


// -----// IR Dump Before Canonicalizer (canonicalize) ('tt.func' operation: @matmul_kernel) //----- //
#loc = loc("/home/yongqi/external/triton_shared/python/examples/test_matmul.py":37:0)
#loc72 = loc("/home/yongqi/.local/lib/python3.12/site-packages/triton/language/standard.py":35:0)
module {
  tt.func public @matmul_kernel(%arg0: !tt.ptr<f32> {tt.divisibility = 16 : i32} loc("/home/yongqi/external/triton_shared/python/examples/test_matmul.py":37:0), %arg1: !tt.ptr<f32> {tt.divisibility = 16 : i32} loc("/home/yongqi/external/triton_shared/python/examples/test_matmul.py":37:0), %arg2: !tt.ptr<f32> {tt.divisibility = 16 : i32} loc("/home/yongqi/external/triton_shared/python/examples/test_matmul.py":37:0), %arg3: i32 loc("/home/yongqi/external/triton_shared/python/examples/test_matmul.py":37:0), %arg4: i32 loc("/home/yongqi/external/triton_shared/python/examples/test_matmul.py":37:0), %arg5: i32 loc("/home/yongqi/external/triton_shared/python/examples/test_matmul.py":37:0), %arg6: i32 loc("/home/yongqi/external/triton_shared/python/examples/test_matmul.py":37:0), %arg7: i32 loc("/home/yongqi/external/triton_shared/python/examples/test_matmul.py":37:0), %arg8: i32 loc("/home/yongqi/external/triton_shared/python/examples/test_matmul.py":37:0)) attributes {noinline = false} {
    %0 = tt.get_program_id x : i32 loc(#loc1)
    %1 = tt.call @cdiv__i32__1cconstexpr_32_(%arg3) : (i32) -> i32 loc(#loc2)
    %2 = tt.call @cdiv__i32__1cconstexpr_64_(%arg4) : (i32) -> i32 loc(#loc3)
    %c8_i32 = arith.constant 8 : i32 loc(#loc4)
    %3 = arith.muli %2, %c8_i32 : i32 loc(#loc4)
    %4 = arith.divsi %0, %3 : i32 loc(#loc5)
    %c8_i32_0 = arith.constant 8 : i32 loc(#loc6)
    %5 = arith.muli %4, %c8_i32_0 : i32 loc(#loc6)
    %6 = arith.subi %1, %5 : i32 loc(#loc7)
    %c8_i32_1 = arith.constant 8 : i32 loc(#loc8)
    %7 = arith.minsi %6, %c8_i32_1 : i32 loc(#loc8)
    %8 = arith.remsi %0, %7 : i32 loc(#loc9)
    %9 = arith.addi %5, %8 : i32 loc(#loc10)
    %10 = arith.remsi %0, %3 : i32 loc(#loc11)
    %11 = arith.divsi %10, %7 : i32 loc(#loc12)
    %c32_i32 = arith.constant 32 : i32 loc(#loc13)
    %12 = arith.muli %9, %c32_i32 : i32 loc(#loc13)
    %13 = tt.make_range {end = 32 : i32, start = 0 : i32} : tensor<32xi32> loc(#loc14)
    %14 = tt.splat %12 : i32 -> tensor<32xi32> loc(#loc15)
    %15 = arith.addi %14, %13 : tensor<32xi32> loc(#loc15)
    %16 = tt.splat %arg3 : i32 -> tensor<32xi32> loc(#loc16)
    %17 = arith.remsi %15, %16 : tensor<32xi32> loc(#loc16)
    %c64_i32 = arith.constant 64 : i32 loc(#loc17)
    %18 = arith.muli %11, %c64_i32 : i32 loc(#loc17)
    %19 = tt.make_range {end = 64 : i32, start = 0 : i32} : tensor<64xi32> loc(#loc18)
    %20 = tt.splat %18 : i32 -> tensor<64xi32> loc(#loc19)
    %21 = arith.addi %20, %19 : tensor<64xi32> loc(#loc19)
    %22 = tt.splat %arg4 : i32 -> tensor<64xi32> loc(#loc20)
    %23 = arith.remsi %21, %22 : tensor<64xi32> loc(#loc20)
    %24 = tt.make_range {end = 16 : i32, start = 0 : i32} : tensor<16xi32> loc(#loc21)
    %25 = tt.expand_dims %17 {axis = 1 : i32} : tensor<32xi32> -> tensor<32x1xi32> loc(#loc22)
    %26 = tt.splat %arg6 : i32 -> tensor<32x1xi32> loc(#loc23)
    %27 = arith.muli %25, %26 : tensor<32x1xi32> loc(#loc23)
    %28 = tt.expand_dims %24 {axis = 0 : i32} : tensor<16xi32> -> tensor<1x16xi32> loc(#loc24)
    %c1_i32 = arith.constant 1 : i32 loc(#loc25)
    %cst = arith.constant dense<1> : tensor<1x16xi32> loc(#loc25)
    %29 = arith.muli %28, %cst : tensor<1x16xi32> loc(#loc25)
    %30 = tt.broadcast %27 : tensor<32x1xi32> -> tensor<32x16xi32> loc(#loc26)
    %31 = tt.broadcast %29 : tensor<1x16xi32> -> tensor<32x16xi32> loc(#loc26)
    %32 = arith.addi %30, %31 : tensor<32x16xi32> loc(#loc26)
    %33 = tt.splat %arg0 : !tt.ptr<f32> -> tensor<32x16x!tt.ptr<f32>> loc(#loc27)
    %34 = tt.addptr %33, %32 : tensor<32x16x!tt.ptr<f32>>, tensor<32x16xi32> loc(#loc27)
    %35 = tt.expand_dims %24 {axis = 1 : i32} : tensor<16xi32> -> tensor<16x1xi32> loc(#loc28)
    %36 = tt.splat %arg7 : i32 -> tensor<16x1xi32> loc(#loc29)
    %37 = arith.muli %35, %36 : tensor<16x1xi32> loc(#loc29)
    %38 = tt.expand_dims %23 {axis = 0 : i32} : tensor<64xi32> -> tensor<1x64xi32> loc(#loc30)
    %c1_i32_2 = arith.constant 1 : i32 loc(#loc31)
    %cst_3 = arith.constant dense<1> : tensor<1x64xi32> loc(#loc31)
    %39 = arith.muli %38, %cst_3 : tensor<1x64xi32> loc(#loc31)
    %40 = tt.broadcast %37 : tensor<16x1xi32> -> tensor<16x64xi32> loc(#loc32)
    %41 = tt.broadcast %39 : tensor<1x64xi32> -> tensor<16x64xi32> loc(#loc32)
    %42 = arith.addi %40, %41 : tensor<16x64xi32> loc(#loc32)
    %43 = tt.splat %arg1 : !tt.ptr<f32> -> tensor<16x64x!tt.ptr<f32>> loc(#loc33)
    %44 = tt.addptr %43, %42 : tensor<16x64x!tt.ptr<f32>>, tensor<16x64xi32> loc(#loc33)
    %45 = tt.call @"zeros____0cconstexpr_(constexpr_32_, constexpr_64_)__1cconstexpr_fp32_"() : () -> tensor<32x64xf32> loc(#loc34)
    %46 = tt.call @cdiv__i32__1cconstexpr_16_(%arg5) : (i32) -> i32 loc(#loc35)
    %c0_i32 = arith.constant 0 : i32 loc(#loc36)
    %c1_i32_4 = arith.constant 1 : i32 loc(#loc36)
    %47 = arith.bitcast %c0_i32 : i32 to i32 loc(#loc36)
    %48 = arith.bitcast %46 : i32 to i32 loc(#loc36)
    %49 = arith.bitcast %c1_i32_4 : i32 to i32 loc(#loc36)
    %50 = llvm.mlir.undef : i32 loc(#loc36)
    %51:3 = scf.for %arg9 = %47 to %48 step %49 iter_args(%arg10 = %45, %arg11 = %34, %arg12 = %44) -> (tensor<32x64xf32>, tensor<32x16x!tt.ptr<f32>>, tensor<16x64x!tt.ptr<f32>>)  : i32 {
      %79 = tt.expand_dims %24 {axis = 0 : i32} : tensor<16xi32> -> tensor<1x16xi32> loc(#loc37)
      %c16_i32 = arith.constant 16 : i32 loc(#loc38)
      %80 = arith.muli %arg9, %c16_i32 : i32 loc(#loc38)
      %81 = arith.subi %arg5, %80 : i32 loc(#loc39)
      %82 = tt.splat %81 : i32 -> tensor<1x16xi32> loc(#loc40)
      %83 = arith.cmpi slt, %79, %82 : tensor<1x16xi32> loc(#loc40)
      %cst_9 = arith.constant 0.000000e+00 : f32 loc(#loc41)
      %84 = tt.broadcast %83 : tensor<1x16xi1> -> tensor<32x16xi1> loc(#loc41)
      %cst_10 = arith.constant dense<0.000000e+00> : tensor<32x16xf32> loc(#loc41)
      %85 = tt.load %arg11, %84, %cst_10 : tensor<32x16x!tt.ptr<f32>> loc(#loc41)
      %86 = tt.expand_dims %24 {axis = 1 : i32} : tensor<16xi32> -> tensor<16x1xi32> loc(#loc42)
      %c16_i32_11 = arith.constant 16 : i32 loc(#loc43)
      %87 = arith.muli %arg9, %c16_i32_11 : i32 loc(#loc43)
      %88 = arith.subi %arg5, %87 : i32 loc(#loc44)
      %89 = tt.splat %88 : i32 -> tensor<16x1xi32> loc(#loc45)
      %90 = arith.cmpi slt, %86, %89 : tensor<16x1xi32> loc(#loc45)
      %cst_12 = arith.constant 0.000000e+00 : f32 loc(#loc46)
      %91 = tt.broadcast %90 : tensor<16x1xi1> -> tensor<16x64xi1> loc(#loc46)
      %cst_13 = arith.constant dense<0.000000e+00> : tensor<16x64xf32> loc(#loc46)
      %92 = tt.load %arg12, %91, %cst_13 : tensor<16x64x!tt.ptr<f32>> loc(#loc46)
      %cst_14 = arith.constant 0.000000e+00 : f32 loc(#loc47)
      %cst_15 = arith.constant dense<0.000000e+00> : tensor<32x64xf32> loc(#loc47)
      %93 = tt.dot %85, %92, %cst_15, inputPrecision = tf32 : tensor<32x16xf32> * tensor<16x64xf32> -> tensor<32x64xf32> loc(#loc47)
      %94 = arith.addf %arg10, %93 : tensor<32x64xf32> loc(#loc48)
      %c16_i32_16 = arith.constant 16 : i32 loc(#loc49)
      %cst_17 = arith.constant dense<16> : tensor<32x16xi32> loc(#loc49)
      %95 = tt.addptr %arg11, %cst_17 : tensor<32x16x!tt.ptr<f32>>, tensor<32x16xi32> loc(#loc49)
      %c16_i32_18 = arith.constant 16 : i32 loc(#loc50)
      %96 = arith.muli %arg7, %c16_i32_18 : i32 loc(#loc50)
      %97 = tt.splat %96 : i32 -> tensor<16x64xi32> loc(#loc51)
      %98 = tt.addptr %arg12, %97 : tensor<16x64x!tt.ptr<f32>>, tensor<16x64xi32> loc(#loc51)
      scf.yield %94, %95, %98 : tensor<32x64xf32>, tensor<32x16x!tt.ptr<f32>>, tensor<16x64x!tt.ptr<f32>> loc(#loc52)
    } loc(#loc36)
    %c32_i32_5 = arith.constant 32 : i32 loc(#loc53)
    %52 = arith.muli %9, %c32_i32_5 : i32 loc(#loc53)
    %53 = tt.make_range {end = 32 : i32, start = 0 : i32} : tensor<32xi32> loc(#loc54)
    %54 = tt.splat %52 : i32 -> tensor<32xi32> loc(#loc55)
    %55 = arith.addi %54, %53 : tensor<32xi32> loc(#loc55)
    %c64_i32_6 = arith.constant 64 : i32 loc(#loc56)
    %56 = arith.muli %11, %c64_i32_6 : i32 loc(#loc56)
    %57 = tt.make_range {end = 64 : i32, start = 0 : i32} : tensor<64xi32> loc(#loc57)
    %58 = tt.splat %56 : i32 -> tensor<64xi32> loc(#loc58)
    %59 = arith.addi %58, %57 : tensor<64xi32> loc(#loc58)
    %60 = tt.expand_dims %55 {axis = 1 : i32} : tensor<32xi32> -> tensor<32x1xi32> loc(#loc59)
    %61 = tt.splat %arg8 : i32 -> tensor<32x1xi32> loc(#loc60)
    %62 = arith.muli %61, %60 : tensor<32x1xi32> loc(#loc60)
    %63 = tt.splat %arg2 : !tt.ptr<f32> -> tensor<32x1x!tt.ptr<f32>> loc(#loc61)
    %64 = tt.addptr %63, %62 : tensor<32x1x!tt.ptr<f32>>, tensor<32x1xi32> loc(#loc61)
    %65 = tt.expand_dims %59 {axis = 0 : i32} : tensor<64xi32> -> tensor<1x64xi32> loc(#loc62)
    %c1_i32_7 = arith.constant 1 : i32 loc(#loc63)
    %cst_8 = arith.constant dense<1> : tensor<1x64xi32> loc(#loc63)
    %66 = arith.muli %65, %cst_8 : tensor<1x64xi32> loc(#loc63)
    %67 = tt.broadcast %64 : tensor<32x1x!tt.ptr<f32>> -> tensor<32x64x!tt.ptr<f32>> loc(#loc64)
    %68 = tt.broadcast %66 : tensor<1x64xi32> -> tensor<32x64xi32> loc(#loc64)
    %69 = tt.addptr %67, %68 : tensor<32x64x!tt.ptr<f32>>, tensor<32x64xi32> loc(#loc64)
    %70 = tt.expand_dims %55 {axis = 1 : i32} : tensor<32xi32> -> tensor<32x1xi32> loc(#loc65)
    %71 = tt.splat %arg3 : i32 -> tensor<32x1xi32> loc(#loc66)
    %72 = arith.cmpi slt, %70, %71 : tensor<32x1xi32> loc(#loc66)
    %73 = tt.expand_dims %59 {axis = 0 : i32} : tensor<64xi32> -> tensor<1x64xi32> loc(#loc67)
    %74 = tt.splat %arg4 : i32 -> tensor<1x64xi32> loc(#loc68)
    %75 = arith.cmpi slt, %73, %74 : tensor<1x64xi32> loc(#loc68)
    %76 = tt.broadcast %72 : tensor<32x1xi1> -> tensor<32x64xi1> loc(#loc69)
    %77 = tt.broadcast %75 : tensor<1x64xi1> -> tensor<32x64xi1> loc(#loc69)
    %78 = arith.andi %76, %77 : tensor<32x64xi1> loc(#loc69)
    tt.store %69, %51#0, %78 : tensor<32x64x!tt.ptr<f32>> loc(#loc70)
    tt.return loc(#loc71)
  } loc(#loc)
  tt.func private @cdiv__i32__1cconstexpr_32_(%arg0: i32 loc("/home/yongqi/.local/lib/python3.12/site-packages/triton/language/standard.py":35:0)) -> i32 attributes {noinline = false} {
    %c32_i32 = arith.constant 32 : i32 loc(#loc73)
    %c31_i32 = arith.constant 31 : i32 loc(#loc74)
    %0 = arith.addi %arg0, %c31_i32 : i32 loc(#loc74)
    %1 = arith.divsi %0, %c32_i32 : i32 loc(#loc75)
    tt.return %1 : i32 loc(#loc76)
  } loc(#loc72)
  tt.func private @cdiv__i32__1cconstexpr_64_(%arg0: i32 loc("/home/yongqi/.local/lib/python3.12/site-packages/triton/language/standard.py":35:0)) -> i32 attributes {noinline = false} {
    %c64_i32 = arith.constant 64 : i32 loc(#loc73)
    %c63_i32 = arith.constant 63 : i32 loc(#loc74)
    %0 = arith.addi %arg0, %c63_i32 : i32 loc(#loc74)
    %1 = arith.divsi %0, %c64_i32 : i32 loc(#loc75)
    tt.return %1 : i32 loc(#loc76)
  } loc(#loc72)
  tt.func private @"zeros____0cconstexpr_(constexpr_32_, constexpr_64_)__1cconstexpr_fp32_"() -> tensor<32x64xf32> attributes {noinline = false} {
    %cst = arith.constant dense<0.000000e+00> : tensor<32x64xf32> loc(#loc78)
    tt.return %cst : tensor<32x64xf32> loc(#loc79)
  } loc(#loc77)
  tt.func private @cdiv__i32__1cconstexpr_16_(%arg0: i32 loc("/home/yongqi/.local/lib/python3.12/site-packages/triton/language/standard.py":35:0)) -> i32 attributes {noinline = false} {
    %c16_i32 = arith.constant 16 : i32 loc(#loc73)
    %c15_i32 = arith.constant 15 : i32 loc(#loc74)
    %0 = arith.addi %arg0, %c15_i32 : i32 loc(#loc74)
    %1 = arith.divsi %0, %c16_i32 : i32 loc(#loc75)
    tt.return %1 : i32 loc(#loc76)
  } loc(#loc72)
} loc(#loc)
#loc1 = loc("/home/yongqi/external/triton_shared/python/examples/test_matmul.py":60:24)
#loc2 = loc("/home/yongqi/external/triton_shared/python/examples/test_matmul.py":61:27)
#loc3 = loc("/home/yongqi/external/triton_shared/python/examples/test_matmul.py":62:27)
#loc4 = loc("/home/yongqi/external/triton_shared/python/examples/test_matmul.py":63:38)
#loc5 = loc("/home/yongqi/external/triton_shared/python/examples/test_matmul.py":64:22)
#loc6 = loc("/home/yongqi/external/triton_shared/python/examples/test_matmul.py":65:29)
#loc7 = loc("/home/yongqi/external/triton_shared/python/examples/test_matmul.py":66:35)
#loc8 = loc("/home/yongqi/external/triton_shared/python/examples/test_matmul.py":66:48)
#loc9 = loc("/home/yongqi/external/triton_shared/python/examples/test_matmul.py":67:33)
#loc10 = loc("/home/yongqi/external/triton_shared/python/examples/test_matmul.py":67:27)
#loc11 = loc("/home/yongqi/external/triton_shared/python/examples/test_matmul.py":68:19)
#loc12 = loc("/home/yongqi/external/triton_shared/python/examples/test_matmul.py":68:40)
#loc13 = loc("/home/yongqi/external/triton_shared/python/examples/test_matmul.py":77:23)
#loc14 = loc("/home/yongqi/external/triton_shared/python/examples/test_matmul.py":77:51)
#loc15 = loc("/home/yongqi/external/triton_shared/python/examples/test_matmul.py":77:38)
#loc16 = loc("/home/yongqi/external/triton_shared/python/examples/test_matmul.py":77:68)
#loc17 = loc("/home/yongqi/external/triton_shared/python/examples/test_matmul.py":78:23)
#loc18 = loc("/home/yongqi/external/triton_shared/python/examples/test_matmul.py":78:51)
#loc19 = loc("/home/yongqi/external/triton_shared/python/examples/test_matmul.py":78:38)
#loc20 = loc("/home/yongqi/external/triton_shared/python/examples/test_matmul.py":78:68)
#loc21 = loc("/home/yongqi/external/triton_shared/python/examples/test_matmul.py":79:26)
#loc22 = loc("/home/yongqi/external/triton_shared/python/examples/test_matmul.py":80:30)
#loc23 = loc("/home/yongqi/external/triton_shared/python/examples/test_matmul.py":80:41)
#loc24 = loc("/home/yongqi/external/triton_shared/python/examples/test_matmul.py":80:60)
#loc25 = loc("/home/yongqi/external/triton_shared/python/examples/test_matmul.py":80:71)
#loc26 = loc("/home/yongqi/external/triton_shared/python/examples/test_matmul.py":80:53)
#loc27 = loc("/home/yongqi/external/triton_shared/python/examples/test_matmul.py":80:22)
#loc28 = loc("/home/yongqi/external/triton_shared/python/examples/test_matmul.py":81:29)
#loc29 = loc("/home/yongqi/external/triton_shared/python/examples/test_matmul.py":81:40)
#loc30 = loc("/home/yongqi/external/triton_shared/python/examples/test_matmul.py":81:60)
#loc31 = loc("/home/yongqi/external/triton_shared/python/examples/test_matmul.py":81:71)
#loc32 = loc("/home/yongqi/external/triton_shared/python/examples/test_matmul.py":81:52)
#loc33 = loc("/home/yongqi/external/triton_shared/python/examples/test_matmul.py":81:22)
#loc34 = loc("/home/yongqi/external/triton_shared/python/examples/test_matmul.py":88:27)
#loc35 = loc("/home/yongqi/external/triton_shared/python/examples/test_matmul.py":89:33)
#loc36 = loc("/home/yongqi/external/triton_shared/python/examples/test_matmul.py":89:22)
#loc37 = loc("/home/yongqi/external/triton_shared/python/examples/test_matmul.py":92:40)
#loc38 = loc("/home/yongqi/external/triton_shared/python/examples/test_matmul.py":92:59)
#loc39 = loc("/home/yongqi/external/triton_shared/python/examples/test_matmul.py":92:55)
#loc40 = loc("/home/yongqi/external/triton_shared/python/examples/test_matmul.py":92:51)
#loc41 = loc("/home/yongqi/external/triton_shared/python/examples/test_matmul.py":92:20)
#loc42 = loc("/home/yongqi/external/triton_shared/python/examples/test_matmul.py":93:40)
#loc43 = loc("/home/yongqi/external/triton_shared/python/examples/test_matmul.py":93:59)
#loc44 = loc("/home/yongqi/external/triton_shared/python/examples/test_matmul.py":93:55)
#loc45 = loc("/home/yongqi/external/triton_shared/python/examples/test_matmul.py":93:51)
#loc46 = loc("/home/yongqi/external/triton_shared/python/examples/test_matmul.py":93:20)
#loc47 = loc("/home/yongqi/external/triton_shared/python/examples/test_matmul.py":95:33)
#loc48 = loc("/home/yongqi/external/triton_shared/python/examples/test_matmul.py":95:23)
#loc49 = loc("/home/yongqi/external/triton_shared/python/examples/test_matmul.py":97:18)
#loc50 = loc("/home/yongqi/external/triton_shared/python/examples/test_matmul.py":98:33)
#loc51 = loc("/home/yongqi/external/triton_shared/python/examples/test_matmul.py":98:18)
#loc52 = loc("/home/yongqi/external/triton_shared/python/examples/test_matmul.py":98:8)
#loc53 = loc("/home/yongqi/external/triton_shared/python/examples/test_matmul.py":107:22)
#loc54 = loc("/home/yongqi/external/triton_shared/python/examples/test_matmul.py":107:50)
#loc55 = loc("/home/yongqi/external/triton_shared/python/examples/test_matmul.py":107:37)
#loc56 = loc("/home/yongqi/external/triton_shared/python/examples/test_matmul.py":108:22)
#loc57 = loc("/home/yongqi/external/triton_shared/python/examples/test_matmul.py":108:50)
#loc58 = loc("/home/yongqi/external/triton_shared/python/examples/test_matmul.py":108:37)
#loc59 = loc("/home/yongqi/external/triton_shared/python/examples/test_matmul.py":109:41)
#loc60 = loc("/home/yongqi/external/triton_shared/python/examples/test_matmul.py":109:33)
#loc61 = loc("/home/yongqi/external/triton_shared/python/examples/test_matmul.py":109:21)
#loc62 = loc("/home/yongqi/external/triton_shared/python/examples/test_matmul.py":109:72)
#loc63 = loc("/home/yongqi/external/triton_shared/python/examples/test_matmul.py":109:64)
#loc64 = loc("/home/yongqi/external/triton_shared/python/examples/test_matmul.py":109:52)
#loc65 = loc("/home/yongqi/external/triton_shared/python/examples/test_matmul.py":110:22)
#loc66 = loc("/home/yongqi/external/triton_shared/python/examples/test_matmul.py":110:33)
#loc67 = loc("/home/yongqi/external/triton_shared/python/examples/test_matmul.py":110:47)
#loc68 = loc("/home/yongqi/external/triton_shared/python/examples/test_matmul.py":110:58)
#loc69 = loc("/home/yongqi/external/triton_shared/python/examples/test_matmul.py":110:39)
#loc70 = loc("/home/yongqi/external/triton_shared/python/examples/test_matmul.py":111:21)
#loc71 = loc("/home/yongqi/external/triton_shared/python/examples/test_matmul.py":111:4)
#loc73 = loc(unknown)
#loc74 = loc("/home/yongqi/.local/lib/python3.12/site-packages/triton/language/standard.py":44:22)
#loc75 = loc("/home/yongqi/.local/lib/python3.12/site-packages/triton/language/standard.py":44:28)
#loc76 = loc("/home/yongqi/.local/lib/python3.12/site-packages/triton/language/standard.py":44:11)
#loc77 = loc("/home/yongqi/.local/lib/python3.12/site-packages/triton/language/standard.py":117:0)
#loc78 = loc("/home/yongqi/.local/lib/python3.12/site-packages/triton/language/standard.py":126:31)
#loc79 = loc("/home/yongqi/.local/lib/python3.12/site-packages/triton/language/standard.py":126:11)


// -----// IR Dump Before Canonicalizer (canonicalize) ('tt.func' operation: @matmul_kernel) //----- //
#loc = loc("/home/yongqi/external/triton_shared/python/examples/test_matmul.py":37:0)
module {
  tt.func public @matmul_kernel(%arg0: !tt.ptr<f32> {tt.divisibility = 16 : i32} loc("/home/yongqi/external/triton_shared/python/examples/test_matmul.py":37:0), %arg1: !tt.ptr<f32> {tt.divisibility = 16 : i32} loc("/home/yongqi/external/triton_shared/python/examples/test_matmul.py":37:0), %arg2: !tt.ptr<f32> {tt.divisibility = 16 : i32} loc("/home/yongqi/external/triton_shared/python/examples/test_matmul.py":37:0), %arg3: i32 loc("/home/yongqi/external/triton_shared/python/examples/test_matmul.py":37:0), %arg4: i32 loc("/home/yongqi/external/triton_shared/python/examples/test_matmul.py":37:0), %arg5: i32 loc("/home/yongqi/external/triton_shared/python/examples/test_matmul.py":37:0), %arg6: i32 loc("/home/yongqi/external/triton_shared/python/examples/test_matmul.py":37:0), %arg7: i32 loc("/home/yongqi/external/triton_shared/python/examples/test_matmul.py":37:0), %arg8: i32 loc("/home/yongqi/external/triton_shared/python/examples/test_matmul.py":37:0)) attributes {noinline = false} {
    %c1_i32 = arith.constant 1 : i32 loc(#loc1)
    %c0_i32 = arith.constant 0 : i32 loc(#loc1)
    %cst = arith.constant dense<16> : tensor<32x16xi32> loc(#loc1)
    %cst_0 = arith.constant dense<0.000000e+00> : tensor<32x64xf32> loc(#loc1)
    %cst_1 = arith.constant dense<0.000000e+00> : tensor<16x64xf32> loc(#loc1)
    %cst_2 = arith.constant dense<0.000000e+00> : tensor<32x16xf32> loc(#loc1)
    %c16_i32 = arith.constant 16 : i32 loc(#loc1)
    %c64_i32 = arith.constant 64 : i32 loc(#loc1)
    %c32_i32 = arith.constant 32 : i32 loc(#loc1)
    %c8_i32 = arith.constant 8 : i32 loc(#loc1)
    %0 = tt.get_program_id x : i32 loc(#loc2)
    %c32_i32_3 = arith.constant 32 : i32 loc(#loc75)
    %c31_i32 = arith.constant 31 : i32 loc(#loc76)
    %1 = arith.addi %arg3, %c31_i32 : i32 loc(#loc76)
    %2 = arith.divsi %1, %c32_i32_3 : i32 loc(#loc77)
    %c64_i32_4 = arith.constant 64 : i32 loc(#loc78)
    %c63_i32 = arith.constant 63 : i32 loc(#loc79)
    %3 = arith.addi %arg4, %c63_i32 : i32 loc(#loc79)
    %4 = arith.divsi %3, %c64_i32_4 : i32 loc(#loc80)
    %5 = arith.muli %4, %c8_i32 : i32 loc(#loc7)
    %6 = arith.divsi %0, %5 : i32 loc(#loc8)
    %7 = arith.muli %6, %c8_i32 : i32 loc(#loc9)
    %8 = arith.subi %2, %7 : i32 loc(#loc10)
    %9 = arith.minsi %8, %c8_i32 : i32 loc(#loc11)
    %10 = arith.remsi %0, %9 : i32 loc(#loc12)
    %11 = arith.addi %7, %10 : i32 loc(#loc13)
    %12 = arith.remsi %0, %5 : i32 loc(#loc14)
    %13 = arith.divsi %12, %9 : i32 loc(#loc15)
    %14 = arith.muli %11, %c32_i32 : i32 loc(#loc16)
    %15 = tt.make_range {end = 32 : i32, start = 0 : i32} : tensor<32xi32> loc(#loc17)
    %16 = tt.splat %14 : i32 -> tensor<32xi32> loc(#loc18)
    %17 = arith.addi %16, %15 : tensor<32xi32> loc(#loc18)
    %18 = tt.splat %arg3 : i32 -> tensor<32xi32> loc(#loc19)
    %19 = arith.remsi %17, %18 : tensor<32xi32> loc(#loc19)
    %20 = arith.muli %13, %c64_i32 : i32 loc(#loc20)
    %21 = tt.make_range {end = 64 : i32, start = 0 : i32} : tensor<64xi32> loc(#loc21)
    %22 = tt.splat %20 : i32 -> tensor<64xi32> loc(#loc22)
    %23 = arith.addi %22, %21 : tensor<64xi32> loc(#loc22)
    %24 = tt.splat %arg4 : i32 -> tensor<64xi32> loc(#loc23)
    %25 = arith.remsi %23, %24 : tensor<64xi32> loc(#loc23)
    %26 = tt.make_range {end = 16 : i32, start = 0 : i32} : tensor<16xi32> loc(#loc24)
    %27 = tt.expand_dims %19 {axis = 1 : i32} : tensor<32xi32> -> tensor<32x1xi32> loc(#loc25)
    %28 = tt.splat %arg6 : i32 -> tensor<32x1xi32> loc(#loc26)
    %29 = arith.muli %27, %28 : tensor<32x1xi32> loc(#loc26)
    %30 = tt.expand_dims %26 {axis = 0 : i32} : tensor<16xi32> -> tensor<1x16xi32> loc(#loc27)
    %31 = tt.broadcast %29 : tensor<32x1xi32> -> tensor<32x16xi32> loc(#loc28)
    %32 = tt.broadcast %30 : tensor<1x16xi32> -> tensor<32x16xi32> loc(#loc28)
    %33 = arith.addi %31, %32 : tensor<32x16xi32> loc(#loc28)
    %34 = tt.splat %arg0 : !tt.ptr<f32> -> tensor<32x16x!tt.ptr<f32>> loc(#loc29)
    %35 = tt.addptr %34, %33 : tensor<32x16x!tt.ptr<f32>>, tensor<32x16xi32> loc(#loc29)
    %36 = tt.expand_dims %26 {axis = 1 : i32} : tensor<16xi32> -> tensor<16x1xi32> loc(#loc30)
    %37 = tt.splat %arg7 : i32 -> tensor<16x1xi32> loc(#loc31)
    %38 = arith.muli %36, %37 : tensor<16x1xi32> loc(#loc31)
    %39 = tt.expand_dims %25 {axis = 0 : i32} : tensor<64xi32> -> tensor<1x64xi32> loc(#loc32)
    %40 = tt.broadcast %38 : tensor<16x1xi32> -> tensor<16x64xi32> loc(#loc33)
    %41 = tt.broadcast %39 : tensor<1x64xi32> -> tensor<16x64xi32> loc(#loc33)
    %42 = arith.addi %40, %41 : tensor<16x64xi32> loc(#loc33)
    %43 = tt.splat %arg1 : !tt.ptr<f32> -> tensor<16x64x!tt.ptr<f32>> loc(#loc34)
    %44 = tt.addptr %43, %42 : tensor<16x64x!tt.ptr<f32>>, tensor<16x64xi32> loc(#loc34)
    %cst_5 = arith.constant dense<0.000000e+00> : tensor<32x64xf32> loc(#loc81)
    %c16_i32_6 = arith.constant 16 : i32 loc(#loc82)
    %c15_i32 = arith.constant 15 : i32 loc(#loc83)
    %45 = arith.addi %arg5, %c15_i32 : i32 loc(#loc83)
    %46 = arith.divsi %45, %c16_i32_6 : i32 loc(#loc84)
    %47:3 = scf.for %arg9 = %c0_i32 to %46 step %c1_i32 iter_args(%arg10 = %cst_5, %arg11 = %35, %arg12 = %44) -> (tensor<32x64xf32>, tensor<32x16x!tt.ptr<f32>>, tensor<16x64x!tt.ptr<f32>>)  : i32 {
      %74 = tt.expand_dims %26 {axis = 0 : i32} : tensor<16xi32> -> tensor<1x16xi32> loc(#loc39)
      %75 = arith.muli %arg9, %c16_i32 : i32 loc(#loc40)
      %76 = arith.subi %arg5, %75 : i32 loc(#loc41)
      %77 = tt.splat %76 : i32 -> tensor<1x16xi32> loc(#loc42)
      %78 = arith.cmpi slt, %74, %77 : tensor<1x16xi32> loc(#loc42)
      %79 = tt.broadcast %78 : tensor<1x16xi1> -> tensor<32x16xi1> loc(#loc43)
      %80 = tt.load %arg11, %79, %cst_2 : tensor<32x16x!tt.ptr<f32>> loc(#loc43)
      %81 = tt.expand_dims %26 {axis = 1 : i32} : tensor<16xi32> -> tensor<16x1xi32> loc(#loc44)
      %82 = arith.muli %arg9, %c16_i32 : i32 loc(#loc45)
      %83 = arith.subi %arg5, %82 : i32 loc(#loc46)
      %84 = tt.splat %83 : i32 -> tensor<16x1xi32> loc(#loc47)
      %85 = arith.cmpi slt, %81, %84 : tensor<16x1xi32> loc(#loc47)
      %86 = tt.broadcast %85 : tensor<16x1xi1> -> tensor<16x64xi1> loc(#loc48)
      %87 = tt.load %arg12, %86, %cst_1 : tensor<16x64x!tt.ptr<f32>> loc(#loc48)
      %88 = tt.dot %80, %87, %cst_0, inputPrecision = tf32 : tensor<32x16xf32> * tensor<16x64xf32> -> tensor<32x64xf32> loc(#loc49)
      %89 = arith.addf %arg10, %88 : tensor<32x64xf32> loc(#loc50)
      %90 = tt.addptr %arg11, %cst : tensor<32x16x!tt.ptr<f32>>, tensor<32x16xi32> loc(#loc51)
      %91 = arith.muli %arg7, %c16_i32 : i32 loc(#loc52)
      %92 = tt.splat %91 : i32 -> tensor<16x64xi32> loc(#loc53)
      %93 = tt.addptr %arg12, %92 : tensor<16x64x!tt.ptr<f32>>, tensor<16x64xi32> loc(#loc53)
      scf.yield %89, %90, %93 : tensor<32x64xf32>, tensor<32x16x!tt.ptr<f32>>, tensor<16x64x!tt.ptr<f32>> loc(#loc54)
    } loc(#loc38)
    %48 = arith.muli %11, %c32_i32 : i32 loc(#loc55)
    %49 = tt.make_range {end = 32 : i32, start = 0 : i32} : tensor<32xi32> loc(#loc56)
    %50 = tt.splat %48 : i32 -> tensor<32xi32> loc(#loc57)
    %51 = arith.addi %50, %49 : tensor<32xi32> loc(#loc57)
    %52 = arith.muli %13, %c64_i32 : i32 loc(#loc58)
    %53 = tt.make_range {end = 64 : i32, start = 0 : i32} : tensor<64xi32> loc(#loc59)
    %54 = tt.splat %52 : i32 -> tensor<64xi32> loc(#loc60)
    %55 = arith.addi %54, %53 : tensor<64xi32> loc(#loc60)
    %56 = tt.expand_dims %51 {axis = 1 : i32} : tensor<32xi32> -> tensor<32x1xi32> loc(#loc61)
    %57 = tt.splat %arg8 : i32 -> tensor<32x1xi32> loc(#loc62)
    %58 = arith.muli %57, %56 : tensor<32x1xi32> loc(#loc62)
    %59 = tt.splat %arg2 : !tt.ptr<f32> -> tensor<32x1x!tt.ptr<f32>> loc(#loc63)
    %60 = tt.addptr %59, %58 : tensor<32x1x!tt.ptr<f32>>, tensor<32x1xi32> loc(#loc63)
    %61 = tt.expand_dims %55 {axis = 0 : i32} : tensor<64xi32> -> tensor<1x64xi32> loc(#loc64)
    %62 = tt.broadcast %60 : tensor<32x1x!tt.ptr<f32>> -> tensor<32x64x!tt.ptr<f32>> loc(#loc65)
    %63 = tt.broadcast %61 : tensor<1x64xi32> -> tensor<32x64xi32> loc(#loc65)
    %64 = tt.addptr %62, %63 : tensor<32x64x!tt.ptr<f32>>, tensor<32x64xi32> loc(#loc65)
    %65 = tt.expand_dims %51 {axis = 1 : i32} : tensor<32xi32> -> tensor<32x1xi32> loc(#loc66)
    %66 = tt.splat %arg3 : i32 -> tensor<32x1xi32> loc(#loc67)
    %67 = arith.cmpi slt, %65, %66 : tensor<32x1xi32> loc(#loc67)
    %68 = tt.expand_dims %55 {axis = 0 : i32} : tensor<64xi32> -> tensor<1x64xi32> loc(#loc68)
    %69 = tt.splat %arg4 : i32 -> tensor<1x64xi32> loc(#loc69)
    %70 = arith.cmpi slt, %68, %69 : tensor<1x64xi32> loc(#loc69)
    %71 = tt.broadcast %67 : tensor<32x1xi1> -> tensor<32x64xi1> loc(#loc70)
    %72 = tt.broadcast %70 : tensor<1x64xi1> -> tensor<32x64xi1> loc(#loc70)
    %73 = arith.andi %71, %72 : tensor<32x64xi1> loc(#loc70)
    tt.store %64, %47#0, %73 : tensor<32x64x!tt.ptr<f32>> loc(#loc71)
    tt.return loc(#loc72)
  } loc(#loc)
  tt.func private @cdiv__i32__1cconstexpr_32_(i32) -> i32 attributes {noinline = false} loc(#loc73)
  tt.func private @cdiv__i32__1cconstexpr_64_(i32) -> i32 attributes {noinline = false} loc(#loc73)
  tt.func private @"zeros____0cconstexpr_(constexpr_32_, constexpr_64_)__1cconstexpr_fp32_"() -> tensor<32x64xf32> attributes {noinline = false} loc(#loc74)
  tt.func private @cdiv__i32__1cconstexpr_16_(i32) -> i32 attributes {noinline = false} loc(#loc73)
} loc(#loc)
#loc1 = loc(unknown)
#loc2 = loc("/home/yongqi/external/triton_shared/python/examples/test_matmul.py":60:24)
#loc3 = loc("/home/yongqi/external/triton_shared/python/examples/test_matmul.py":61:27)
#loc4 = loc("/home/yongqi/.local/lib/python3.12/site-packages/triton/language/standard.py":44:22)
#loc5 = loc("/home/yongqi/.local/lib/python3.12/site-packages/triton/language/standard.py":44:28)
#loc6 = loc("/home/yongqi/external/triton_shared/python/examples/test_matmul.py":62:27)
#loc7 = loc("/home/yongqi/external/triton_shared/python/examples/test_matmul.py":63:38)
#loc8 = loc("/home/yongqi/external/triton_shared/python/examples/test_matmul.py":64:22)
#loc9 = loc("/home/yongqi/external/triton_shared/python/examples/test_matmul.py":65:29)
#loc10 = loc("/home/yongqi/external/triton_shared/python/examples/test_matmul.py":66:35)
#loc11 = loc("/home/yongqi/external/triton_shared/python/examples/test_matmul.py":66:48)
#loc12 = loc("/home/yongqi/external/triton_shared/python/examples/test_matmul.py":67:33)
#loc13 = loc("/home/yongqi/external/triton_shared/python/examples/test_matmul.py":67:27)
#loc14 = loc("/home/yongqi/external/triton_shared/python/examples/test_matmul.py":68:19)
#loc15 = loc("/home/yongqi/external/triton_shared/python/examples/test_matmul.py":68:40)
#loc16 = loc("/home/yongqi/external/triton_shared/python/examples/test_matmul.py":77:23)
#loc17 = loc("/home/yongqi/external/triton_shared/python/examples/test_matmul.py":77:51)
#loc18 = loc("/home/yongqi/external/triton_shared/python/examples/test_matmul.py":77:38)
#loc19 = loc("/home/yongqi/external/triton_shared/python/examples/test_matmul.py":77:68)
#loc20 = loc("/home/yongqi/external/triton_shared/python/examples/test_matmul.py":78:23)
#loc21 = loc("/home/yongqi/external/triton_shared/python/examples/test_matmul.py":78:51)
#loc22 = loc("/home/yongqi/external/triton_shared/python/examples/test_matmul.py":78:38)
#loc23 = loc("/home/yongqi/external/triton_shared/python/examples/test_matmul.py":78:68)
#loc24 = loc("/home/yongqi/external/triton_shared/python/examples/test_matmul.py":79:26)
#loc25 = loc("/home/yongqi/external/triton_shared/python/examples/test_matmul.py":80:30)
#loc26 = loc("/home/yongqi/external/triton_shared/python/examples/test_matmul.py":80:41)
#loc27 = loc("/home/yongqi/external/triton_shared/python/examples/test_matmul.py":80:60)
#loc28 = loc("/home/yongqi/external/triton_shared/python/examples/test_matmul.py":80:53)
#loc29 = loc("/home/yongqi/external/triton_shared/python/examples/test_matmul.py":80:22)
#loc30 = loc("/home/yongqi/external/triton_shared/python/examples/test_matmul.py":81:29)
#loc31 = loc("/home/yongqi/external/triton_shared/python/examples/test_matmul.py":81:40)
#loc32 = loc("/home/yongqi/external/triton_shared/python/examples/test_matmul.py":81:60)
#loc33 = loc("/home/yongqi/external/triton_shared/python/examples/test_matmul.py":81:52)
#loc34 = loc("/home/yongqi/external/triton_shared/python/examples/test_matmul.py":81:22)
#loc35 = loc("/home/yongqi/.local/lib/python3.12/site-packages/triton/language/standard.py":126:31)
#loc36 = loc("/home/yongqi/external/triton_shared/python/examples/test_matmul.py":88:27)
#loc37 = loc("/home/yongqi/external/triton_shared/python/examples/test_matmul.py":89:33)
#loc38 = loc("/home/yongqi/external/triton_shared/python/examples/test_matmul.py":89:22)
#loc39 = loc("/home/yongqi/external/triton_shared/python/examples/test_matmul.py":92:40)
#loc40 = loc("/home/yongqi/external/triton_shared/python/examples/test_matmul.py":92:59)
#loc41 = loc("/home/yongqi/external/triton_shared/python/examples/test_matmul.py":92:55)
#loc42 = loc("/home/yongqi/external/triton_shared/python/examples/test_matmul.py":92:51)
#loc43 = loc("/home/yongqi/external/triton_shared/python/examples/test_matmul.py":92:20)
#loc44 = loc("/home/yongqi/external/triton_shared/python/examples/test_matmul.py":93:40)
#loc45 = loc("/home/yongqi/external/triton_shared/python/examples/test_matmul.py":93:59)
#loc46 = loc("/home/yongqi/external/triton_shared/python/examples/test_matmul.py":93:55)
#loc47 = loc("/home/yongqi/external/triton_shared/python/examples/test_matmul.py":93:51)
#loc48 = loc("/home/yongqi/external/triton_shared/python/examples/test_matmul.py":93:20)
#loc49 = loc("/home/yongqi/external/triton_shared/python/examples/test_matmul.py":95:33)
#loc50 = loc("/home/yongqi/external/triton_shared/python/examples/test_matmul.py":95:23)
#loc51 = loc("/home/yongqi/external/triton_shared/python/examples/test_matmul.py":97:18)
#loc52 = loc("/home/yongqi/external/triton_shared/python/examples/test_matmul.py":98:33)
#loc53 = loc("/home/yongqi/external/triton_shared/python/examples/test_matmul.py":98:18)
#loc54 = loc("/home/yongqi/external/triton_shared/python/examples/test_matmul.py":98:8)
#loc55 = loc("/home/yongqi/external/triton_shared/python/examples/test_matmul.py":107:22)
#loc56 = loc("/home/yongqi/external/triton_shared/python/examples/test_matmul.py":107:50)
#loc57 = loc("/home/yongqi/external/triton_shared/python/examples/test_matmul.py":107:37)
#loc58 = loc("/home/yongqi/external/triton_shared/python/examples/test_matmul.py":108:22)
#loc59 = loc("/home/yongqi/external/triton_shared/python/examples/test_matmul.py":108:50)
#loc60 = loc("/home/yongqi/external/triton_shared/python/examples/test_matmul.py":108:37)
#loc61 = loc("/home/yongqi/external/triton_shared/python/examples/test_matmul.py":109:41)
#loc62 = loc("/home/yongqi/external/triton_shared/python/examples/test_matmul.py":109:33)
#loc63 = loc("/home/yongqi/external/triton_shared/python/examples/test_matmul.py":109:21)
#loc64 = loc("/home/yongqi/external/triton_shared/python/examples/test_matmul.py":109:72)
#loc65 = loc("/home/yongqi/external/triton_shared/python/examples/test_matmul.py":109:52)
#loc66 = loc("/home/yongqi/external/triton_shared/python/examples/test_matmul.py":110:22)
#loc67 = loc("/home/yongqi/external/triton_shared/python/examples/test_matmul.py":110:33)
#loc68 = loc("/home/yongqi/external/triton_shared/python/examples/test_matmul.py":110:47)
#loc69 = loc("/home/yongqi/external/triton_shared/python/examples/test_matmul.py":110:58)
#loc70 = loc("/home/yongqi/external/triton_shared/python/examples/test_matmul.py":110:39)
#loc71 = loc("/home/yongqi/external/triton_shared/python/examples/test_matmul.py":111:21)
#loc72 = loc("/home/yongqi/external/triton_shared/python/examples/test_matmul.py":111:4)
#loc73 = loc("/home/yongqi/.local/lib/python3.12/site-packages/triton/language/standard.py":35:0)
#loc74 = loc("/home/yongqi/.local/lib/python3.12/site-packages/triton/language/standard.py":117:0)
#loc75 = loc(callsite(#loc1 at #loc3))
#loc76 = loc(callsite(#loc4 at #loc3))
#loc77 = loc(callsite(#loc5 at #loc3))
#loc78 = loc(callsite(#loc1 at #loc6))
#loc79 = loc(callsite(#loc4 at #loc6))
#loc80 = loc(callsite(#loc5 at #loc6))
#loc81 = loc(callsite(#loc35 at #loc36))
#loc82 = loc(callsite(#loc1 at #loc37))
#loc83 = loc(callsite(#loc4 at #loc37))
#loc84 = loc(callsite(#loc5 at #loc37))


// -----// IR Dump Before TritonRewriteTensorPointer (triton-rewrite-tensor-pointer) ('builtin.module' operation) //----- //
#loc = loc("/home/yongqi/external/triton_shared/python/examples/test_matmul.py":37:0)
module {
  tt.func public @matmul_kernel(%arg0: !tt.ptr<f32> {tt.divisibility = 16 : i32} loc("/home/yongqi/external/triton_shared/python/examples/test_matmul.py":37:0), %arg1: !tt.ptr<f32> {tt.divisibility = 16 : i32} loc("/home/yongqi/external/triton_shared/python/examples/test_matmul.py":37:0), %arg2: !tt.ptr<f32> {tt.divisibility = 16 : i32} loc("/home/yongqi/external/triton_shared/python/examples/test_matmul.py":37:0), %arg3: i32 loc("/home/yongqi/external/triton_shared/python/examples/test_matmul.py":37:0), %arg4: i32 loc("/home/yongqi/external/triton_shared/python/examples/test_matmul.py":37:0), %arg5: i32 loc("/home/yongqi/external/triton_shared/python/examples/test_matmul.py":37:0), %arg6: i32 loc("/home/yongqi/external/triton_shared/python/examples/test_matmul.py":37:0), %arg7: i32 loc("/home/yongqi/external/triton_shared/python/examples/test_matmul.py":37:0), %arg8: i32 loc("/home/yongqi/external/triton_shared/python/examples/test_matmul.py":37:0)) attributes {noinline = false} {
    %c15_i32 = arith.constant 15 : i32 loc(#loc1)
    %c63_i32 = arith.constant 63 : i32 loc(#loc1)
    %c31_i32 = arith.constant 31 : i32 loc(#loc1)
    %c1_i32 = arith.constant 1 : i32 loc(#loc1)
    %c0_i32 = arith.constant 0 : i32 loc(#loc1)
    %cst = arith.constant dense<16> : tensor<32x16xi32> loc(#loc1)
    %cst_0 = arith.constant dense<0.000000e+00> : tensor<32x64xf32> loc(#loc1)
    %cst_1 = arith.constant dense<0.000000e+00> : tensor<16x64xf32> loc(#loc1)
    %cst_2 = arith.constant dense<0.000000e+00> : tensor<32x16xf32> loc(#loc1)
    %c16_i32 = arith.constant 16 : i32 loc(#loc1)
    %c64_i32 = arith.constant 64 : i32 loc(#loc1)
    %c32_i32 = arith.constant 32 : i32 loc(#loc1)
    %c8_i32 = arith.constant 8 : i32 loc(#loc1)
    %0 = tt.get_program_id x : i32 loc(#loc2)
    %1 = arith.addi %arg3, %c31_i32 : i32 loc(#loc71)
    %2 = arith.divsi %1, %c32_i32 : i32 loc(#loc72)
    %3 = arith.addi %arg4, %c63_i32 : i32 loc(#loc73)
    %4 = arith.divsi %3, %c64_i32 : i32 loc(#loc74)
    %5 = arith.muli %4, %c8_i32 : i32 loc(#loc7)
    %6 = arith.divsi %0, %5 : i32 loc(#loc8)
    %7 = arith.muli %6, %c8_i32 : i32 loc(#loc9)
    %8 = arith.subi %2, %7 : i32 loc(#loc10)
    %9 = arith.minsi %8, %c8_i32 : i32 loc(#loc11)
    %10 = arith.remsi %0, %9 : i32 loc(#loc12)
    %11 = arith.addi %7, %10 : i32 loc(#loc13)
    %12 = arith.remsi %0, %5 : i32 loc(#loc14)
    %13 = arith.divsi %12, %9 : i32 loc(#loc15)
    %14 = arith.muli %11, %c32_i32 : i32 loc(#loc16)
    %15 = tt.make_range {end = 32 : i32, start = 0 : i32} : tensor<32xi32> loc(#loc17)
    %16 = tt.splat %14 : i32 -> tensor<32xi32> loc(#loc18)
    %17 = arith.addi %16, %15 : tensor<32xi32> loc(#loc18)
    %18 = tt.splat %arg3 : i32 -> tensor<32xi32> loc(#loc19)
    %19 = arith.remsi %17, %18 : tensor<32xi32> loc(#loc19)
    %20 = arith.muli %13, %c64_i32 : i32 loc(#loc20)
    %21 = tt.make_range {end = 64 : i32, start = 0 : i32} : tensor<64xi32> loc(#loc21)
    %22 = tt.splat %20 : i32 -> tensor<64xi32> loc(#loc22)
    %23 = arith.addi %22, %21 : tensor<64xi32> loc(#loc22)
    %24 = tt.splat %arg4 : i32 -> tensor<64xi32> loc(#loc23)
    %25 = arith.remsi %23, %24 : tensor<64xi32> loc(#loc23)
    %26 = tt.make_range {end = 16 : i32, start = 0 : i32} : tensor<16xi32> loc(#loc24)
    %27 = tt.expand_dims %19 {axis = 1 : i32} : tensor<32xi32> -> tensor<32x1xi32> loc(#loc25)
    %28 = tt.splat %arg6 : i32 -> tensor<32x1xi32> loc(#loc26)
    %29 = arith.muli %27, %28 : tensor<32x1xi32> loc(#loc26)
    %30 = tt.expand_dims %26 {axis = 0 : i32} : tensor<16xi32> -> tensor<1x16xi32> loc(#loc27)
    %31 = tt.broadcast %29 : tensor<32x1xi32> -> tensor<32x16xi32> loc(#loc28)
    %32 = tt.broadcast %30 : tensor<1x16xi32> -> tensor<32x16xi32> loc(#loc28)
    %33 = arith.addi %31, %32 : tensor<32x16xi32> loc(#loc28)
    %34 = tt.splat %arg0 : !tt.ptr<f32> -> tensor<32x16x!tt.ptr<f32>> loc(#loc29)
    %35 = tt.addptr %34, %33 : tensor<32x16x!tt.ptr<f32>>, tensor<32x16xi32> loc(#loc29)
    %36 = tt.expand_dims %26 {axis = 1 : i32} : tensor<16xi32> -> tensor<16x1xi32> loc(#loc30)
    %37 = tt.splat %arg7 : i32 -> tensor<16x1xi32> loc(#loc31)
    %38 = arith.muli %36, %37 : tensor<16x1xi32> loc(#loc31)
    %39 = tt.expand_dims %25 {axis = 0 : i32} : tensor<64xi32> -> tensor<1x64xi32> loc(#loc32)
    %40 = tt.broadcast %38 : tensor<16x1xi32> -> tensor<16x64xi32> loc(#loc33)
    %41 = tt.broadcast %39 : tensor<1x64xi32> -> tensor<16x64xi32> loc(#loc33)
    %42 = arith.addi %40, %41 : tensor<16x64xi32> loc(#loc33)
    %43 = tt.splat %arg1 : !tt.ptr<f32> -> tensor<16x64x!tt.ptr<f32>> loc(#loc34)
    %44 = tt.addptr %43, %42 : tensor<16x64x!tt.ptr<f32>>, tensor<16x64xi32> loc(#loc34)
    %45 = arith.addi %arg5, %c15_i32 : i32 loc(#loc75)
    %46 = arith.divsi %45, %c16_i32 : i32 loc(#loc76)
    %47:3 = scf.for %arg9 = %c0_i32 to %46 step %c1_i32 iter_args(%arg10 = %cst_0, %arg11 = %35, %arg12 = %44) -> (tensor<32x64xf32>, tensor<32x16x!tt.ptr<f32>>, tensor<16x64x!tt.ptr<f32>>)  : i32 {
      %74 = tt.expand_dims %26 {axis = 0 : i32} : tensor<16xi32> -> tensor<1x16xi32> loc(#loc37)
      %75 = arith.muli %arg9, %c16_i32 : i32 loc(#loc38)
      %76 = arith.subi %arg5, %75 : i32 loc(#loc39)
      %77 = tt.splat %76 : i32 -> tensor<1x16xi32> loc(#loc40)
      %78 = arith.cmpi slt, %74, %77 : tensor<1x16xi32> loc(#loc40)
      %79 = tt.broadcast %78 : tensor<1x16xi1> -> tensor<32x16xi1> loc(#loc41)
      %80 = tt.load %arg11, %79, %cst_2 : tensor<32x16x!tt.ptr<f32>> loc(#loc41)
      %81 = tt.expand_dims %26 {axis = 1 : i32} : tensor<16xi32> -> tensor<16x1xi32> loc(#loc42)
      %82 = arith.muli %arg9, %c16_i32 : i32 loc(#loc43)
      %83 = arith.subi %arg5, %82 : i32 loc(#loc44)
      %84 = tt.splat %83 : i32 -> tensor<16x1xi32> loc(#loc45)
      %85 = arith.cmpi slt, %81, %84 : tensor<16x1xi32> loc(#loc45)
      %86 = tt.broadcast %85 : tensor<16x1xi1> -> tensor<16x64xi1> loc(#loc46)
      %87 = tt.load %arg12, %86, %cst_1 : tensor<16x64x!tt.ptr<f32>> loc(#loc46)
      %88 = tt.dot %80, %87, %cst_0, inputPrecision = tf32 : tensor<32x16xf32> * tensor<16x64xf32> -> tensor<32x64xf32> loc(#loc47)
      %89 = arith.addf %arg10, %88 : tensor<32x64xf32> loc(#loc48)
      %90 = tt.addptr %arg11, %cst : tensor<32x16x!tt.ptr<f32>>, tensor<32x16xi32> loc(#loc49)
      %91 = arith.muli %arg7, %c16_i32 : i32 loc(#loc50)
      %92 = tt.splat %91 : i32 -> tensor<16x64xi32> loc(#loc51)
      %93 = tt.addptr %arg12, %92 : tensor<16x64x!tt.ptr<f32>>, tensor<16x64xi32> loc(#loc51)
      scf.yield %89, %90, %93 : tensor<32x64xf32>, tensor<32x16x!tt.ptr<f32>>, tensor<16x64x!tt.ptr<f32>> loc(#loc52)
    } loc(#loc36)
    %48 = arith.muli %11, %c32_i32 : i32 loc(#loc53)
    %49 = tt.make_range {end = 32 : i32, start = 0 : i32} : tensor<32xi32> loc(#loc54)
    %50 = tt.splat %48 : i32 -> tensor<32xi32> loc(#loc55)
    %51 = arith.addi %50, %49 : tensor<32xi32> loc(#loc55)
    %52 = arith.muli %13, %c64_i32 : i32 loc(#loc56)
    %53 = tt.make_range {end = 64 : i32, start = 0 : i32} : tensor<64xi32> loc(#loc57)
    %54 = tt.splat %52 : i32 -> tensor<64xi32> loc(#loc58)
    %55 = arith.addi %54, %53 : tensor<64xi32> loc(#loc58)
    %56 = tt.expand_dims %51 {axis = 1 : i32} : tensor<32xi32> -> tensor<32x1xi32> loc(#loc59)
    %57 = tt.splat %arg8 : i32 -> tensor<32x1xi32> loc(#loc60)
    %58 = arith.muli %57, %56 : tensor<32x1xi32> loc(#loc60)
    %59 = tt.splat %arg2 : !tt.ptr<f32> -> tensor<32x1x!tt.ptr<f32>> loc(#loc61)
    %60 = tt.addptr %59, %58 : tensor<32x1x!tt.ptr<f32>>, tensor<32x1xi32> loc(#loc61)
    %61 = tt.expand_dims %55 {axis = 0 : i32} : tensor<64xi32> -> tensor<1x64xi32> loc(#loc62)
    %62 = tt.broadcast %60 : tensor<32x1x!tt.ptr<f32>> -> tensor<32x64x!tt.ptr<f32>> loc(#loc63)
    %63 = tt.broadcast %61 : tensor<1x64xi32> -> tensor<32x64xi32> loc(#loc63)
    %64 = tt.addptr %62, %63 : tensor<32x64x!tt.ptr<f32>>, tensor<32x64xi32> loc(#loc63)
    %65 = tt.expand_dims %51 {axis = 1 : i32} : tensor<32xi32> -> tensor<32x1xi32> loc(#loc64)
    %66 = tt.splat %arg3 : i32 -> tensor<32x1xi32> loc(#loc65)
    %67 = arith.cmpi slt, %65, %66 : tensor<32x1xi32> loc(#loc65)
    %68 = tt.expand_dims %55 {axis = 0 : i32} : tensor<64xi32> -> tensor<1x64xi32> loc(#loc66)
    %69 = tt.splat %arg4 : i32 -> tensor<1x64xi32> loc(#loc67)
    %70 = arith.cmpi slt, %68, %69 : tensor<1x64xi32> loc(#loc67)
    %71 = tt.broadcast %67 : tensor<32x1xi1> -> tensor<32x64xi1> loc(#loc68)
    %72 = tt.broadcast %70 : tensor<1x64xi1> -> tensor<32x64xi1> loc(#loc68)
    %73 = arith.andi %71, %72 : tensor<32x64xi1> loc(#loc68)
    tt.store %64, %47#0, %73 : tensor<32x64x!tt.ptr<f32>> loc(#loc69)
    tt.return loc(#loc70)
  } loc(#loc)
} loc(#loc)
#loc1 = loc(unknown)
#loc2 = loc("/home/yongqi/external/triton_shared/python/examples/test_matmul.py":60:24)
#loc3 = loc("/home/yongqi/.local/lib/python3.12/site-packages/triton/language/standard.py":44:22)
#loc4 = loc("/home/yongqi/external/triton_shared/python/examples/test_matmul.py":61:27)
#loc5 = loc("/home/yongqi/.local/lib/python3.12/site-packages/triton/language/standard.py":44:28)
#loc6 = loc("/home/yongqi/external/triton_shared/python/examples/test_matmul.py":62:27)
#loc7 = loc("/home/yongqi/external/triton_shared/python/examples/test_matmul.py":63:38)
#loc8 = loc("/home/yongqi/external/triton_shared/python/examples/test_matmul.py":64:22)
#loc9 = loc("/home/yongqi/external/triton_shared/python/examples/test_matmul.py":65:29)
#loc10 = loc("/home/yongqi/external/triton_shared/python/examples/test_matmul.py":66:35)
#loc11 = loc("/home/yongqi/external/triton_shared/python/examples/test_matmul.py":66:48)
#loc12 = loc("/home/yongqi/external/triton_shared/python/examples/test_matmul.py":67:33)
#loc13 = loc("/home/yongqi/external/triton_shared/python/examples/test_matmul.py":67:27)
#loc14 = loc("/home/yongqi/external/triton_shared/python/examples/test_matmul.py":68:19)
#loc15 = loc("/home/yongqi/external/triton_shared/python/examples/test_matmul.py":68:40)
#loc16 = loc("/home/yongqi/external/triton_shared/python/examples/test_matmul.py":77:23)
#loc17 = loc("/home/yongqi/external/triton_shared/python/examples/test_matmul.py":77:51)
#loc18 = loc("/home/yongqi/external/triton_shared/python/examples/test_matmul.py":77:38)
#loc19 = loc("/home/yongqi/external/triton_shared/python/examples/test_matmul.py":77:68)
#loc20 = loc("/home/yongqi/external/triton_shared/python/examples/test_matmul.py":78:23)
#loc21 = loc("/home/yongqi/external/triton_shared/python/examples/test_matmul.py":78:51)
#loc22 = loc("/home/yongqi/external/triton_shared/python/examples/test_matmul.py":78:38)
#loc23 = loc("/home/yongqi/external/triton_shared/python/examples/test_matmul.py":78:68)
#loc24 = loc("/home/yongqi/external/triton_shared/python/examples/test_matmul.py":79:26)
#loc25 = loc("/home/yongqi/external/triton_shared/python/examples/test_matmul.py":80:30)
#loc26 = loc("/home/yongqi/external/triton_shared/python/examples/test_matmul.py":80:41)
#loc27 = loc("/home/yongqi/external/triton_shared/python/examples/test_matmul.py":80:60)
#loc28 = loc("/home/yongqi/external/triton_shared/python/examples/test_matmul.py":80:53)
#loc29 = loc("/home/yongqi/external/triton_shared/python/examples/test_matmul.py":80:22)
#loc30 = loc("/home/yongqi/external/triton_shared/python/examples/test_matmul.py":81:29)
#loc31 = loc("/home/yongqi/external/triton_shared/python/examples/test_matmul.py":81:40)
#loc32 = loc("/home/yongqi/external/triton_shared/python/examples/test_matmul.py":81:60)
#loc33 = loc("/home/yongqi/external/triton_shared/python/examples/test_matmul.py":81:52)
#loc34 = loc("/home/yongqi/external/triton_shared/python/examples/test_matmul.py":81:22)
#loc35 = loc("/home/yongqi/external/triton_shared/python/examples/test_matmul.py":89:33)
#loc36 = loc("/home/yongqi/external/triton_shared/python/examples/test_matmul.py":89:22)
#loc37 = loc("/home/yongqi/external/triton_shared/python/examples/test_matmul.py":92:40)
#loc38 = loc("/home/yongqi/external/triton_shared/python/examples/test_matmul.py":92:59)
#loc39 = loc("/home/yongqi/external/triton_shared/python/examples/test_matmul.py":92:55)
#loc40 = loc("/home/yongqi/external/triton_shared/python/examples/test_matmul.py":92:51)
#loc41 = loc("/home/yongqi/external/triton_shared/python/examples/test_matmul.py":92:20)
#loc42 = loc("/home/yongqi/external/triton_shared/python/examples/test_matmul.py":93:40)
#loc43 = loc("/home/yongqi/external/triton_shared/python/examples/test_matmul.py":93:59)
#loc44 = loc("/home/yongqi/external/triton_shared/python/examples/test_matmul.py":93:55)
#loc45 = loc("/home/yongqi/external/triton_shared/python/examples/test_matmul.py":93:51)
#loc46 = loc("/home/yongqi/external/triton_shared/python/examples/test_matmul.py":93:20)
#loc47 = loc("/home/yongqi/external/triton_shared/python/examples/test_matmul.py":95:33)
#loc48 = loc("/home/yongqi/external/triton_shared/python/examples/test_matmul.py":95:23)
#loc49 = loc("/home/yongqi/external/triton_shared/python/examples/test_matmul.py":97:18)
#loc50 = loc("/home/yongqi/external/triton_shared/python/examples/test_matmul.py":98:33)
#loc51 = loc("/home/yongqi/external/triton_shared/python/examples/test_matmul.py":98:18)
#loc52 = loc("/home/yongqi/external/triton_shared/python/examples/test_matmul.py":98:8)
#loc53 = loc("/home/yongqi/external/triton_shared/python/examples/test_matmul.py":107:22)
#loc54 = loc("/home/yongqi/external/triton_shared/python/examples/test_matmul.py":107:50)
#loc55 = loc("/home/yongqi/external/triton_shared/python/examples/test_matmul.py":107:37)
#loc56 = loc("/home/yongqi/external/triton_shared/python/examples/test_matmul.py":108:22)
#loc57 = loc("/home/yongqi/external/triton_shared/python/examples/test_matmul.py":108:50)
#loc58 = loc("/home/yongqi/external/triton_shared/python/examples/test_matmul.py":108:37)
#loc59 = loc("/home/yongqi/external/triton_shared/python/examples/test_matmul.py":109:41)
#loc60 = loc("/home/yongqi/external/triton_shared/python/examples/test_matmul.py":109:33)
#loc61 = loc("/home/yongqi/external/triton_shared/python/examples/test_matmul.py":109:21)
#loc62 = loc("/home/yongqi/external/triton_shared/python/examples/test_matmul.py":109:72)
#loc63 = loc("/home/yongqi/external/triton_shared/python/examples/test_matmul.py":109:52)
#loc64 = loc("/home/yongqi/external/triton_shared/python/examples/test_matmul.py":110:22)
#loc65 = loc("/home/yongqi/external/triton_shared/python/examples/test_matmul.py":110:33)
#loc66 = loc("/home/yongqi/external/triton_shared/python/examples/test_matmul.py":110:47)
#loc67 = loc("/home/yongqi/external/triton_shared/python/examples/test_matmul.py":110:58)
#loc68 = loc("/home/yongqi/external/triton_shared/python/examples/test_matmul.py":110:39)
#loc69 = loc("/home/yongqi/external/triton_shared/python/examples/test_matmul.py":111:21)
#loc70 = loc("/home/yongqi/external/triton_shared/python/examples/test_matmul.py":111:4)
#loc71 = loc(callsite(#loc3 at #loc4))
#loc72 = loc(callsite(#loc5 at #loc4))
#loc73 = loc(callsite(#loc3 at #loc6))
#loc74 = loc(callsite(#loc5 at #loc6))
#loc75 = loc(callsite(#loc3 at #loc35))
#loc76 = loc(callsite(#loc5 at #loc35))


// -----// IR Dump Before TritonCombineOps (triton-combine) ('builtin.module' operation) //----- //
#loc = loc("/home/yongqi/external/triton_shared/python/examples/test_matmul.py":37:0)
module {
  tt.func public @matmul_kernel(%arg0: !tt.ptr<f32> {tt.divisibility = 16 : i32} loc("/home/yongqi/external/triton_shared/python/examples/test_matmul.py":37:0), %arg1: !tt.ptr<f32> {tt.divisibility = 16 : i32} loc("/home/yongqi/external/triton_shared/python/examples/test_matmul.py":37:0), %arg2: !tt.ptr<f32> {tt.divisibility = 16 : i32} loc("/home/yongqi/external/triton_shared/python/examples/test_matmul.py":37:0), %arg3: i32 loc("/home/yongqi/external/triton_shared/python/examples/test_matmul.py":37:0), %arg4: i32 loc("/home/yongqi/external/triton_shared/python/examples/test_matmul.py":37:0), %arg5: i32 loc("/home/yongqi/external/triton_shared/python/examples/test_matmul.py":37:0), %arg6: i32 loc("/home/yongqi/external/triton_shared/python/examples/test_matmul.py":37:0), %arg7: i32 loc("/home/yongqi/external/triton_shared/python/examples/test_matmul.py":37:0), %arg8: i32 loc("/home/yongqi/external/triton_shared/python/examples/test_matmul.py":37:0)) attributes {noinline = false} {
    %c15_i32 = arith.constant 15 : i32 loc(#loc1)
    %c63_i32 = arith.constant 63 : i32 loc(#loc1)
    %c31_i32 = arith.constant 31 : i32 loc(#loc1)
    %c1_i32 = arith.constant 1 : i32 loc(#loc1)
    %c0_i32 = arith.constant 0 : i32 loc(#loc1)
    %cst = arith.constant dense<16> : tensor<32x16xi32> loc(#loc1)
    %cst_0 = arith.constant dense<0.000000e+00> : tensor<32x64xf32> loc(#loc1)
    %cst_1 = arith.constant dense<0.000000e+00> : tensor<16x64xf32> loc(#loc1)
    %cst_2 = arith.constant dense<0.000000e+00> : tensor<32x16xf32> loc(#loc1)
    %c16_i32 = arith.constant 16 : i32 loc(#loc1)
    %c64_i32 = arith.constant 64 : i32 loc(#loc1)
    %c32_i32 = arith.constant 32 : i32 loc(#loc1)
    %c8_i32 = arith.constant 8 : i32 loc(#loc1)
    %0 = tt.get_program_id x : i32 loc(#loc2)
    %1 = arith.addi %arg3, %c31_i32 : i32 loc(#loc71)
    %2 = arith.divsi %1, %c32_i32 : i32 loc(#loc72)
    %3 = arith.addi %arg4, %c63_i32 : i32 loc(#loc73)
    %4 = arith.divsi %3, %c64_i32 : i32 loc(#loc74)
    %5 = arith.muli %4, %c8_i32 : i32 loc(#loc7)
    %6 = arith.divsi %0, %5 : i32 loc(#loc8)
    %7 = arith.muli %6, %c8_i32 : i32 loc(#loc9)
    %8 = arith.subi %2, %7 : i32 loc(#loc10)
    %9 = arith.minsi %8, %c8_i32 : i32 loc(#loc11)
    %10 = arith.remsi %0, %9 : i32 loc(#loc12)
    %11 = arith.addi %7, %10 : i32 loc(#loc13)
    %12 = arith.remsi %0, %5 : i32 loc(#loc14)
    %13 = arith.divsi %12, %9 : i32 loc(#loc15)
    %14 = arith.muli %11, %c32_i32 : i32 loc(#loc16)
    %15 = tt.make_range {end = 32 : i32, start = 0 : i32} : tensor<32xi32> loc(#loc17)
    %16 = tt.splat %14 : i32 -> tensor<32xi32> loc(#loc18)
    %17 = arith.addi %16, %15 : tensor<32xi32> loc(#loc18)
    %18 = tt.splat %arg3 : i32 -> tensor<32xi32> loc(#loc19)
    %19 = arith.remsi %17, %18 : tensor<32xi32> loc(#loc19)
    %20 = arith.muli %13, %c64_i32 : i32 loc(#loc20)
    %21 = tt.make_range {end = 64 : i32, start = 0 : i32} : tensor<64xi32> loc(#loc21)
    %22 = tt.splat %20 : i32 -> tensor<64xi32> loc(#loc22)
    %23 = arith.addi %22, %21 : tensor<64xi32> loc(#loc22)
    %24 = tt.splat %arg4 : i32 -> tensor<64xi32> loc(#loc23)
    %25 = arith.remsi %23, %24 : tensor<64xi32> loc(#loc23)
    %26 = tt.make_range {end = 16 : i32, start = 0 : i32} : tensor<16xi32> loc(#loc24)
…
    %674 = llvm.getelementptr %666[%236] : (!llvm.ptr<1>, i32) -> !llvm.ptr<1>, f32 loc(#loc39)
    %675 = llvm.getelementptr %667[%236] : (!llvm.ptr<1>, i32) -> !llvm.ptr<1>, f32 loc(#loc39)
    %676 = llvm.getelementptr %668[%236] : (!llvm.ptr<1>, i32) -> !llvm.ptr<1>, f32 loc(#loc39)
    %677 = llvm.getelementptr %669[%236] : (!llvm.ptr<1>, i32) -> !llvm.ptr<1>, f32 loc(#loc39)
    %678 = llvm.getelementptr %670[%236] : (!llvm.ptr<1>, i32) -> !llvm.ptr<1>, f32 loc(#loc39)
    %679 = llvm.getelementptr %671[%236] : (!llvm.ptr<1>, i32) -> !llvm.ptr<1>, f32 loc(#loc39)
    %680 = llvm.getelementptr %672[%236] : (!llvm.ptr<1>, i32) -> !llvm.ptr<1>, f32 loc(#loc39)
    %681 = llvm.insertvalue %673, %403[0] : !llvm.struct<(ptr<1>, ptr<1>, ptr<1>, ptr<1>, ptr<1>, ptr<1>, ptr<1>, ptr<1>)>  loc(#loc39)
    %682 = llvm.insertvalue %674, %681[1] : !llvm.struct<(ptr<1>, ptr<1>, ptr<1>, ptr<1>, ptr<1>, ptr<1>, ptr<1>, ptr<1>)>  loc(#loc39)
    %683 = llvm.insertvalue %675, %682[2] : !llvm.struct<(ptr<1>, ptr<1>, ptr<1>, ptr<1>, ptr<1>, ptr<1>, ptr<1>, ptr<1>)>  loc(#loc39)
    %684 = llvm.insertvalue %676, %683[3] : !llvm.struct<(ptr<1>, ptr<1>, ptr<1>, ptr<1>, ptr<1>, ptr<1>, ptr<1>, ptr<1>)>  loc(#loc39)
    %685 = llvm.insertvalue %677, %684[4] : !llvm.struct<(ptr<1>, ptr<1>, ptr<1>, ptr<1>, ptr<1>, ptr<1>, ptr<1>, ptr<1>)>  loc(#loc39)
    %686 = llvm.insertvalue %678, %685[5] : !llvm.struct<(ptr<1>, ptr<1>, ptr<1>, ptr<1>, ptr<1>, ptr<1>, ptr<1>, ptr<1>)>  loc(#loc39)
    %687 = llvm.insertvalue %679, %686[6] : !llvm.struct<(ptr<1>, ptr<1>, ptr<1>, ptr<1>, ptr<1>, ptr<1>, ptr<1>, ptr<1>)>  loc(#loc39)
    %688 = llvm.insertvalue %680, %687[7] : !llvm.struct<(ptr<1>, ptr<1>, ptr<1>, ptr<1>, ptr<1>, ptr<1>, ptr<1>, ptr<1>)>  loc(#loc39)
    %689 = llvm.add %545, %22 : i32 loc(#loc35)
    %690 = llvm.icmp "slt" %689, %31 : i32 loc(#loc35)
    %691 = llvm.select %690, %689, %21 : i1, i32 loc(#loc35)
    %692 = llvm.add %541, %31 : i32 loc(#loc35)
    %693 = llvm.mul %692, %26 : i32 loc(#loc41)
    %694 = llvm.sub %arg5, %693 : i32 loc(#loc40)
    %695 = llvm.icmp "slt" %208, %694 : i32 loc(#loc36)
    %696 = llvm.mul %691, %3 : i32 loc(#loc37)
    %697 = llvm.add %696, %21 : i32 loc(#loc37)
    %698 = llvm.add %697, %242 : i32 loc(#loc37)
    %699 = llvm.add %698, %244 : i32 loc(#loc37)
    %700 = llvm.getelementptr %4[%699] : (!llvm.ptr<3>, i32) -> !llvm.ptr<3>, f32 loc(#loc37)
    %701 = llvm.and %553, %695  : i1 loc(#loc35)
    nvvm.barrier0 loc(#loc37)
    %702 = llvm.getelementptr %700[%255] : (!llvm.ptr<3>, i32) -> !llvm.ptr<3>, f32 loc(#loc37)
    %703 = llvm.getelementptr %702[%269] : (!llvm.ptr<3>, i32) -> !llvm.ptr<3>, f32 loc(#loc37)
    %704 = llvm.getelementptr %703[%254] : (!llvm.ptr<3>, i32) -> !llvm.ptr<3>, f32 loc(#loc37)
    %705 = llvm.getelementptr %702[%280] : (!llvm.ptr<3>, i32) -> !llvm.ptr<3>, f32 loc(#loc37)
    %706 = llvm.getelementptr %705[%254] : (!llvm.ptr<3>, i32) -> !llvm.ptr<3>, f32 loc(#loc37)
    %707 = llvm.getelementptr %702[%291] : (!llvm.ptr<3>, i32) -> !llvm.ptr<3>, f32 loc(#loc37)
    %708 = llvm.getelementptr %707[%254] : (!llvm.ptr<3>, i32) -> !llvm.ptr<3>, f32 loc(#loc37)
    %709 = llvm.getelementptr %702[%302] : (!llvm.ptr<3>, i32) -> !llvm.ptr<3>, f32 loc(#loc37)
    %710 = llvm.getelementptr %709[%254] : (!llvm.ptr<3>, i32) -> !llvm.ptr<3>, f32 loc(#loc37)
    %711 = llvm.select %701, %19, %21 : i1, i32 loc(#loc37)
    %712 = llvm.inline_asm has_side_effects asm_dialect = att operand_attrs = [] "@$3 cp.async.ca.shared.global [ $0 + 0 ], [ $1 + 0 ], 0x4, $2;", "r,l,r,b" %704, %657, %711, %1 : (!llvm.ptr<3>, !llvm.ptr<1>, i32, i1) -> !llvm.void loc(#loc37)
    %713 = llvm.inline_asm has_side_effects asm_dialect = att operand_attrs = [] "@$3 cp.async.ca.shared.global [ $0 + 0 ], [ $1 + 0 ], 0x4, $2;", "r,l,r,b" %706, %658, %711, %1 : (!llvm.ptr<3>, !llvm.ptr<1>, i32, i1) -> !llvm.void loc(#loc37)
    %714 = llvm.inline_asm has_side_effects asm_dialect = att operand_attrs = [] "@$3 cp.async.ca.shared.global [ $0 + 0 ], [ $1 + 0 ], 0x4, $2;", "r,l,r,b" %708, %659, %711, %1 : (!llvm.ptr<3>, !llvm.ptr<1>, i32, i1) -> !llvm.void loc(#loc37)
    %715 = llvm.inline_asm has_side_effects asm_dialect = att operand_attrs = [] "@$3 cp.async.ca.shared.global [ $0 + 0 ], [ $1 + 0 ], 0x4, $2;", "r,l,r,b" %710, %660, %711, %1 : (!llvm.ptr<3>, !llvm.ptr<1>, i32, i1) -> !llvm.void loc(#loc37)
    %716 = llvm.inline_asm has_side_effects asm_dialect = att operand_attrs = [] "cp.async.commit_group ;", ""  : () -> !llvm.void loc(#loc37)
    %717 = llvm.mul %691, %2 : i32 loc(#loc34)
    %718 = llvm.add %717, %21 : i32 loc(#loc34)
    %719 = llvm.add %718, %244 : i32 loc(#loc34)
    %720 = llvm.add %719, %242 : i32 loc(#loc34)
    %721 = llvm.getelementptr %237[%720] : (!llvm.ptr<3>, i32) -> !llvm.ptr<3>, f32 loc(#loc34)
    %722 = llvm.getelementptr %721[%322] : (!llvm.ptr<3>, i32) -> !llvm.ptr<3>, f32 loc(#loc34)
    %723 = llvm.getelementptr %722[%269] : (!llvm.ptr<3>, i32) -> !llvm.ptr<3>, f32 loc(#loc34)
    %724 = llvm.getelementptr %723[%254] : (!llvm.ptr<3>, i32) -> !llvm.ptr<3>, f32 loc(#loc34)
    %725 = llvm.getelementptr %722[%280] : (!llvm.ptr<3>, i32) -> !llvm.ptr<3>, f32 loc(#loc34)
    %726 = llvm.getelementptr %725[%254] : (!llvm.ptr<3>, i32) -> !llvm.ptr<3>, f32 loc(#loc34)
    %727 = llvm.getelementptr %722[%291] : (!llvm.ptr<3>, i32) -> !llvm.ptr<3>, f32 loc(#loc34)
    %728 = llvm.getelementptr %727[%254] : (!llvm.ptr<3>, i32) -> !llvm.ptr<3>, f32 loc(#loc34)
    %729 = llvm.getelementptr %722[%302] : (!llvm.ptr<3>, i32) -> !llvm.ptr<3>, f32 loc(#loc34)
    %730 = llvm.getelementptr %729[%254] : (!llvm.ptr<3>, i32) -> !llvm.ptr<3>, f32 loc(#loc34)
    %731 = llvm.getelementptr %722[%340] : (!llvm.ptr<3>, i32) -> !llvm.ptr<3>, f32 loc(#loc34)
    %732 = llvm.getelementptr %731[%254] : (!llvm.ptr<3>, i32) -> !llvm.ptr<3>, f32 loc(#loc34)
    %733 = llvm.getelementptr %722[%351] : (!llvm.ptr<3>, i32) -> !llvm.ptr<3>, f32 loc(#loc34)
    %734 = llvm.getelementptr %733[%254] : (!llvm.ptr<3>, i32) -> !llvm.ptr<3>, f32 loc(#loc34)
    %735 = llvm.getelementptr %722[%362] : (!llvm.ptr<3>, i32) -> !llvm.ptr<3>, f32 loc(#loc34)
    %736 = llvm.getelementptr %735[%254] : (!llvm.ptr<3>, i32) -> !llvm.ptr<3>, f32 loc(#loc34)
    %737 = llvm.getelementptr %722[%373] : (!llvm.ptr<3>, i32) -> !llvm.ptr<3>, f32 loc(#loc34)
    %738 = llvm.getelementptr %737[%254] : (!llvm.ptr<3>, i32) -> !llvm.ptr<3>, f32 loc(#loc34)
    %739 = llvm.inline_asm has_side_effects asm_dialect = att operand_attrs = [] "@$3 cp.async.ca.shared.global [ $0 + 0 ], [ $1 + 0 ], 0x4, $2;", "r,l,r,b" %724, %673, %711, %1 : (!llvm.ptr<3>, !llvm.ptr<1>, i32, i1) -> !llvm.void loc(#loc34)
    %740 = llvm.inline_asm has_side_effects asm_dialect = att operand_attrs = [] "@$3 cp.async.ca.shared.global [ $0 + 0 ], [ $1 + 0 ], 0x4, $2;", "r,l,r,b" %726, %674, %711, %1 : (!llvm.ptr<3>, !llvm.ptr<1>, i32, i1) -> !llvm.void loc(#loc34)
    %741 = llvm.inline_asm has_side_effects asm_dialect = att operand_attrs = [] "@$3 cp.async.ca.shared.global [ $0 + 0 ], [ $1 + 0 ], 0x4, $2;", "r,l,r,b" %728, %675, %711, %1 : (!llvm.ptr<3>, !llvm.ptr<1>, i32, i1) -> !llvm.void loc(#loc34)
    %742 = llvm.inline_asm has_side_effects asm_dialect = att operand_attrs = [] "@$3 cp.async.ca.shared.global [ $0 + 0 ], [ $1 + 0 ], 0x4, $2;", "r,l,r,b" %730, %676, %711, %1 : (!llvm.ptr<3>, !llvm.ptr<1>, i32, i1) -> !llvm.void loc(#loc34)
    %743 = llvm.inline_asm has_side_effects asm_dialect = att operand_attrs = [] "@$3 cp.async.ca.shared.global [ $0 + 0 ], [ $1 + 0 ], 0x4, $2;", "r,l,r,b" %732, %677, %711, %1 : (!llvm.ptr<3>, !llvm.ptr<1>, i32, i1) -> !llvm.void loc(#loc34)
    %744 = llvm.inline_asm has_side_effects asm_dialect = att operand_attrs = [] "@$3 cp.async.ca.shared.global [ $0 + 0 ], [ $1 + 0 ], 0x4, $2;", "r,l,r,b" %734, %678, %711, %1 : (!llvm.ptr<3>, !llvm.ptr<1>, i32, i1) -> !llvm.void loc(#loc34)
    %745 = llvm.inline_asm has_side_effects asm_dialect = att operand_attrs = [] "@$3 cp.async.ca.shared.global [ $0 + 0 ], [ $1 + 0 ], 0x4, $2;", "r,l,r,b" %736, %679, %711, %1 : (!llvm.ptr<3>, !llvm.ptr<1>, i32, i1) -> !llvm.void loc(#loc34)
    %746 = llvm.inline_asm has_side_effects asm_dialect = att operand_attrs = [] "@$3 cp.async.ca.shared.global [ $0 + 0 ], [ $1 + 0 ], 0x4, $2;", "r,l,r,b" %738, %680, %711, %1 : (!llvm.ptr<3>, !llvm.ptr<1>, i32, i1) -> !llvm.void loc(#loc34)
    %747 = llvm.inline_asm has_side_effects asm_dialect = att operand_attrs = [] "cp.async.commit_group ;", ""  : () -> !llvm.void loc(#loc34)
    %748 = llvm.add %546, %22 : i32 loc(#loc35)
    %749 = llvm.icmp "slt" %748, %31 : i32 loc(#loc35)
    %750 = llvm.select %749, %748, %21 : i1, i32 loc(#loc35)
    %751 = llvm.mul %750, %3 : i32 loc(#loc37)
    %752 = llvm.add %751, %21 : i32 loc(#loc37)
    %753 = llvm.add %752, %242 : i32 loc(#loc37)
    %754 = llvm.add %753, %244 : i32 loc(#loc37)
    %755 = llvm.getelementptr %4[%754] : (!llvm.ptr<3>, i32) -> !llvm.ptr<3>, f32 loc(#loc37)
    %756 = llvm.insertvalue %755, %247[0] : !llvm.struct<(ptr<3>, i32, i32, i32, i32)>  loc(#loc37)
    %757 = llvm.insertvalue %26, %756[1] : !llvm.struct<(ptr<3>, i32, i32, i32, i32)>  loc(#loc37)
    %758 = llvm.insertvalue %22, %757[2] : !llvm.struct<(ptr<3>, i32, i32, i32, i32)>  loc(#loc37)
    %759 = llvm.insertvalue %21, %758[3] : !llvm.struct<(ptr<3>, i32, i32, i32, i32)>  loc(#loc37)
    %760 = llvm.insertvalue %21, %759[4] : !llvm.struct<(ptr<3>, i32, i32, i32, i32)>  loc(#loc37)
    %761 = llvm.inline_asm has_side_effects asm_dialect = att operand_attrs = [] "cp.async.wait_group 0x2;", ""  : () -> !llvm.void loc(#loc37)
    nvvm.barrier0 loc(#loc37)
    %762 = llvm.mul %750, %2 : i32 loc(#loc34)
    %763 = llvm.add %762, %21 : i32 loc(#loc34)
    %764 = llvm.add %763, %244 : i32 loc(#loc34)
    %765 = llvm.add %764, %242 : i32 loc(#loc34)
    %766 = llvm.getelementptr %237[%765] : (!llvm.ptr<3>, i32) -> !llvm.ptr<3>, f32 loc(#loc34)
    %767 = llvm.insertvalue %766, %247[0] : !llvm.struct<(ptr<3>, i32, i32, i32, i32)>  loc(#loc34)
    %768 = llvm.insertvalue %22, %767[1] : !llvm.struct<(ptr<3>, i32, i32, i32, i32)>  loc(#loc34)
    %769 = llvm.insertvalue %26, %768[2] : !llvm.struct<(ptr<3>, i32, i32, i32, i32)>  loc(#loc34)
    %770 = llvm.insertvalue %21, %769[3] : !llvm.struct<(ptr<3>, i32, i32, i32, i32)>  loc(#loc34)
    %771 = llvm.insertvalue %21, %770[4] : !llvm.struct<(ptr<3>, i32, i32, i32, i32)>  loc(#loc34)
    %772 = llvm.getelementptr %755[%255] : (!llvm.ptr<3>, i32) -> !llvm.ptr<3>, f32 loc(#loc37)
    %773 = llvm.getelementptr %772[%489] : (!llvm.ptr<3>, i32) -> !llvm.ptr<3>, f32 loc(#loc37)
    %774 = llvm.getelementptr %773[%488] : (!llvm.ptr<3>, i32) -> !llvm.ptr<3>, f32 loc(#loc37)
    %775 = llvm.getelementptr %774[%242] : (!llvm.ptr<3>, i32) -> !llvm.ptr<3>, f32 loc(#loc37)
    %776 = llvm.inline_asm has_side_effects asm_dialect = att operand_attrs = [] "ldmatrix.sync.aligned.m8n8.x4.shared.b16 { $0, $1, $2, $3 }, [ $4 + 0 ];", "=r,=r,=r,=r,r" %775 : (!llvm.ptr<3>) -> !llvm.struct<(i32, i32, i32, i32)> loc(#loc37)
    %777 = llvm.extractvalue %776[0] : !llvm.struct<(i32, i32, i32, i32)>  loc(#loc37)
    %778 = llvm.extractvalue %776[1] : !llvm.struct<(i32, i32, i32, i32)>  loc(#loc37)
    %779 = llvm.extractvalue %776[2] : !llvm.struct<(i32, i32, i32, i32)>  loc(#loc37)
    %780 = llvm.extractvalue %776[3] : !llvm.struct<(i32, i32, i32, i32)>  loc(#loc37)
    %781 = llvm.insertvalue %777, %498[0] : !llvm.struct<(i32, i32, i32, i32)>  loc(#loc37)
    %782 = llvm.insertvalue %779, %781[1] : !llvm.struct<(i32, i32, i32, i32)>  loc(#loc37)
    %783 = llvm.insertvalue %778, %782[2] : !llvm.struct<(i32, i32, i32, i32)>  loc(#loc37)
    %784 = llvm.insertvalue %780, %783[3] : !llvm.struct<(i32, i32, i32, i32)>  loc(#loc37)
    %785 = llvm.getelementptr %766[%322] : (!llvm.ptr<3>, i32) -> !llvm.ptr<3>, f32 loc(#loc34)
    %786 = llvm.getelementptr %785[%489] : (!llvm.ptr<3>, i32) -> !llvm.ptr<3>, f32 loc(#loc34)
    %787 = llvm.getelementptr %786[%516] : (!llvm.ptr<3>, i32) -> !llvm.ptr<3>, f32 loc(#loc34)
    %788 = llvm.getelementptr %787[%242] : (!llvm.ptr<3>, i32) -> !llvm.ptr<3>, f32 loc(#loc34)
    %789 = llvm.inline_asm has_side_effects asm_dialect = att operand_attrs = [] "ldmatrix.sync.aligned.m8n8.x4.shared.b16 { $0, $1, $2, $3 }, [ $4 + 0 ];", "=r,=r,=r,=r,r" %788 : (!llvm.ptr<3>) -> !llvm.struct<(i32, i32, i32, i32)> loc(#loc34)
    %790 = llvm.extractvalue %789[0] : !llvm.struct<(i32, i32, i32, i32)>  loc(#loc34)
    %791 = llvm.extractvalue %789[1] : !llvm.struct<(i32, i32, i32, i32)>  loc(#loc34)
    %792 = llvm.extractvalue %789[2] : !llvm.struct<(i32, i32, i32, i32)>  loc(#loc34)
    %793 = llvm.extractvalue %789[3] : !llvm.struct<(i32, i32, i32, i32)>  loc(#loc34)
    %794 = llvm.getelementptr %787[%525] : (!llvm.ptr<3>, i32) -> !llvm.ptr<3>, f32 loc(#loc34)
    %795 = llvm.inline_asm has_side_effects asm_dialect = att operand_attrs = [] "ldmatrix.sync.aligned.m8n8.x4.shared.b16 { $0, $1, $2, $3 }, [ $4 + 0 ];", "=r,=r,=r,=r,r" %794 : (!llvm.ptr<3>) -> !llvm.struct<(i32, i32, i32, i32)> loc(#loc34)
    %796 = llvm.extractvalue %795[0] : !llvm.struct<(i32, i32, i32, i32)>  loc(#loc34)
    %797 = llvm.extractvalue %795[1] : !llvm.struct<(i32, i32, i32, i32)>  loc(#loc34)
    %798 = llvm.extractvalue %795[2] : !llvm.struct<(i32, i32, i32, i32)>  loc(#loc34)
    %799 = llvm.extractvalue %795[3] : !llvm.struct<(i32, i32, i32, i32)>  loc(#loc34)
    %800 = llvm.insertvalue %790, %532[0] : !llvm.struct<(i32, i32, i32, i32, i32, i32, i32, i32)>  loc(#loc34)
    %801 = llvm.insertvalue %791, %800[1] : !llvm.struct<(i32, i32, i32, i32, i32, i32, i32, i32)>  loc(#loc34)
    %802 = llvm.insertvalue %792, %801[2] : !llvm.struct<(i32, i32, i32, i32, i32, i32, i32, i32)>  loc(#loc34)
    %803 = llvm.insertvalue %793, %802[3] : !llvm.struct<(i32, i32, i32, i32, i32, i32, i32, i32)>  loc(#loc34)
    %804 = llvm.insertvalue %796, %803[4] : !llvm.struct<(i32, i32, i32, i32, i32, i32, i32, i32)>  loc(#loc34)
    %805 = llvm.insertvalue %797, %804[5] : !llvm.struct<(i32, i32, i32, i32, i32, i32, i32, i32)>  loc(#loc34)
    %806 = llvm.insertvalue %798, %805[6] : !llvm.struct<(i32, i32, i32, i32, i32, i32, i32, i32)>  loc(#loc34)
    %807 = llvm.insertvalue %799, %806[7] : !llvm.struct<(i32, i32, i32, i32, i32, i32, i32, i32)>  loc(#loc34)
    %808 = llvm.inline_asm has_side_effects asm_dialect = att operand_attrs = [] "mma.sync.aligned.m16n8k8.row.col.f32.tf32.tf32.f32 { $0, $1, $2, $3 }, { $8, $9, $10, $11 }, { $12, $13 }, { $4, $5, $6, $7 };", "=f,=f,=f,=f,0,1,2,3,r,r,r,r,r,r" %634, %635, %636, %637, %573, %574, %575, %576, %594, %595 : (f32, f32, f32, f32, i32, i32, i32, i32, i32, i32) -> !llvm.struct<(f32, f32, f32, f32)> loc(#loc2)
    %809 = llvm.extractvalue %808[0] : !llvm.struct<(f32, f32, f32, f32)>  loc(#loc2)
    %810 = llvm.extractvalue %808[1] : !llvm.struct<(f32, f32, f32, f32)>  loc(#loc2)
    %811 = llvm.extractvalue %808[2] : !llvm.struct<(f32, f32, f32, f32)>  loc(#loc2)
    %812 = llvm.extractvalue %808[3] : !llvm.struct<(f32, f32, f32, f32)>  loc(#loc2)
    %813 = llvm.inline_asm has_side_effects asm_dialect = att operand_attrs = [] "mma.sync.aligned.m16n8k8.row.col.f32.tf32.tf32.f32 { $0, $1, $2, $3 }, { $8, $9, $10, $11 }, { $12, $13 }, { $4, $5, $6, $7 };", "=f,=f,=f,=f,0,1,2,3,r,r,r,r,r,r" %639, %640, %641, %642, %573, %574, %575, %576, %596, %597 : (f32, f32, f32, f32, i32, i32, i32, i32, i32, i32) -> !llvm.struct<(f32, f32, f32, f32)> loc(#loc2)
    %814 = llvm.extractvalue %813[0] : !llvm.struct<(f32, f32, f32, f32)>  loc(#loc2)
    %815 = llvm.extractvalue %813[1] : !llvm.struct<(f32, f32, f32, f32)>  loc(#loc2)
    %816 = llvm.extractvalue %813[2] : !llvm.struct<(f32, f32, f32, f32)>  loc(#loc2)
    %817 = llvm.extractvalue %813[3] : !llvm.struct<(f32, f32, f32, f32)>  loc(#loc2)
    %818 = llvm.inline_asm has_side_effects asm_dialect = att operand_attrs = [] "mma.sync.aligned.m16n8k8.row.col.f32.tf32.tf32.f32 { $0, $1, $2, $3 }, { $8, $9, $10, $11 }, { $12, $13 }, { $4, $5, $6, $7 };", "=f,=f,=f,=f,0,1,2,3,r,r,r,r,r,r" %644, %645, %646, %647, %573, %574, %575, %576, %601, %602 : (f32, f32, f32, f32, i32, i32, i32, i32, i32, i32) -> !llvm.struct<(f32, f32, f32, f32)> loc(#loc2)
    %819 = llvm.extractvalue %818[0] : !llvm.struct<(f32, f32, f32, f32)>  loc(#loc2)
    %820 = llvm.extractvalue %818[1] : !llvm.struct<(f32, f32, f32, f32)>  loc(#loc2)
    %821 = llvm.extractvalue %818[2] : !llvm.struct<(f32, f32, f32, f32)>  loc(#loc2)
    %822 = llvm.extractvalue %818[3] : !llvm.struct<(f32, f32, f32, f32)>  loc(#loc2)
    %823 = llvm.inline_asm has_side_effects asm_dialect = att operand_attrs = [] "mma.sync.aligned.m16n8k8.row.col.f32.tf32.tf32.f32 { $0, $1, $2, $3 }, { $8, $9, $10, $11 }, { $12, $13 }, { $4, $5, $6, $7 };", "=f,=f,=f,=f,0,1,2,3,r,r,r,r,r,r" %649, %650, %651, %652, %573, %574, %575, %576, %603, %604 : (f32, f32, f32, f32, i32, i32, i32, i32, i32, i32) -> !llvm.struct<(f32, f32, f32, f32)> loc(#loc2)
    %824 = llvm.extractvalue %823[0] : !llvm.struct<(f32, f32, f32, f32)>  loc(#loc2)
    %825 = llvm.extractvalue %823[1] : !llvm.struct<(f32, f32, f32, f32)>  loc(#loc2)
    %826 = llvm.extractvalue %823[2] : !llvm.struct<(f32, f32, f32, f32)>  loc(#loc2)
    %827 = llvm.extractvalue %823[3] : !llvm.struct<(f32, f32, f32, f32)>  loc(#loc2)
    %828 = llvm.insertvalue %809, %32[0] : !llvm.struct<(f32, f32, f32, f32, f32, f32, f32, f32, f32, f32, f32, f32, f32, f32, f32, f32)>  loc(#loc2)
    %829 = llvm.insertvalue %810, %828[1] : !llvm.struct<(f32, f32, f32, f32, f32, f32, f32, f32, f32, f32, f32, f32, f32, f32, f32, f32)>  loc(#loc2)
    %830 = llvm.insertvalue %811, %829[2] : !llvm.struct<(f32, f32, f32, f32, f32, f32, f32, f32, f32, f32, f32, f32, f32, f32, f32, f32)>  loc(#loc2)
    %831 = llvm.insertvalue %812, %830[3] : !llvm.struct<(f32, f32, f32, f32, f32, f32, f32, f32, f32, f32, f32, f32, f32, f32, f32, f32)>  loc(#loc2)
    %832 = llvm.insertvalue %814, %831[4] : !llvm.struct<(f32, f32, f32, f32, f32, f32, f32, f32, f32, f32, f32, f32, f32, f32, f32, f32)>  loc(#loc2)
    %833 = llvm.insertvalue %815, %832[5] : !llvm.struct<(f32, f32, f32, f32, f32, f32, f32, f32, f32, f32, f32, f32, f32, f32, f32, f32)>  loc(#loc2)
    %834 = llvm.insertvalue %816, %833[6] : !llvm.struct<(f32, f32, f32, f32, f32, f32, f32, f32, f32, f32, f32, f32, f32, f32, f32, f32)>  loc(#loc2)
    %835 = llvm.insertvalue %817, %834[7] : !llvm.struct<(f32, f32, f32, f32, f32, f32, f32, f32, f32, f32, f32, f32, f32, f32, f32, f32)>  loc(#loc2)
    %836 = llvm.insertvalue %819, %835[8] : !llvm.struct<(f32, f32, f32, f32, f32, f32, f32, f32, f32, f32, f32, f32, f32, f32, f32, f32)>  loc(#loc2)
    %837 = llvm.insertvalue %820, %836[9] : !llvm.struct<(f32, f32, f32, f32, f32, f32, f32, f32, f32, f32, f32, f32, f32, f32, f32, f32)>  loc(#loc2)
    %838 = llvm.insertvalue %821, %837[10] : !llvm.struct<(f32, f32, f32, f32, f32, f32, f32, f32, f32, f32, f32, f32, f32, f32, f32, f32)>  loc(#loc2)
    %839 = llvm.insertvalue %822, %838[11] : !llvm.struct<(f32, f32, f32, f32, f32, f32, f32, f32, f32, f32, f32, f32, f32, f32, f32, f32)>  loc(#loc2)
    %840 = llvm.insertvalue %824, %839[12] : !llvm.struct<(f32, f32, f32, f32, f32, f32, f32, f32, f32, f32, f32, f32, f32, f32, f32, f32)>  loc(#loc2)
    %841 = llvm.insertvalue %825, %840[13] : !llvm.struct<(f32, f32, f32, f32, f32, f32, f32, f32, f32, f32, f32, f32, f32, f32, f32, f32)>  loc(#loc2)
    %842 = llvm.insertvalue %826, %841[14] : !llvm.struct<(f32, f32, f32, f32, f32, f32, f32, f32, f32, f32, f32, f32, f32, f32, f32, f32)>  loc(#loc2)
    %843 = llvm.insertvalue %827, %842[15] : !llvm.struct<(f32, f32, f32, f32, f32, f32, f32, f32, f32, f32, f32, f32, f32, f32, f32, f32)>  loc(#loc2)
    %844 = llvm.add %541, %22 : i32 loc(#loc35)
    llvm.br ^bb1(%844, %843, %664, %688, %691, %750, %760, %771, %784, %807 : i32, !llvm.struct<(f32, f32, f32, f32, f32, f32, f32, f32, f32, f32, f32, f32, f32, f32, f32, f32)>, !llvm.struct<(ptr<1>, ptr<1>, ptr<1>, ptr<1>)>, !llvm.struct<(ptr<1>, ptr<1>, ptr<1>, ptr<1>, ptr<1>, ptr<1>, ptr<1>, ptr<1>)>, i32, i32, !llvm.struct<(ptr<3>, i32, i32, i32, i32)>, !llvm.struct<(ptr<3>, i32, i32, i32, i32)>, !llvm.struct<(i32, i32, i32, i32)>, !llvm.struct<(i32, i32, i32, i32, i32, i32, i32, i32)>) loc(#loc35)
  ^bb3:  // pred: ^bb1
    %845 = llvm.inline_asm has_side_effects asm_dialect = att operand_attrs = [] "cp.async.wait_group 0x0;", ""  : () -> !llvm.void loc(#loc35)
    nvvm.barrier0 loc(#loc35)
    %846 = llvm.mul %arg8, %129 : i32 loc(#loc42)
    %847 = llvm.mul %arg8, %130 : i32 loc(#loc42)
    %848 = llvm.mul %arg8, %131 : i32 loc(#loc42)
    %849 = llvm.mul %arg8, %132 : i32 loc(#loc42)
    %850 = llvm.mul %arg8, %133 : i32 loc(#loc42)
    %851 = llvm.mul %arg8, %134 : i32 loc(#loc42)
    %852 = llvm.mul %arg8, %135 : i32 loc(#loc42)
    %853 = llvm.mul %arg8, %136 : i32 loc(#loc42)
    %854 = llvm.mul %arg8, %137 : i32 loc(#loc42)
    %855 = llvm.mul %arg8, %138 : i32 loc(#loc42)
    %856 = llvm.mul %arg8, %139 : i32 loc(#loc42)
    %857 = llvm.mul %arg8, %140 : i32 loc(#loc42)
    %858 = llvm.mul %arg8, %141 : i32 loc(#loc42)
    %859 = llvm.mul %arg8, %142 : i32 loc(#loc42)
    %860 = llvm.mul %arg8, %143 : i32 loc(#loc42)
    %861 = llvm.mul %arg8, %144 : i32 loc(#loc42)
    %862 = llvm.getelementptr %arg2[%846] : (!llvm.ptr<1>, i32) -> !llvm.ptr<1>, f32 loc(#loc43)
    %863 = llvm.getelementptr %arg2[%847] : (!llvm.ptr<1>, i32) -> !llvm.ptr<1>, f32 loc(#loc43)
    %864 = llvm.getelementptr %arg2[%848] : (!llvm.ptr<1>, i32) -> !llvm.ptr<1>, f32 loc(#loc43)
    %865 = llvm.getelementptr %arg2[%849] : (!llvm.ptr<1>, i32) -> !llvm.ptr<1>, f32 loc(#loc43)
    %866 = llvm.getelementptr %arg2[%850] : (!llvm.ptr<1>, i32) -> !llvm.ptr<1>, f32 loc(#loc43)
    %867 = llvm.getelementptr %arg2[%851] : (!llvm.ptr<1>, i32) -> !llvm.ptr<1>, f32 loc(#loc43)
    %868 = llvm.getelementptr %arg2[%852] : (!llvm.ptr<1>, i32) -> !llvm.ptr<1>, f32 loc(#loc43)
    %869 = llvm.getelementptr %arg2[%853] : (!llvm.ptr<1>, i32) -> !llvm.ptr<1>, f32 loc(#loc43)
    %870 = llvm.getelementptr %arg2[%854] : (!llvm.ptr<1>, i32) -> !llvm.ptr<1>, f32 loc(#loc43)
    %871 = llvm.getelementptr %arg2[%855] : (!llvm.ptr<1>, i32) -> !llvm.ptr<1>, f32 loc(#loc43)
    %872 = llvm.getelementptr %arg2[%856] : (!llvm.ptr<1>, i32) -> !llvm.ptr<1>, f32 loc(#loc43)
    %873 = llvm.getelementptr %arg2[%857] : (!llvm.ptr<1>, i32) -> !llvm.ptr<1>, f32 loc(#loc43)
    %874 = llvm.getelementptr %arg2[%858] : (!llvm.ptr<1>, i32) -> !llvm.ptr<1>, f32 loc(#loc43)
    %875 = llvm.getelementptr %arg2[%859] : (!llvm.ptr<1>, i32) -> !llvm.ptr<1>, f32 loc(#loc43)
    %876 = llvm.getelementptr %arg2[%860] : (!llvm.ptr<1>, i32) -> !llvm.ptr<1>, f32 loc(#loc43)
    %877 = llvm.getelementptr %arg2[%861] : (!llvm.ptr<1>, i32) -> !llvm.ptr<1>, f32 loc(#loc43)
    %878 = llvm.getelementptr %862[%195] : (!llvm.ptr<1>, i32) -> !llvm.ptr<1>, f32 loc(#loc44)
    %879 = llvm.getelementptr %863[%195] : (!llvm.ptr<1>, i32) -> !llvm.ptr<1>, f32 loc(#loc44)
    %880 = llvm.getelementptr %864[%195] : (!llvm.ptr<1>, i32) -> !llvm.ptr<1>, f32 loc(#loc44)
    %881 = llvm.getelementptr %865[%195] : (!llvm.ptr<1>, i32) -> !llvm.ptr<1>, f32 loc(#loc44)
    %882 = llvm.getelementptr %866[%195] : (!llvm.ptr<1>, i32) -> !llvm.ptr<1>, f32 loc(#loc44)
    %883 = llvm.getelementptr %867[%195] : (!llvm.ptr<1>, i32) -> !llvm.ptr<1>, f32 loc(#loc44)
    %884 = llvm.getelementptr %868[%195] : (!llvm.ptr<1>, i32) -> !llvm.ptr<1>, f32 loc(#loc44)
    %885 = llvm.getelementptr %869[%195] : (!llvm.ptr<1>, i32) -> !llvm.ptr<1>, f32 loc(#loc44)
    %886 = llvm.getelementptr %870[%195] : (!llvm.ptr<1>, i32) -> !llvm.ptr<1>, f32 loc(#loc44)
    %887 = llvm.getelementptr %871[%195] : (!llvm.ptr<1>, i32) -> !llvm.ptr<1>, f32 loc(#loc44)
    %888 = llvm.getelementptr %872[%195] : (!llvm.ptr<1>, i32) -> !llvm.ptr<1>, f32 loc(#loc44)
    %889 = llvm.getelementptr %873[%195] : (!llvm.ptr<1>, i32) -> !llvm.ptr<1>, f32 loc(#loc44)
    %890 = llvm.getelementptr %874[%195] : (!llvm.ptr<1>, i32) -> !llvm.ptr<1>, f32 loc(#loc44)
    %891 = llvm.getelementptr %875[%195] : (!llvm.ptr<1>, i32) -> !llvm.ptr<1>, f32 loc(#loc44)
    %892 = llvm.getelementptr %876[%195] : (!llvm.ptr<1>, i32) -> !llvm.ptr<1>, f32 loc(#loc44)
    %893 = llvm.getelementptr %877[%195] : (!llvm.ptr<1>, i32) -> !llvm.ptr<1>, f32 loc(#loc44)
    %894 = llvm.icmp "slt" %129, %arg3 : i32 loc(#loc45)
    %895 = llvm.icmp "slt" %130, %arg3 : i32 loc(#loc45)
    %896 = llvm.icmp "slt" %131, %arg3 : i32 loc(#loc45)
    %897 = llvm.icmp "slt" %132, %arg3 : i32 loc(#loc45)
    %898 = llvm.icmp "slt" %133, %arg3 : i32 loc(#loc45)
    %899 = llvm.icmp "slt" %134, %arg3 : i32 loc(#loc45)
    %900 = llvm.icmp "slt" %135, %arg3 : i32 loc(#loc45)
    %901 = llvm.icmp "slt" %136, %arg3 : i32 loc(#loc45)
    %902 = llvm.icmp "slt" %137, %arg3 : i32 loc(#loc45)
    %903 = llvm.icmp "slt" %138, %arg3 : i32 loc(#loc45)
    %904 = llvm.icmp "slt" %139, %arg3 : i32 loc(#loc45)
    %905 = llvm.icmp "slt" %140, %arg3 : i32 loc(#loc45)
    %906 = llvm.icmp "slt" %141, %arg3 : i32 loc(#loc45)
    %907 = llvm.icmp "slt" %142, %arg3 : i32 loc(#loc45)
    %908 = llvm.icmp "slt" %143, %arg3 : i32 loc(#loc45)
    %909 = llvm.icmp "slt" %144, %arg3 : i32 loc(#loc45)
    %910 = llvm.icmp "slt" %195, %arg4 : i32 loc(#loc46)
    %911 = llvm.and %894, %910  : i1 loc(#loc47)
    %912 = llvm.and %895, %910  : i1 loc(#loc47)
    %913 = llvm.and %896, %910  : i1 loc(#loc47)
    %914 = llvm.and %897, %910  : i1 loc(#loc47)
    %915 = llvm.and %898, %910  : i1 loc(#loc47)
    %916 = llvm.and %899, %910  : i1 loc(#loc47)
    %917 = llvm.and %900, %910  : i1 loc(#loc47)
    %918 = llvm.and %901, %910  : i1 loc(#loc47)
    %919 = llvm.and %902, %910  : i1 loc(#loc47)
    %920 = llvm.and %903, %910  : i1 loc(#loc47)
    %921 = llvm.and %904, %910  : i1 loc(#loc47)
    %922 = llvm.and %905, %910  : i1 loc(#loc47)
    %923 = llvm.and %906, %910  : i1 loc(#loc47)
    %924 = llvm.and %907, %910  : i1 loc(#loc47)
    %925 = llvm.and %908, %910  : i1 loc(#loc47)
    %926 = llvm.and %909, %910  : i1 loc(#loc47)
    %927 = llvm.extractvalue %542[0] : !llvm.struct<(f32, f32, f32, f32, f32, f32, f32, f32, f32, f32, f32, f32, f32, f32, f32, f32)>  loc(#loc48)
    %928 = llvm.extractvalue %542[1] : !llvm.struct<(f32, f32, f32, f32, f32, f32, f32, f32, f32, f32, f32, f32, f32, f32, f32, f32)>  loc(#loc48)
    %929 = llvm.extractvalue %542[2] : !llvm.struct<(f32, f32, f32, f32, f32, f32, f32, f32, f32, f32, f32, f32, f32, f32, f32, f32)>  loc(#loc48)
    %930 = llvm.extractvalue %542[3] : !llvm.struct<(f32, f32, f32, f32, f32, f32, f32, f32, f32, f32, f32, f32, f32, f32, f32, f32)>  loc(#loc48)
    %931 = llvm.extractvalue %542[4] : !llvm.struct<(f32, f32, f32, f32, f32, f32, f32, f32, f32, f32, f32, f32, f32, f32, f32, f32)>  loc(#loc48)
    %932 = llvm.extractvalue %542[5] : !llvm.struct<(f32, f32, f32, f32, f32, f32, f32, f32, f32, f32, f32, f32, f32, f32, f32, f32)>  loc(#loc48)
    %933 = llvm.extractvalue %542[6] : !llvm.struct<(f32, f32, f32, f32, f32, f32, f32, f32, f32, f32, f32, f32, f32, f32, f32, f32)>  loc(#loc48)
    %934 = llvm.extractvalue %542[7] : !llvm.struct<(f32, f32, f32, f32, f32, f32, f32, f32, f32, f32, f32, f32, f32, f32, f32, f32)>  loc(#loc48)
    %935 = llvm.extractvalue %542[8] : !llvm.struct<(f32, f32, f32, f32, f32, f32, f32, f32, f32, f32, f32, f32, f32, f32, f32, f32)>  loc(#loc48)
    %936 = llvm.extractvalue %542[9] : !llvm.struct<(f32, f32, f32, f32, f32, f32, f32, f32, f32, f32, f32, f32, f32, f32, f32, f32)>  loc(#loc48)
    %937 = llvm.extractvalue %542[10] : !llvm.struct<(f32, f32, f32, f32, f32, f32, f32, f32, f32, f32, f32, f32, f32, f32, f32, f32)>  loc(#loc48)
    %938 = llvm.extractvalue %542[11] : !llvm.struct<(f32, f32, f32, f32, f32, f32, f32, f32, f32, f32, f32, f32, f32, f32, f32, f32)>  loc(#loc48)
    %939 = llvm.extractvalue %542[12] : !llvm.struct<(f32, f32, f32, f32, f32, f32, f32, f32, f32, f32, f32, f32, f32, f32, f32, f32)>  loc(#loc48)
    %940 = llvm.extractvalue %542[13] : !llvm.struct<(f32, f32, f32, f32, f32, f32, f32, f32, f32, f32, f32, f32, f32, f32, f32, f32)>  loc(#loc48)
    %941 = llvm.extractvalue %542[14] : !llvm.struct<(f32, f32, f32, f32, f32, f32, f32, f32, f32, f32, f32, f32, f32, f32, f32, f32)>  loc(#loc48)
    %942 = llvm.extractvalue %542[15] : !llvm.struct<(f32, f32, f32, f32, f32, f32, f32, f32, f32, f32, f32, f32, f32, f32, f32, f32)>  loc(#loc48)
    %943 = llvm.udiv %65, %19  : i32 loc(#loc48)
    %944 = llvm.urem %65, %19  : i32 loc(#loc48)
    %945 = llvm.mul %944, %31 : i32 loc(#loc48)
    %946 = llvm.mul %469, %26 : i32 loc(#loc48)
    %947 = llvm.add %943, %946 : i32 loc(#loc48)
    %948 = llvm.mul %504, %29 : i32 loc(#loc48)
    %949 = llvm.add %945, %948 : i32 loc(#loc48)
    %950 = llvm.add %947, %21 : i32 loc(#loc48)
    %951 = llvm.add %949, %21 : i32 loc(#loc48)
    %952 = llvm.mul %950, %0 : i32 loc(#loc48)
    %953 = llvm.add %952, %951 : i32 loc(#loc48)
    %954 = llvm.getelementptr %4[%953] : (!llvm.ptr<3>, i32) -> !llvm.ptr<3>, f32 loc(#loc48)
    %955 = llvm.mlir.undef : vector<2xf32> loc(#loc48)
    %956 = llvm.insertelement %927, %955[%21 : i32] : vector<2xf32> loc(#loc48)
    %957 = llvm.insertelement %928, %956[%22 : i32] : vector<2xf32> loc(#loc48)
    llvm.store %957, %954 : vector<2xf32>, !llvm.ptr<3> loc(#loc48)
    %958 = llvm.add %943, %29 : i32 loc(#loc48)
    %959 = llvm.add %958, %946 : i32 loc(#loc48)
    %960 = llvm.add %959, %21 : i32 loc(#loc48)
    %961 = llvm.mul %960, %0 : i32 loc(#loc48)
    %962 = llvm.add %961, %951 : i32 loc(#loc48)
    %963 = llvm.getelementptr %4[%962] : (!llvm.ptr<3>, i32) -> !llvm.ptr<3>, f32 loc(#loc48)
    %964 = llvm.insertelement %929, %955[%21 : i32] : vector<2xf32> loc(#loc48)
    %965 = llvm.insertelement %930, %964[%22 : i32] : vector<2xf32> loc(#loc48)
    llvm.store %965, %963 : vector<2xf32>, !llvm.ptr<3> loc(#loc48)
    %966 = llvm.add %949, %26 : i32 loc(#loc48)
    %967 = llvm.add %952, %966 : i32 loc(#loc48)
    %968 = llvm.getelementptr %4[%967] : (!llvm.ptr<3>, i32) -> !llvm.ptr<3>, f32 loc(#loc48)
    %969 = llvm.insertelement %931, %955[%21 : i32] : vector<2xf32> loc(#loc48)
    %970 = llvm.insertelement %932, %969[%22 : i32] : vector<2xf32> loc(#loc48)
    llvm.store %970, %968 : vector<2xf32>, !llvm.ptr<3> loc(#loc48)
    %971 = llvm.add %961, %966 : i32 loc(#loc48)
    %972 = llvm.getelementptr %4[%971] : (!llvm.ptr<3>, i32) -> !llvm.ptr<3>, f32 loc(#loc48)
    %973 = llvm.insertelement %933, %955[%21 : i32] : vector<2xf32> loc(#loc48)
    %974 = llvm.insertelement %934, %973[%22 : i32] : vector<2xf32> loc(#loc48)
    llvm.store %974, %972 : vector<2xf32>, !llvm.ptr<3> loc(#loc48)
    %975 = llvm.add %949, %28 : i32 loc(#loc48)
    %976 = llvm.add %952, %975 : i32 loc(#loc48)
    %977 = llvm.getelementptr %4[%976] : (!llvm.ptr<3>, i32) -> !llvm.ptr<3>, f32 loc(#loc48)
    %978 = llvm.insertelement %935, %955[%21 : i32] : vector<2xf32> loc(#loc48)
    %979 = llvm.insertelement %936, %978[%22 : i32] : vector<2xf32> loc(#loc48)
    llvm.store %979, %977 : vector<2xf32>, !llvm.ptr<3> loc(#loc48)
    %980 = llvm.add %961, %975 : i32 loc(#loc48)
    %981 = llvm.getelementptr %4[%980] : (!llvm.ptr<3>, i32) -> !llvm.ptr<3>, f32 loc(#loc48)
    %982 = llvm.insertelement %937, %955[%21 : i32] : vector<2xf32> loc(#loc48)
    %983 = llvm.insertelement %938, %982[%22 : i32] : vector<2xf32> loc(#loc48)
    llvm.store %983, %981 : vector<2xf32>, !llvm.ptr<3> loc(#loc48)
    %984 = llvm.add %949, %6 : i32 loc(#loc48)
    %985 = llvm.add %952, %984 : i32 loc(#loc48)
    %986 = llvm.getelementptr %4[%985] : (!llvm.ptr<3>, i32) -> !llvm.ptr<3>, f32 loc(#loc48)
    %987 = llvm.insertelement %939, %955[%21 : i32] : vector<2xf32> loc(#loc48)
    %988 = llvm.insertelement %940, %987[%22 : i32] : vector<2xf32> loc(#loc48)
    llvm.store %988, %986 : vector<2xf32>, !llvm.ptr<3> loc(#loc48)
    %989 = llvm.add %961, %984 : i32 loc(#loc48)
    %990 = llvm.getelementptr %4[%989] : (!llvm.ptr<3>, i32) -> !llvm.ptr<3>, f32 loc(#loc48)
    %991 = llvm.insertelement %941, %955[%21 : i32] : vector<2xf32> loc(#loc48)
    %992 = llvm.insertelement %942, %991[%22 : i32] : vector<2xf32> loc(#loc48)
    llvm.store %992, %990 : vector<2xf32>, !llvm.ptr<3> loc(#loc48)
    nvvm.barrier0 loc(#loc48)
    %993 = llvm.urem %65, %28  : i32 loc(#loc48)
    %994 = llvm.udiv %65, %28  : i32 loc(#loc48)
    %995 = llvm.urem %994, %22  : i32 loc(#loc48)
    %996 = llvm.urem %468, %28  : i32 loc(#loc48)
    %997 = llvm.urem %995, %28  : i32 loc(#loc48)
    %998 = llvm.mul %996, %22 : i32 loc(#loc48)
    %999 = llvm.add %997, %998 : i32 loc(#loc48)
    %1000 = llvm.mul %999, %22 : i32 loc(#loc48)
    %1001 = llvm.urem %503, %31  : i32 loc(#loc48)
    %1002 = llvm.urem %993, %27  : i32 loc(#loc48)
    %1003 = llvm.mul %1001, %28 : i32 loc(#loc48)
    %1004 = llvm.add %1002, %1003 : i32 loc(#loc48)
    %1005 = llvm.mul %1004, %22 : i32 loc(#loc48)
    %1006 = llvm.add %1000, %21 : i32 loc(#loc48)
    %1007 = llvm.add %1005, %21 : i32 loc(#loc48)
    %1008 = llvm.mul %1006, %0 : i32 loc(#loc48)
    %1009 = llvm.add %1008, %1007 : i32 loc(#loc48)
    %1010 = llvm.getelementptr %4[%1009] : (!llvm.ptr<3>, i32) -> !llvm.ptr<3>, f32 loc(#loc48)
    %1011 = llvm.load %1010 : !llvm.ptr<3> -> vector<1xf32> loc(#loc48)
    %1012 = llvm.extractelement %1011[%21 : i32] : vector<1xf32> loc(#loc48)
    %1013 = llvm.add %1000, %31 : i32 loc(#loc48)
    %1014 = llvm.mul %1013, %0 : i32 loc(#loc48)
    %1015 = llvm.add %1014, %1007 : i32 loc(#loc48)
    %1016 = llvm.getelementptr %4[%1015] : (!llvm.ptr<3>, i32) -> !llvm.ptr<3>, f32 loc(#loc48)
    %1017 = llvm.load %1016 : !llvm.ptr<3> -> vector<1xf32> loc(#loc48)
    %1018 = llvm.extractelement %1017[%21 : i32] : vector<1xf32> loc(#loc48)
    %1019 = llvm.add %1000, %19 : i32 loc(#loc48)
    %1020 = llvm.mul %1019, %0 : i32 loc(#loc48)
    %1021 = llvm.add %1020, %1007 : i32 loc(#loc48)
    %1022 = llvm.getelementptr %4[%1021] : (!llvm.ptr<3>, i32) -> !llvm.ptr<3>, f32 loc(#loc48)
    %1023 = llvm.load %1022 : !llvm.ptr<3> -> vector<1xf32> loc(#loc48)
    %1024 = llvm.extractelement %1023[%21 : i32] : vector<1xf32> loc(#loc48)
    %1025 = llvm.add %1000, %17 : i32 loc(#loc48)
    %1026 = llvm.mul %1025, %0 : i32 loc(#loc48)
    %1027 = llvm.add %1026, %1007 : i32 loc(#loc48)
    %1028 = llvm.getelementptr %4[%1027] : (!llvm.ptr<3>, i32) -> !llvm.ptr<3>, f32 loc(#loc48)
    %1029 = llvm.load %1028 : !llvm.ptr<3> -> vector<1xf32> loc(#loc48)
    %1030 = llvm.extractelement %1029[%21 : i32] : vector<1xf32> loc(#loc48)
    %1031 = llvm.add %1000, %29 : i32 loc(#loc48)
    %1032 = llvm.mul %1031, %0 : i32 loc(#loc48)
    %1033 = llvm.add %1032, %1007 : i32 loc(#loc48)
    %1034 = llvm.getelementptr %4[%1033] : (!llvm.ptr<3>, i32) -> !llvm.ptr<3>, f32 loc(#loc48)
    %1035 = llvm.load %1034 : !llvm.ptr<3> -> vector<1xf32> loc(#loc48)
    %1036 = llvm.extractelement %1035[%21 : i32] : vector<1xf32> loc(#loc48)
    %1037 = llvm.add %1000, %16 : i32 loc(#loc48)
    %1038 = llvm.mul %1037, %0 : i32 loc(#loc48)
    %1039 = llvm.add %1038, %1007 : i32 loc(#loc48)
    %1040 = llvm.getelementptr %4[%1039] : (!llvm.ptr<3>, i32) -> !llvm.ptr<3>, f32 loc(#loc48)
    %1041 = llvm.load %1040 : !llvm.ptr<3> -> vector<1xf32> loc(#loc48)
    %1042 = llvm.extractelement %1041[%21 : i32] : vector<1xf32> loc(#loc48)
    %1043 = llvm.add %1000, %15 : i32 loc(#loc48)
    %1044 = llvm.mul %1043, %0 : i32 loc(#loc48)
    %1045 = llvm.add %1044, %1007 : i32 loc(#loc48)
    %1046 = llvm.getelementptr %4[%1045] : (!llvm.ptr<3>, i32) -> !llvm.ptr<3>, f32 loc(#loc48)
    %1047 = llvm.load %1046 : !llvm.ptr<3> -> vector<1xf32> loc(#loc48)
    %1048 = llvm.extractelement %1047[%21 : i32] : vector<1xf32> loc(#loc48)
    %1049 = llvm.add %1000, %14 : i32 loc(#loc48)
    %1050 = llvm.mul %1049, %0 : i32 loc(#loc48)
    %1051 = llvm.add %1050, %1007 : i32 loc(#loc48)
    %1052 = llvm.getelementptr %4[%1051] : (!llvm.ptr<3>, i32) -> !llvm.ptr<3>, f32 loc(#loc48)
    %1053 = llvm.load %1052 : !llvm.ptr<3> -> vector<1xf32> loc(#loc48)
    %1054 = llvm.extractelement %1053[%21 : i32] : vector<1xf32> loc(#loc48)
    %1055 = llvm.add %1000, %26 : i32 loc(#loc48)
    %1056 = llvm.mul %1055, %0 : i32 loc(#loc48)
    %1057 = llvm.add %1056, %1007 : i32 loc(#loc48)
    %1058 = llvm.getelementptr %4[%1057] : (!llvm.ptr<3>, i32) -> !llvm.ptr<3>, f32 loc(#loc48)
    %1059 = llvm.load %1058 : !llvm.ptr<3> -> vector<1xf32> loc(#loc48)
    %1060 = llvm.extractelement %1059[%21 : i32] : vector<1xf32> loc(#loc48)
    %1061 = llvm.add %1000, %13 : i32 loc(#loc48)
    %1062 = llvm.mul %1061, %0 : i32 loc(#loc48)
    %1063 = llvm.add %1062, %1007 : i32 loc(#loc48)
    %1064 = llvm.getelementptr %4[%1063] : (!llvm.ptr<3>, i32) -> !llvm.ptr<3>, f32 loc(#loc48)
    %1065 = llvm.load %1064 : !llvm.ptr<3> -> vector<1xf32> loc(#loc48)
    %1066 = llvm.extractelement %1065[%21 : i32] : vector<1xf32> loc(#loc48)
    %1067 = llvm.add %1000, %12 : i32 loc(#loc48)
    %1068 = llvm.mul %1067, %0 : i32 loc(#loc48)
    %1069 = llvm.add %1068, %1007 : i32 loc(#loc48)
    %1070 = llvm.getelementptr %4[%1069] : (!llvm.ptr<3>, i32) -> !llvm.ptr<3>, f32 loc(#loc48)
    %1071 = llvm.load %1070 : !llvm.ptr<3> -> vector<1xf32> loc(#loc48)
    %1072 = llvm.extractelement %1071[%21 : i32] : vector<1xf32> loc(#loc48)
    %1073 = llvm.add %1000, %11 : i32 loc(#loc48)
    %1074 = llvm.mul %1073, %0 : i32 loc(#loc48)
    %1075 = llvm.add %1074, %1007 : i32 loc(#loc48)
    %1076 = llvm.getelementptr %4[%1075] : (!llvm.ptr<3>, i32) -> !llvm.ptr<3>, f32 loc(#loc48)
    %1077 = llvm.load %1076 : !llvm.ptr<3> -> vector<1xf32> loc(#loc48)
    %1078 = llvm.extractelement %1077[%21 : i32] : vector<1xf32> loc(#loc48)
    %1079 = llvm.add %1000, %18 : i32 loc(#loc48)
    %1080 = llvm.mul %1079, %0 : i32 loc(#loc48)
    %1081 = llvm.add %1080, %1007 : i32 loc(#loc48)
    %1082 = llvm.getelementptr %4[%1081] : (!llvm.ptr<3>, i32) -> !llvm.ptr<3>, f32 loc(#loc48)
    %1083 = llvm.load %1082 : !llvm.ptr<3> -> vector<1xf32> loc(#loc48)
    %1084 = llvm.extractelement %1083[%21 : i32] : vector<1xf32> loc(#loc48)
    %1085 = llvm.add %1000, %10 : i32 loc(#loc48)
    %1086 = llvm.mul %1085, %0 : i32 loc(#loc48)
    %1087 = llvm.add %1086, %1007 : i32 loc(#loc48)
    %1088 = llvm.getelementptr %4[%1087] : (!llvm.ptr<3>, i32) -> !llvm.ptr<3>, f32 loc(#loc48)
    %1089 = llvm.load %1088 : !llvm.ptr<3> -> vector<1xf32> loc(#loc48)
    %1090 = llvm.extractelement %1089[%21 : i32] : vector<1xf32> loc(#loc48)
    %1091 = llvm.add %1000, %9 : i32 loc(#loc48)
    %1092 = llvm.mul %1091, %0 : i32 loc(#loc48)
    %1093 = llvm.add %1092, %1007 : i32 loc(#loc48)
    %1094 = llvm.getelementptr %4[%1093] : (!llvm.ptr<3>, i32) -> !llvm.ptr<3>, f32 loc(#loc48)
    %1095 = llvm.load %1094 : !llvm.ptr<3> -> vector<1xf32> loc(#loc48)
    %1096 = llvm.extractelement %1095[%21 : i32] : vector<1xf32> loc(#loc48)
    %1097 = llvm.add %1000, %8 : i32 loc(#loc48)
    %1098 = llvm.mul %1097, %0 : i32 loc(#loc48)
    %1099 = llvm.add %1098, %1007 : i32 loc(#loc48)
    %1100 = llvm.getelementptr %4[%1099] : (!llvm.ptr<3>, i32) -> !llvm.ptr<3>, f32 loc(#loc48)
    %1101 = llvm.load %1100 : !llvm.ptr<3> -> vector<1xf32> loc(#loc48)
    %1102 = llvm.extractelement %1101[%21 : i32] : vector<1xf32> loc(#loc48)
    %1103 = llvm.mlir.undef : vector<1xf32> loc(#loc48)
    %1104 = llvm.insertelement %1012, %1103[%21 : i32] : vector<1xf32> loc(#loc48)
    %1105 = llvm.bitcast %1104 : vector<1xf32> to i32 loc(#loc48)
    %1106 = llvm.and %1, %911  : i1 loc(#loc48)
    %1107 = llvm.inline_asm has_side_effects asm_dialect = att operand_attrs = [] "@$2 st.global.b32 [ $1 + 0 ], { $0 };", "r,l,b" %1105, %878, %1106 : (i32, !llvm.ptr<1>, i1) -> !llvm.void loc(#loc48)
    %1108 = llvm.insertelement %1018, %1103[%21 : i32] : vector<1xf32> loc(#loc48)
    %1109 = llvm.bitcast %1108 : vector<1xf32> to i32 loc(#loc48)
    %1110 = llvm.and %1, %912  : i1 loc(#loc48)
    %1111 = llvm.inline_asm has_side_effects asm_dialect = att operand_attrs = [] "@$2 st.global.b32 [ $1 + 0 ], { $0 };", "r,l,b" %1109, %879, %1110 : (i32, !llvm.ptr<1>, i1) -> !llvm.void loc(#loc48)
    %1112 = llvm.insertelement %1024, %1103[%21 : i32] : vector<1xf32> loc(#loc48)
    %1113 = llvm.bitcast %1112 : vector<1xf32> to i32 loc(#loc48)
    %1114 = llvm.and %1, %913  : i1 loc(#loc48)
    %1115 = llvm.inline_asm has_side_effects asm_dialect = att operand_attrs = [] "@$2 st.global.b32 [ $1 + 0 ], { $0 };", "r,l,b" %1113, %880, %1114 : (i32, !llvm.ptr<1>, i1) -> !llvm.void loc(#loc48)
    %1116 = llvm.insertelement %1030, %1103[%21 : i32] : vector<1xf32> loc(#loc48)
    %1117 = llvm.bitcast %1116 : vector<1xf32> to i32 loc(#loc48)
    %1118 = llvm.and %1, %914  : i1 loc(#loc48)
    %1119 = llvm.inline_asm has_side_effects asm_dialect = att operand_attrs = [] "@$2 st.global.b32 [ $1 + 0 ], { $0 };", "r,l,b" %1117, %881, %1118 : (i32, !llvm.ptr<1>, i1) -> !llvm.void loc(#loc48)
    %1120 = llvm.insertelement %1036, %1103[%21 : i32] : vector<1xf32> loc(#loc48)
    %1121 = llvm.bitcast %1120 : vector<1xf32> to i32 loc(#loc48)
    %1122 = llvm.and %1, %915  : i1 loc(#loc48)
    %1123 = llvm.inline_asm has_side_effects asm_dialect = att operand_attrs = [] "@$2 st.global.b32 [ $1 + 0 ], { $0 };", "r,l,b" %1121, %882, %1122 : (i32, !llvm.ptr<1>, i1) -> !llvm.void loc(#loc48)
    %1124 = llvm.insertelement %1042, %1103[%21 : i32] : vector<1xf32> loc(#loc48)
    %1125 = llvm.bitcast %1124 : vector<1xf32> to i32 loc(#loc48)
    %1126 = llvm.and %1, %916  : i1 loc(#loc48)
    %1127 = llvm.inline_asm has_side_effects asm_dialect = att operand_attrs = [] "@$2 st.global.b32 [ $1 + 0 ], { $0 };", "r,l,b" %1125, %883, %1126 : (i32, !llvm.ptr<1>, i1) -> !llvm.void loc(#loc48)
    %1128 = llvm.insertelement %1048, %1103[%21 : i32] : vector<1xf32> loc(#loc48)
    %1129 = llvm.bitcast %1128 : vector<1xf32> to i32 loc(#loc48)
    %1130 = llvm.and %1, %917  : i1 loc(#loc48)
    %1131 = llvm.inline_asm has_side_effects asm_dialect = att operand_attrs = [] "@$2 st.global.b32 [ $1 + 0 ], { $0 };", "r,l,b" %1129, %884, %1130 : (i32, !llvm.ptr<1>, i1) -> !llvm.void loc(#loc48)
    %1132 = llvm.insertelement %1054, %1103[%21 : i32] : vector<1xf32> loc(#loc48)
    %1133 = llvm.bitcast %1132 : vector<1xf32> to i32 loc(#loc48)
    %1134 = llvm.and %1, %918  : i1 loc(#loc48)
    %1135 = llvm.inline_asm has_side_effects asm_dialect = att operand_attrs = [] "@$2 st.global.b32 [ $1 + 0 ], { $0 };", "r,l,b" %1133, %885, %1134 : (i32, !llvm.ptr<1>, i1) -> !llvm.void loc(#loc48)
    %1136 = llvm.insertelement %1060, %1103[%21 : i32] : vector<1xf32> loc(#loc48)
    %1137 = llvm.bitcast %1136 : vector<1xf32> to i32 loc(#loc48)
    %1138 = llvm.and %1, %919  : i1 loc(#loc48)
    %1139 = llvm.inline_asm has_side_effects asm_dialect = att operand_attrs = [] "@$2 st.global.b32 [ $1 + 0 ], { $0 };", "r,l,b" %1137, %886, %1138 : (i32, !llvm.ptr<1>, i1) -> !llvm.void loc(#loc48)
    %1140 = llvm.insertelement %1066, %1103[%21 : i32] : vector<1xf32> loc(#loc48)
    %1141 = llvm.bitcast %1140 : vector<1xf32> to i32 loc(#loc48)
    %1142 = llvm.and %1, %920  : i1 loc(#loc48)
    %1143 = llvm.inline_asm has_side_effects asm_dialect = att operand_attrs = [] "@$2 st.global.b32 [ $1 + 0 ], { $0 };", "r,l,b" %1141, %887, %1142 : (i32, !llvm.ptr<1>, i1) -> !llvm.void loc(#loc48)
    %1144 = llvm.insertelement %1072, %1103[%21 : i32] : vector<1xf32> loc(#loc48)
    %1145 = llvm.bitcast %1144 : vector<1xf32> to i32 loc(#loc48)
    %1146 = llvm.and %1, %921  : i1 loc(#loc48)
    %1147 = llvm.inline_asm has_side_effects asm_dialect = att operand_attrs = [] "@$2 st.global.b32 [ $1 + 0 ], { $0 };", "r,l,b" %1145, %888, %1146 : (i32, !llvm.ptr<1>, i1) -> !llvm.void loc(#loc48)
    %1148 = llvm.insertelement %1078, %1103[%21 : i32] : vector<1xf32> loc(#loc48)
    %1149 = llvm.bitcast %1148 : vector<1xf32> to i32 loc(#loc48)
    %1150 = llvm.and %1, %922  : i1 loc(#loc48)
    %1151 = llvm.inline_asm has_side_effects asm_dialect = att operand_attrs = [] "@$2 st.global.b32 [ $1 + 0 ], { $0 };", "r,l,b" %1149, %889, %1150 : (i32, !llvm.ptr<1>, i1) -> !llvm.void loc(#loc48)
    %1152 = llvm.insertelement %1084, %1103[%21 : i32] : vector<1xf32> loc(#loc48)
    %1153 = llvm.bitcast %1152 : vector<1xf32> to i32 loc(#loc48)
    %1154 = llvm.and %1, %923  : i1 loc(#loc48)
    %1155 = llvm.inline_asm has_side_effects asm_dialect = att operand_attrs = [] "@$2 st.global.b32 [ $1 + 0 ], { $0 };", "r,l,b" %1153, %890, %1154 : (i32, !llvm.ptr<1>, i1) -> !llvm.void loc(#loc48)
    %1156 = llvm.insertelement %1090, %1103[%21 : i32] : vector<1xf32> loc(#loc48)
    %1157 = llvm.bitcast %1156 : vector<1xf32> to i32 loc(#loc48)
    %1158 = llvm.and %1, %924  : i1 loc(#loc48)
    %1159 = llvm.inline_asm has_side_effects asm_dialect = att operand_attrs = [] "@$2 st.global.b32 [ $1 + 0 ], { $0 };", "r,l,b" %1157, %891, %1158 : (i32, !llvm.ptr<1>, i1) -> !llvm.void loc(#loc48)
    %1160 = llvm.insertelement %1096, %1103[%21 : i32] : vector<1xf32> loc(#loc48)
    %1161 = llvm.bitcast %1160 : vector<1xf32> to i32 loc(#loc48)
    %1162 = llvm.and %1, %925  : i1 loc(#loc48)
    %1163 = llvm.inline_asm has_side_effects asm_dialect = att operand_attrs = [] "@$2 st.global.b32 [ $1 + 0 ], { $0 };", "r,l,b" %1161, %892, %1162 : (i32, !llvm.ptr<1>, i1) -> !llvm.void loc(#loc48)
    %1164 = llvm.insertelement %1102, %1103[%21 : i32] : vector<1xf32> loc(#loc48)
    %1165 = llvm.bitcast %1164 : vector<1xf32> to i32 loc(#loc48)
    %1166 = llvm.and %1, %926  : i1 loc(#loc48)
    %1167 = llvm.inline_asm has_side_effects asm_dialect = att operand_attrs = [] "@$2 st.global.b32 [ $1 + 0 ], { $0 };", "r,l,b" %1165, %893, %1166 : (i32, !llvm.ptr<1>, i1) -> !llvm.void loc(#loc48)
    llvm.return loc(#loc49)
  } loc(#loc)
} loc(#loc)
#loc2 = loc("/home/yongqi/external/triton_shared/python/examples/test_matmul.py":95:33)
#loc3 = loc("/home/yongqi/external/triton_shared/python/examples/test_matmul.py":60:24)
#loc4 = loc("/home/yongqi/.local/lib/python3.12/site-packages/triton/language/standard.py":44:22)
#loc5 = loc("/home/yongqi/external/triton_shared/python/examples/test_matmul.py":61:27)
#loc6 = loc("/home/yongqi/.local/lib/python3.12/site-packages/triton/language/standard.py":44:28)
#loc7 = loc("/home/yongqi/external/triton_shared/python/examples/test_matmul.py":62:27)
#loc8 = loc("/home/yongqi/external/triton_shared/python/examples/test_matmul.py":63:38)
#loc9 = loc("/home/yongqi/external/triton_shared/python/examples/test_matmul.py":64:22)
#loc10 = loc("/home/yongqi/external/triton_shared/python/examples/test_matmul.py":65:29)
#loc11 = loc("/home/yongqi/external/triton_shared/python/examples/test_matmul.py":66:35)
#loc12 = loc("/home/yongqi/external/triton_shared/python/examples/test_matmul.py":66:48)
#loc13 = loc("/home/yongqi/external/triton_shared/python/examples/test_matmul.py":67:33)
#loc14 = loc("/home/yongqi/external/triton_shared/python/examples/test_matmul.py":67:27)
#loc15 = loc("/home/yongqi/external/triton_shared/python/examples/test_matmul.py":68:19)
#loc16 = loc("/home/yongqi/external/triton_shared/python/examples/test_matmul.py":68:40)
#loc17 = loc("/home/yongqi/external/triton_shared/python/examples/test_matmul.py":77:23)
#loc18 = loc("/home/yongqi/external/triton_shared/python/examples/test_matmul.py":77:51)
#loc19 = loc("/home/yongqi/external/triton_shared/python/examples/test_matmul.py":77:38)
#loc20 = loc("/home/yongqi/external/triton_shared/python/examples/test_matmul.py":77:68)
#loc21 = loc("/home/yongqi/external/triton_shared/python/examples/test_matmul.py":78:23)
#loc22 = loc("/home/yongqi/external/triton_shared/python/examples/test_matmul.py":78:51)
#loc23 = loc("/home/yongqi/external/triton_shared/python/examples/test_matmul.py":78:38)
#loc24 = loc("/home/yongqi/external/triton_shared/python/examples/test_matmul.py":78:68)
#loc25 = loc("/home/yongqi/external/triton_shared/python/examples/test_matmul.py":80:41)
#loc26 = loc("/home/yongqi/external/triton_shared/python/examples/test_matmul.py":80:60)
#loc27 = loc("/home/yongqi/external/triton_shared/python/examples/test_matmul.py":80:53)
#loc28 = loc("/home/yongqi/external/triton_shared/python/examples/test_matmul.py":80:22)
#loc29 = loc("/home/yongqi/external/triton_shared/python/examples/test_matmul.py":81:40)
#loc30 = loc("/home/yongqi/external/triton_shared/python/examples/test_matmul.py":81:52)
#loc31 = loc("/home/yongqi/external/triton_shared/python/examples/test_matmul.py":81:22)
#loc32 = loc("/home/yongqi/external/triton_shared/python/examples/test_matmul.py":89:33)
#loc33 = loc("/home/yongqi/external/triton_shared/python/examples/test_matmul.py":98:33)
#loc36 = loc("/home/yongqi/external/triton_shared/python/examples/test_matmul.py":92:51)
#loc40 = loc("/home/yongqi/external/triton_shared/python/examples/test_matmul.py":92:55)
#loc41 = loc("/home/yongqi/external/triton_shared/python/examples/test_matmul.py":92:59)
#loc42 = loc("/home/yongqi/external/triton_shared/python/examples/test_matmul.py":109:33)
#loc43 = loc("/home/yongqi/external/triton_shared/python/examples/test_matmul.py":109:21)
#loc44 = loc("/home/yongqi/external/triton_shared/python/examples/test_matmul.py":109:52)
#loc45 = loc("/home/yongqi/external/triton_shared/python/examples/test_matmul.py":110:33)
#loc46 = loc("/home/yongqi/external/triton_shared/python/examples/test_matmul.py":110:58)
#loc47 = loc("/home/yongqi/external/triton_shared/python/examples/test_matmul.py":110:39)
#loc48 = loc("/home/yongqi/external/triton_shared/python/examples/test_matmul.py":111:21)
#loc49 = loc("/home/yongqi/external/triton_shared/python/examples/test_matmul.py":111:4)
#loc50 = loc(callsite(#loc4 at #loc5))
#loc51 = loc(callsite(#loc6 at #loc5))
#loc52 = loc(callsite(#loc4 at #loc7))
#loc53 = loc(callsite(#loc6 at #loc7))
#loc54 = loc(callsite(#loc4 at #loc32))
#loc55 = loc(callsite(#loc6 at #loc32))
